simple_model/simple.tflite (tflite, 4240 bytes, 2 tensors)

model/dense/MatMul i1 [2, 32] scale=0.0043026954 zero_point=0
0	0x08	0.034421563
1	0x30	0.20652938
2	0x54	0.3614264
3	0x93	-0.46899378
4	0x02	0.008605391
5	0x61	0.41736144
6	0x54	0.3614264
7	0x89	-0.51202077
8	0x01	0.0043026954
9	0x67	0.44317764
10	0xe1	-0.13338356
11	0xc3	-0.2624644
12	0x03	0.012908086
13	0xa3	-0.40015066
14	0xcb	-0.22804286
15	0x56	0.3700318
16	0x3b	0.25385904
17	0xaa	-0.3700318
18	0x5e	0.40445337
19	0xa1	-0.40875608
20	0xf5	-0.04732965
21	0xa7	-0.38293988
22	0xf5	-0.04732965
23	0x97	-0.451783
24	0x23	0.15059434
25	0x4e	0.33561024
26	0x57	0.3743345
27	0x35	0.22804286
28	0xe6	-0.11187008
29	0xd9	-0.16780512
30	0x9a	-0.43887493
31	0xf7	-0.03872426
32	0x32	0.21513477
33	0xd6	-0.1807132
34	0x53	0.35712373
35	0x09	0.03872426
36	0xbe	-0.2839779
37	0x40	0.2753725
38	0xb9	-0.3054914
39	0x4c	0.32700485
40	0xc4	-0.25816172
41	0xd2	-0.19792399
42	0x66	0.43887493
43	0x2c	0.1893186
44	0xc1	-0.27106982
45	0x5d	0.40015066
46	0x48	0.30979407
47	0xeb	-0.0903566
48	0x67	0.44317764
49	0x5b	0.3915453
50	0xcd	-0.21943747
51	0x07	0.030118868
52	0x7f	0.54644233
53	0x08	0.034421563
54	0x61	0.41736144
55	0xd5	-0.1850159
56	0xf0	-0.06884313
57	0xff	-0.0043026954
58	0x15	0.0903566
59	0xab	-0.3657291
60	0x3d	0.2624644
61	0x58	0.3786372
62	0x68	0.44748032
63	0x50	0.34421563

model/batch_normalization/FusedBatchNormV3;model/conv2d/BiasAdd/ReadVariableOp;model/conv2d/BiasAdd;model/conv2d/Conv2D/ReadVariableOp;model/conv2d/Conv2D i1 [32, 3, 3, 1]
0	0xef	-17
1	0x8c	-116
2	0xe5	-27
3	0x23	35
4	0x81	-127
5	0xa9	-87
6	0x44	68
7	0x8a	-118
8	0xa2	-94
9	0xfe	-2
10	0xc6	-58
11	0x12	18
12	0xcb	-53
13	0x5b	91
14	0xe0	-32
15	0x1d	29
16	0x7f	127
17	0x11	17
18	0x18	24
19	0xfa	-6
20	0xd6	-42
21	0x52	82
22	0x81	-127
23	0x7a	122
24	0xda	-38
25	0x1a	26
26	0xe5	-27
27	0x7f	127
28	0x5e	94
29	0x58	88
30	0xb1	-79
31	0xe0	-32
32	0xed	-19
33	0x8a	-118
34	0xd3	-45
35	0xf2	-14
36	0x81	-127
37	0xd7	-41
38	0xf8	-8
39	0xc5	-59
40	0xfe	-2
41	0x44	68
42	0x19	25
43	0xf0	-16
44	0x1f	31
45	0x81	-127
46	0xca	-54
47	0x2c	44
48	0x3c	60
49	0x1d	29
50	0x06	6
51	0xcc	-52
52	0xe5	-27
53	0x2a	42
54	0x83	-125
55	0x9a	-102
56	0x5c	92
57	0x7d	125
58	0x00	0
59	0x7f	127
60	0xd8	-40
61	0x1c	28
62	0x71	113
63	0x6a	106
64	0x41	65
65	0x7f	127
66	0x93	-109
67	0xd6	-42
68	0x2a	42
69	0xbb	-69
70	0xcb	-53
71	0xb9	-71
72	0xb5	-75
73	0x0a	10
74	0xf5	-11
75	0x03	3
76	0xd4	-44
77	0x17	23
78	0x09	9
79	0x5f	95
80	0x7f	127
81	0xf0	-16
82	0x81	-127
83	0x41	65
84	0x3a	58
85	0x7d	125
86	0xa9	-87
87	0xc1	-63
88	0xb8	-72
89	0x4d	77
90	0xea	-22
91	0xd2	-46
92	0x37	55
93	0x91	-111
94	0xce	-50
95	0x81	-127
96	0xe1	-31
97	0xd9	-39
98	0xae	-82
99	0xcb	-53
100	0xe3	-29
101	0x1b	27
102	0x81	-127
103	0xd7	-41
104	0xa7	-89
105	0xd5	-43
106	0xd2	-46
107	0x88	-120
108	0xe8	-24
109	0xfd	-3
110	0xf0	-16
111	0xcf	-49
112	0x0f	15
113	0x12	18
114	0x1f	31
115	0x09	9
116	0x7f	127
117	0xfe	-2
118	0xea	-22
119	0x81	-127
120	0x06	6
121	0xf8	-8
122	0x15	21
123	0x06	6
124	0x18	24
125	0x67	103
126	0x7f	127
127	0x38	56
128	0x65	101
129	0x08	8
130	0xd3	-45
131	0xe5	-27
132	0xcc	-52
133	0xae	-82
134	0xb1	-79
135	0xb3	-77
136	0x1a	26
137	0xe3	-29
138	0x0c	12
139	0x7f	127
140	0x47	71
141	0x25	37
142	0xdc	-36
143	0xf3	-13
144	0x43	67
145	0x04	4
146	0x71	113
147	0xb0	-80
148	0x9a	-102
149	0x81	-127
150	0xcb	-53
151	0xd2	-46
152	0x9f	-97
153	0x78	120
154	0x7f	127
155	0x6d	109
156	0x25	37
157	0x03	3
158	0x52	82
159	0x54	84
160	0x15	21
161	0x62	98
162	0x0f	15
163	0x15	21
164	0x81	-127
165	0x08	8
166	0xfa	-6
167	0x32	50
168	0xe2	-30
169	0x13	19
170	0xf1	-15
171	0x7f	127
172	0x2b	43
173	0x3d	61
174	0x5b	91
175	0x0e	14
176	0x4a	74
177	0x3e	62
178	0xf5	-11
179	0x17	23
180	0x67	103
181	0x6c	108
182	0x7f	127
183	0xd3	-45
184	0xbd	-67
185	0xad	-83
186	0x02	2
187	0x9e	-98
188	0xcd	-51
189	0x02	2
190	0xb9	-71
191	0x2e	46
192	0xa3	-93
193	0xaa	-86
194	0x81	-127
195	0xfb	-5
196	0xc0	-64
197	0x9f	-97
198	0x7f	127
199	0x33	51
200	0x69	105
201	0x12	18
202	0x17	23
203	0x2a	42
204	0xf8	-8
205	0x13	19
206	0x13	19
207	0x7f	127
208	0x39	57
209	0x6d	109
210	0x51	81
211	0x2a	42
212	0x3e	62
213	0xe8	-24
214	0x16	22
215	0x22	34
216	0x90	-112
217	0xc2	-62
218	0x7f	127
219	0x74	116
220	0x2b	43
221	0xc4	-60
222	0xdb	-37
223	0xeb	-21
224	0x61	97
225	0x81	-127
226	0xc8	-56
227	0x2b	43
228	0x7e	126
229	0xd2	-46
230	0x2e	46
231	0x90	-112
232	0x20	32
233	0x12	18
234	0xd0	-48
235	0xd1	-47
236	0x38	56
237	0x07	7
238	0xd8	-40
239	0x1f	31
240	0x09	9
241	0x7f	127
242	0x0a	10
243	0xf1	-15
244	0xc0	-64
245	0xf9	-7
246	0xdf	-33
247	0x24	36
248	0x3b	59
249	0x12	18
250	0x15	21
251	0x7f	127
252	0xc0	-64
253	0xd7	-41
254	0x15	21
255	0x81	-127
