simple_depthwise_conv/simple_depthwise_conv.tflite (tflite, 10624 bytes, 4 tensors)

model/batch_normalization_1/FusedBatchNormV3;model/depthwise_conv2d/depthwise;model/depthwise_conv2d/BiasAdd;model/batch_normalization_2/FusedBatchNormV3;model/conv2d_1/BiasAdd/ReadVariableOp;model/conv2d_1/BiasAdd;model/conv2d_1/Conv2D/ReadVariableOp;model/conv2d_1/Conv2D;model/depthwise_conv2d/BiasAdd/ReadVariableOp i1 [1, 3, 3, 32]
-29 -6 56 -127 90 116 45 94
4 -49 -94 52 -127 123 8 19
-127 122 -127 -37 -111 18 -70 33
106 -127 29 -56 -127 53 44 66
5 94 -81 -29 -93 63 -86 48
-127 42 -88 -16 17 54 -59 -12
4 113 24 -127 37 -21 -93 -127
92 78 -117 2 37 -37 69 4
-12 -89 -18 61 64 127 -24 27
33 -61 -64 99 -110 52 -127 29
8 -91 -17 -25 12 -25 -44 -52
127 66 -46 -127 -76 102 -87 -62
-127 -127 -66 -57 -127 -84 -127 41
-79 6 127 127 -21 115 20 36
8 124 -112 -51 51 77 -65 -95
-103 73 45 -42 41 127 40 46
-58 -25 -127 -71 -25 3 57 -93
-8 -55 64 38 56 -9 -105 -127
-8 -57 -31 66 59 -82 -31 11
-44 122 127 77 39 86 -47 71
-120 -52 110 -1 -95 -36 52 -127
27 49 26 41 -1 45 -121 -18
-6 112 55 25 -127 -84 -127 47
-69 79 99 -87 10 77 -127 36
40 126 31 118 31 -91 87 -41
-5 127 -101 -15 -125 127 37 33
4 127 -11 57 19 53 -45 57
-54 -100 -69 27 -13 -6 53 -117
-28 118 -96 44 120 3 107 -114
-30 -116 -42 -11 53 -98 -52 18
-18 -112 48 -76 22 -90 -97 56
-35 -102 12 58 62 7 -6 -109
00000000: e3fa 3881 5a74 2d5e 04cf a234 817b 0813
00000010: 817a 81db 9112 ba21 6a81 1dc8 8135 2c42
00000020: 055e afe3 a33f aa30 812a a8f0 1136 c5f4
00000030: 0471 1881 25eb a381 5c4e 8b02 25db 4504
00000040: f4a7 ee3d 407f e81b 21c3 c063 9234 811d
00000050: 08a5 efe7 0ce7 d4cc 7f42 d281 b466 a9c2
00000060: 8181 bec7 81ac 8129 b106 7f7f eb73 1424
00000070: 087c 90cd 334d bfa1 9949 2dd6 297f 282e
00000080: c6e7 81b9 e703 39a3 f8c9 4026 38f7 9781
00000090: f8c7 e142 3bae e10b d47a 7f4d 2756 d147
000000a0: 88cc 6eff a1dc 3481 1b31 1a29 ff2d 87ee
000000b0: fa70 3719 81ac 812f bb4f 63a9 0a4d 8124
000000c0: 287e 1f76 1fa5 57d7 fb7f 9bf1 837f 2521
000000d0: 047f f539 1335 d339 ca9c bb1b f3fa 358b
000000e0: e476 a02c 7803 6b8e e28c d6f5 359e cc12
000000f0: ee90 30b4 16a6 9f38 dd9a 0c3a 3e07 fa93

model/dense/MatMul i1 [2, 32] scale=0.0047267345 zero_point=0
0.20324959 -0.45849323 0.5199408 -0.29305753 0.45849323 0.27887735 0.18434264 0.17488918
-0.27887735 -0.13234857 -0.31669122 0.09453469 0.5199408 -0.3828655 -0.2883308 0.28360406
0.08508122 -0.037813876 -0.32141796 0.42067936 -0.2599704 0.06144755 0.12762183 -0.023633672
-0.14652877 0.14180203 0.52939427 -0.50103384 0.023633672 -0.12762183 -0.36395857 -0.24106346
0.06144755 -0.04254061 -0.54357445 0.17961591 -0.21270305 -0.47740018 -0.53884774 0.48685366
0.40177244 0.25051692 0.40177244 -0.44431305 -0.5104873 0.4395863 -0.014180204 -0.32614467
0.36868528 -0.6002953 -0.018906938 -0.0047267345 -0.20324959 -0.36395857 -0.17016244 0.29778427
0.37813875 0.32141796 -0.056720816 0.47740018 0.22215652 0.31196448 0.5057606 0.32141796
00000000: 2b9f 6ec2 613b 2725 c5e4 bd14 6eaf c33c
00000010: 12f8 bc59 c90d 1bfb e11e 7096 05e5 b3cd
00000020: 0df7 8d26 d39b 8e67 5535 55a2 945d fdbb
00000030: 4e81 fcff d5b3 dc3f 5044 f465 2f42 6b44

model/batch_normalization/FusedBatchNormV3;model/conv2d/BiasAdd/ReadVariableOp;model/conv2d/BiasAdd;model/conv2d/Conv2D/ReadVariableOp;model/conv2d/Conv2D i1 [32, 3, 3, 1]
-10 127 -6 -8 9 10 -23 19
-25 -94 -31 12 116 127 -20 -78
34 24 -32 40 127 111 -120 112
15 92 -66 -41 -16 -80 -123 -72
-40 -53 -126 127 -86 -127 39 21
-51 11 73 1 -79 14 -34 -14
24 37 31 69 127 46 -25 43
-28 -79 127 -98 -88 72 -113 -74
2 9 -127 74 -15 11 121 30
-127 -24 -9 7 -47 16 -100 -94
-66 122 -17 30 89 -127 -40 57
-99 29 -31 -10 67 8 34 123
-44 10 127 14 -101 -83 44 29
3 -127 -57 -6 2 -43 18 -30
97 -67 -127 113 20 46 114 28
-127 63 -88 -43 23 -8 69 53
-85 127 -93 -54 71 -50 62 -27
127 0 -102 62 1 -5 35 -17
86 -119 36 -65 86 -124 41 2
-127 -5 -34 17 4 126 -117 11
-115 127 -23 -3 15 88 -20 -9
-93 127 -91 -114 -127 -68 14 -30
-25 8 -79 -101 97 69 -26 -36
-127 108 20 38 -123 -14 14 57
-72 -16 -18 127 -11 3 -26 5
0 9 127 0 -14 6 -3 -127
-1 -58 122 -24 94 -39 36 -24
124 15 69 17 -25 10 -6 -127
-57 -47 -73 62 -66 -76 3 -127
4 119 -3 48 96 -127 20 52
-64 0 72 31 -45 -1 -13 -45
-45 -14 -28 127 28 -117 34 22
00000000: f67f faf8 090a e913 e7a2 e10c 747f ecb2
00000010: 2218 e028 7f6f 8870 0f5c bed7 f0b0 85b8
00000020: d8cb 827f aa81 2715 cd0b 4901 b10e def2
00000030: 1825 1f45 7f2e e72b e4b1 7f9e a848 8fb6
00000040: 0209 814a f10b 791e 81e8 f707 d110 9ca2
00000050: be7a ef1e 5981 d839 9d1d e1f6 4308 227b
00000060: d40a 7f0e 9bad 2c1d 0381 c7fa 02d5 12e2
00000070: 61bd 8171 142e 721c 813f a8d5 17f8 4535
00000080: ab7f a3ca 47ce 3ee5 7f00 9a3e 01fb 23ef
00000090: 5689 24bf 5684 2902 81fb de11 047e 8b0b
000000a0: 8d7f e9fd 0f58 ecf7 a37f a58e 81bc 0ee2
000000b0: e708 b19b 6145 e6dc 816c 1426 85f2 0e39
000000c0: b8f0 ee7f f503 e605 0009 7f00 f206 fd81
000000d0: ffc6 7ae8 5ed9 24e8 7c0f 4511 e70a fa81
000000e0: c7d1 b73e beb4 0381 0477 fd30 6081 1434
000000f0: c000 481f d3ff f3d3 d3f2 e47f 1c8b 2216

model/batch_normalization_2/FusedBatchNormV3;model/conv2d_1/BiasAdd/ReadVariableOp;model/conv2d_1/BiasAdd;model/conv2d_1/Conv2D/ReadVariableOp;model/conv2d_1/Conv2D i1 [32, 1, 1, 32]
34 36 -63 -9 6 30 32 127
-35 -35 -2 4 88 -26 41 -34
63 20 -67 -36 23 61 -1 -30
-18 -60 -47 -13 15 -63 18 -74
16 -77 -44 71 95 -16 83 -17
8 55 -39 9 -48 38 -127 -72
-34 -25 25 -22 -91 -47 103 51
96 28 3 30 -16 28 36 31
19 -11 98 -42 -38 -64 41 52
51 -49 -34 68 83 -26 -25 15
-52 127 64 54 -63 -29 -103 93
-35 -40 36 39 24 44 43 25
-22 -12 -47 36 83 36 7 0
-54 127 -24 -4 -52 25 17 26
4 -26 -35 -10 -18 -15 5 51
-9 -45 78 55 -47 66 -10 -31
-54 21 88 49 -48 -46 -53 63
-30 -63 35 -127 124 -36 71 64
-105 127 -43 19 -62 37 15 81
-32 28 15 -85 -20 52 37 16
-3 -24 80 76 -96 -31 -52 59
-78 -61 -84 -127 112 -20 77 37
7 45 -9 -53 70 -57 51 82
-45 78 54 59 40 -21 -78 -4
-22 20 -23 -30 -45 7 3 127
33 -29 -5 -79 106 -12 73 -20
-103 77 -10 -64 45 59 -111 71
-11 81 -27 59 -4 -70 49 39
84 43 -12 -2 8 42 75 -77
43 127 -33 -25 -121 -1 -71 39
-13 -40 -16 57 -80 -33 97 -47
-17 -13 70 26 46 -4 54 6
00000000: 2224 c1f7 061e 207f dddd fe04 58e6 29de
00000010: 3f14 bddc 173d ffe2 eec4 d1f3 0fc1 12b6
00000020: 10b3 d447 5ff0 53ef 0837 d909 d026 81b8
00000030: dee7 19ea a5d1 6733 601c 031e f01c 241f
00000040: 13f5 62d6 dac0 2934 33cf de44 53e6 e70f
00000050: cc7f 4036 c1e3 995d ddd8 2427 182c 2b19
00000060: eaf4 d124 5324 0700 ca7f e8fc cc19 111a
00000070: 04e6 ddf6 eef1 0533 f7d3 4e37 d142 f6e1
00000080: ca15 5831 d0d2 cb3f e2c1 2381 7cdc 4740
00000090: 977f d513 c225 0f51 e01c 0fab ec34 2510
000000a0: fde8 504c a0e1 cc3b b2c3 ac81 70ec 4d25
000000b0: 072d f7cb 46c7 3352 d34e 363b 28eb b2fc
000000c0: ea14 e9e2 d307 037f 21e3 fbb1 6af4 49ec
000000d0: 994d f6c0 2d3b 9147 f551 e53b fcba 3127
000000e0: 542b f4fe 082a 4bb3 2b7f dfe7 87ff b927
000000f0: f3d8 f039 b0df 61d1 eff3 461a 2efc 3606
