IntImageInputModel/int_image_size_96_deeper_hotdog.tflite (tflite, 29824 bytes, 10 tensors)

model_16/batch_normalization_129/FusedBatchNormV3;model_16/depthwise_conv2d_56/depthwise;model_16/depthwise_conv2d_56/BiasAdd;model_16/depthwise_conv2d_59/depthwise;model_16/depthwise_conv2d_56/BiasAdd/ReadVariableOp i1 [1, 3, 3, 32]
000000 7f 3d 22 4b ce ae 00 d2 b7 aa 14 4b 8b 81 b9 25
       127 61 34 75 -50 -82 0 -46 -73 -86 20 75 -117 -127 -71 37
000010 81 23 be 02 81 3b aa e4 cc 5a df 03 d7 f5 7f 81
       -127 35 -66 2 -127 59 -86 -28 -52 90 -33 3 -41 -11 127 -127
000020 27 81 2e 81 21 c5 81 35 52 7f 03 2f bf ef c6 ff
       39 -127 46 -127 33 -59 -127 53 82 127 3 47 -65 -17 -58 -1
000030 50 25 f9 c9 33 7f d6 81 fc e2 d2 0c 7f ca d6 0b
       80 37 -7 -55 51 127 -42 -127 -4 -30 -46 12 127 -54 -42 11
000040 1b ed 2c 5f fe c1 e1 b5 95 58 a7 75 2f 2b d5 c9
       27 -19 44 95 -2 -63 -31 -75 -107 88 -89 117 47 43 -43 -55
000050 5a 2b 81 fc e4 00 1a 42 de 6f 7f cf d5 f5 51 39
       90 43 -127 -4 -28 0 26 66 -34 111 127 -49 -43 -11 81 57
000060 48 d9 21 f2 25 fe 03 73 50 d9 06 81 7f 55 df 44
       72 -39 33 -14 37 -2 3 115 80 -39 6 -127 127 85 -33 68
000070 2c 21 2a 93 b4 cd 1f 25 f5 ef 7e f2 54 94 49 06
       44 33 42 -109 -76 -51 31 37 -11 -17 126 -14 84 -108 73 6
000080 d4 47 3c e7 10 ba f2 7f fa 0a f5 bf a9 dc 37 42
       -44 71 60 -25 16 -70 -14 127 -6 10 -11 -65 -87 -36 55 66
000090 6d 9b fe ef 18 fa 63 0e af f0 d6 86 ab 3e c8 e9
       109 -101 -2 -17 24 -6 99 14 -81 -16 -42 -122 -85 62 -56 -23
0000a0 f8 bf e8 f3 28 7f 5c ec de 03 be c7 2c 00 f4 e1
       -8 -65 -24 -13 40 127 92 -20 -34 3 -66 -57 44 0 -12 -31
0000b0 8d 9f bb 17 41 a3 31 3c fe 81 9f 20 4c cc fd 3c
       -115 -97 -69 23 65 -93 49 60 -2 -127 -97 32 76 -52 -3 60
0000c0 d4 c5 81 f7 36 56 1a 82 7f 0a 07 1b 49 cd 7f 16
       -44 -59 -127 -9 54 86 26 -126 127 10 7 27 73 -51 127 22
0000d0 a5 24 2a bb 26 d8 bb b9 1e a8 ef 81 e4 81 f7 f2
       -91 36 42 -69 38 -40 -69 -71 30 -88 -17 -127 -28 -127 -9 -14
0000e0 12 fb e4 8f 81 db ea 9f e8 fa e9 15 53 d0 87 81
       18 -5 -28 -113 -127 -37 -22 -97 -24 -6 -23 21 83 -48 -121 -127
0000f0 cc 0e 54 13 0f 11 7f 92 d0 5d 19 68 2c f8 ed 23
       -52 14 84 19 15 17 127 -110 -48 93 25 104 44 -8 -19 35

model_16/batch_normalization_131/FusedBatchNormV3;model_16/depthwise_conv2d_57/depthwise;model_16/depthwise_conv2d_57/BiasAdd;model_16/depthwise_conv2d_59/depthwise;model_16/depthwise_conv2d_57/BiasAdd/ReadVariableOp i1 [1, 3, 3, 32]
000000 d7 64 ae 11 c8 84 e4 e2 16 3e 0e 81 4f 02 f1 54
       -41 100 -82 17 -56 -124 -28 -30 22 62 14 -127 79 2 -15 84
000010 3c 7f ff f6 cf 25 fc d7 0a 9a 41 09 7f 03 ea 81
       60 127 -1 -10 -49 37 -4 -41 10 -102 65 9 127 3 -22 -127
000020 15 60 d8 39 e9 c7 81 83 23 9b 29 17 e1 7f db 0f
       21 96 -40 57 -23 -57 -127 -125 35 -101 41 23 -31 127 -37 15
000030 a9 14 e2 d2 36 59 ea 31 47 00 12 1c 41 35 8d 18
       -87 20 -30 -46 54 89 -22 49 71 0 18 28 65 53 -115 24
000040 d3 f5 9b 01 d2 bf e0 6b 77 81 7f 2f d2 70 f8 18
       -45 -11 -101 1 -46 -65 -32 107 119 -127 127 47 -46 112 -8 24
000050 18 82 81 81 0f 22 03 07 f6 f3 13 fa 70 33 f4 e8
       24 -126 -127 -127 15 34 3 7 -10 -13 19 -6 112 51 -12 -24
000060 3f 40 e2 53 b6 28 f2 02 8a 08 ed 40 12 12 eb aa
       63 64 -30 83 -74 40 -14 2 -118 8 -19 64 18 18 -21 -86
000070 d9 27 e1 fe fc 44 ef 1f ff 5a 7f dc 23 81 81 04
       -39 39 -31 -2 -4 68 -17 31 -1 90 127 -36 35 -127 -127 4
000080 df 57 81 41 fa 7f dc d1 c2 e8 5f 3d c8 22 98 ff
       -33 87 -127 65 -6 127 -36 -47 -62 -24 95 61 -56 34 -104 -1
000090 ba 2c fe 94 0b 7f 81 f6 1c 52 08 e2 e6 30 c4 b4
       -70 44 -2 -108 11 127 -127 -10 28 82 8 -30 -26 48 -60 -76
0000a0 d4 08 b0 5b a6 ed e3 65 7e f4 00 35 0e 1c 81 f9
       -44 8 -80 91 -90 -19 -29 101 126 -12 0 53 14 28 -127 -7
0000b0 b2 a2 f7 e7 0c 45 f5 5f 55 11 f9 b0 f1 9a e6 f3
       -78 -94 -9 -25 12 69 -11 95 85 17 -7 -80 -15 -102 -26 -13
0000c0 05 7f 20 44 07 33 18 7f 21 05 e5 1d 2a 78 01 bd
       5 127 32 68 7 51 24 127 33 5 -27 29 42 120 1 -67
0000d0 68 07 1d a0 61 fd eb 7f 7f 55 06 cf 33 22 0c 07
       104 7 29 -96 97 -3 -21 127 127 85 6 -49 51 34 12 7
0000e0 7f 66 36 7f 81 f7 fd b8 81 a5 97 32 41 c6 e6 81
       127 102 54 127 -127 -9 -3 -72 -127 -91 -105 50 65 -58 -26 -127
0000f0 c0 2b f7 bc 7f 01 f8 17 f4 7f 28 81 0c 24 ad 04
       -64 43 -9 -68 127 1 -8 23 -12 127 40 -127 12 36 -83 4

model_16/batch_normalization_133/FusedBatchNormV3;model_16/depthwise_conv2d_58/depthwise;model_16/depthwise_conv2d_58/BiasAdd;model_16/depthwise_conv2d_59/depthwise;model_16/depthwise_conv2d_58/BiasAdd/ReadVariableOp i1 [1, 3, 3, 32]
000000 f9 11 75 f8 14 73 45 cd 7f e1 4e 81 81 e6 3b ae
       -7 17 117 -8 20 115 69 -51 127 -31 78 -127 -127 -26 59 -82
000010 11 3c 46 34 c4 f7 b7 16 fb 19 72 e0 43 23 dd ed
       17 60 70 52 -60 -9 -73 22 -5 25 114 -32 67 35 -35 -19
000020 3a 7f 4b 2b 7f 1f 7f 48 42 12 6b ae fd 99 f6 ff
       58 127 75 43 127 31 127 72 66 18 107 -82 -3 -103 -10 -1
000030 3b 4b 7f df 7f 16 c5 42 37 31 07 fb ee f1 81 5f
       59 75 127 -33 127 22 -59 66 55 49 7 -5 -18 -15 -127 95
000040 6e fc 7f 67 3a 5e 64 c9 2e f7 7f d3 c4 e0 fd c3
       110 -4 127 103 58 94 100 -55 46 -9 127 -45 -60 -32 -3 -61
000050 e9 02 2e 81 37 06 04 7f bf 1c 3b cb c1 1d 05 3c
       -23 2 46 -127 55 6 4 127 -65 28 59 -53 -63 29 5 60
000060 7f 1f f6 67 67 07 db 7f f9 a9 4a ac e4 c3 7f 5d
       127 31 -10 103 103 7 -37 127 -7 -87 74 -84 -28 -61 127 93
000070 7f 5f 4b ef 7d 0b d6 38 bf 2d 6b 50 3a 1c 1b 81
       127 95 75 -17 125 11 -42 56 -65 45 107 80 58 28 27 -127
000080 34 f2 e2 7f 38 7f f9 94 de 81 7f cf db b0 6c 92
       52 -14 -30 127 56 127 -7 -108 -34 -127 127 -49 -37 -80 108 -110
000090 23 7f 3f 9d 57 1e f1 f0 8b 7f a8 7f 25 15 48 01
       35 127 63 -99 87 30 -15 -16 -117 127 -88 127 37 21 72 1
0000a0 37 1c 2b 3c 1f 09 04 14 f6 a1 1e e2 11 c0 21 41
       55 28 43 60 31 9 4 20 -10 -95 30 -30 17 -64 33 65
0000b0 3a 1a 57 08 7e f0 c4 dc a5 1d b3 6f 1e 53 7e d3
       58 26 87 8 126 -16 -60 -36 -91 29 -77 111 30 83 126 -45
0000c0 c0 2a 35 f1 08 e0 dd ca e1 d4 07 bd e3 f3 f0 96
       -64 42 53 -15 8 -32 -35 -54 -31 -44 7 -67 -29 -13 -16 -106
0000d0 1e 4d f5 f9 52 7f f0 2d b1 1f bf 66 7f 30 c8 d6
       30 77 -11 -7 82 127 -16 45 -79 31 -65 102 127 48 -56 -42
0000e0 3e 52 0c 29 1d 2a 09 12 de d8 f7 ee bc bb 04 81
       62 82 12 41 29 42 9 18 -34 -40 -9 -18 -68 -69 4 -127
0000f0 6b 70 08 34 31 45 81 e8 81 56 81 e7 eb 61 ed a1
       107 112 8 52 49 69 -127 -24 -127 86 -127 -25 -21 97 -19 -95

model_16/batch_normalization_135/FusedBatchNormV3;model_16/depthwise_conv2d_59/depthwise;model_16/depthwise_conv2d_59/BiasAdd;model_16/depthwise_conv2d_59/BiasAdd/ReadVariableOp i1 [1, 3, 3, 32]
000000 7f ba a0 31 81 47 19 7a 20 7f e8 0c d4 81 b5 bb
       127 -70 -96 49 -127 71 25 122 32 127 -24 12 -44 -127 -75 -69
000010 25 81 8c 5d 32 19 81 c1 0c 6a b3 81 13 55 20 f0
       37 -127 -116 93 50 25 -127 -63 12 106 -77 -127 19 85 32 -16
000020 f9 ad 86 ec 8b 7f 1b 7f 22 45 fd 59 d4 2e e1 0f
       -7 -83 -122 -20 -117 127 27 127 34 69 -3 89 -44 46 -31 15
000030 18 9f 9f 29 43 2b 8a 39 87 5a 81 9a 00 46 81 00
       24 -97 -97 41 67 43 -118 57 -121 90 -127 -102 0 70 -127 0
000040 2b ab ab c5 c9 55 e9 79 14 21 04 cf dc d0 ef 35
       43 -85 -85 -59 -55 85 -23 121 20 33 4 -49 -36 -48 -17 53
000050 d0 b7 d8 fd 5b 33 e7 1a b9 fb fe 17 09 20 bc f0
       -48 -73 -40 -3 91 51 -25 26 -71 -5 -2 23 9 32 -68 -16
000060 d6 d3 de f5 de 2c 7f 03 2e 27 e1 03 e3 a3 03 23
       -42 -45 -34 -11 -34 44 127 3 46 39 -31 3 -29 -93 3 35
000070 64 ef d1 f4 7f 32 04 b9 97 6e b3 ec 1a 10 f1 b6
       100 -17 -47 -12 127 50 4 -71 -105 110 -77 -20 26 16 -15 -74
000080 09 c9 11 e4 8a 40 fe 10 7f fa dd 37 af 7d 4b 7f
       9 -55 17 -28 -118 64 -2 16 127 -6 -35 55 -81 125 75 127
000090 26 8a fe 2b 5f 47 be 44 0a 7f dd db 25 fc c8 81
       38 -118 -2 43 95 71 -66 68 10 127 -35 -37 37 -4 -56 -127
0000a0 13 1f c4 df 84 0b e2 fd 04 e7 f0 81 a6 38 1c 60
       19 31 -60 -33 -124 11 -30 -3 4 -25 -16 -127 -90 56 28 96
0000b0 ec 9f 6d 7f 67 28 ef 6d 08 21 bd 00 2e e1 e4 9d
       -20 -97 109 127 103 40 -17 109 8 33 -67 0 46 -31 -28 -99
0000c0 10 7f 9e 2b f8 19 1d 0f d1 28 81 c0 46 1d 32 e6
       16 127 -98 43 -8 25 29 15 -47 40 -127 -64 70 29 50 -26
0000d0 2d d4 4a fc 4a 7f da 81 36 24 15 4a 3b 5c 29 ed
       45 -44 74 -4 74 127 -38 -127 54 36 21 74 59 92 41 -19
0000e0 54 46 81 66 e2 18 22 05 f8 2d b2 3d 41 70 7f 72
       84 70 -127 102 -30 24 34 5 -8 45 -78 61 65 112 127 114
0000f0 ee aa 45 f7 19 69 bd dc 38 73 c9 41 7f 7f f6 a4
       -18 -86 69 -9 25 105 -67 -36 56 115 -55 65 127 127 -10 -92

model_16/dense_16/MatMul i1 [2, 64] scale=0.023027614 zero_point=0
000000 d9 11 cf 0f 20 ef d3 e4 e1 19 1c 2b 11 ef 18 29
       -0.89807695 0.39146942 -1.1283531 0.34541422 0.73688364 -0.39146942 -1.0362426 -0.6447732 -0.71385604 0.5756903 0.6447732 0.9901874 0.39146942 -0.39146942 0.55266273 0.94413215
000010 21 cf ea 26 16 e0 a2 4e dc 38 ce 68 bd 61 e4 e1
       0.75991124 -1.1283531 -0.50660753 0.87504935 0.50660753 -0.73688364 -2.1645956 1.7961539 -0.8289941 1.2895464 -1.1513807 2.3948717 -1.5428501 2.2336786 -0.6447732 -0.71385604
000020 c6 1a ea e6 1b 81 12 cb dc 28 ed db e9 e4 bf de
       -1.3356016 0.5987179 -0.50660753 -0.5987179 0.6217456 -2.924507 0.41449705 -1.2204635 -0.8289941 0.92110455 -0.43752468 -0.8520217 -0.52963513 -0.6447732 -1.4967949 -0.78293884
000030 0f 24 d7 17 19 4d 14 ed 65 d0 24 26 84 da cd 31
       0.34541422 0.8289941 -0.94413215 0.52963513 0.5756903 1.7731262 0.46055228 -0.43752468 2.325789 -1.1053255 0.8289941 0.87504935 -2.8554242 -0.87504935 -1.1744083 1.1283531
000040 27 e7 43 dd d8 1b 29 10 19 ec d2 d0 e6 1f eb d7
       0.89807695 -0.5756903 1.5428501 -0.8059665 -0.92110455 0.6217456 0.94413215 0.36844182 0.5756903 -0.46055228 -1.0592703 -1.1053255 -0.5987179 0.71385604 -0.48357987 -0.94413215
000050 f7 3a 15 dc eb 0c 5f c0 30 c9 38 a2 3f a3 0f 25
       -0.20724852 1.3356016 0.48357987 -0.8289941 -0.48357987 0.27633137 2.1876233 -1.4737673 1.1053255 -1.2665187 1.2895464 -2.1645956 1.4507396 -2.1415682 0.34541422 0.8520217
000060 41 f4 27 1c e1 6f eb 26 2f d2 10 29 12 1d 4f 28
       1.4967949 -0.27633137 0.89807695 0.6447732 -0.71385604 2.556065 -0.48357987 0.87504935 1.0822978 -1.0592703 0.36844182 0.94413215 0.41449705 0.6678008 1.8191814 0.92110455
000070 e8 d4 18 da e6 c1 e6 16 a8 24 d1 d3 76 25 4c cd
       -0.55266273 -1.0132151 0.55266273 -0.87504935 -0.5987179 -1.4507396 -0.5987179 0.50660753 -2.0264301 0.8289941 -1.0822978 -1.0362426 2.7172585 0.8520217 1.7500987 -1.1744083

model_16/batch_normalization_128/FusedBatchNormV3;model_16/conv2d_72/BiasAdd/ReadVariableOp;model_16/conv2d_72/BiasAdd;model_16/conv2d_72/Conv2D/ReadVariableOp;model_16/conv2d_72/Conv2D i1 [32, 3, 3, 1]
000000 81 39 3a 15 05 66 b6 bc 73 b8 fb 81 1a 03 ee 31
       -127 57 58 21 5 102 -74 -68 115 -72 -5 -127 26 3 -18 49
000010 57 fa 12 fc 23 1b e1 7f fe 51 d7 da de d3 d7 c7
       87 -6 18 -4 35 27 -31 127 -2 81 -41 -38 -34 -45 -41 -57
000020 76 61 81 e2 7c c9 81 8f 64 48 7f a1 fa 02 f3 fc
       118 97 -127 -30 124 -55 -127 -113 100 72 127 -95 -6 2 -13 -4
000030 e3 3b da d5 7f 64 17 3c 62 9d ec 81 b3 34 fb c0
       -29 59 -38 -43 127 100 23 60 98 -99 -20 -127 -77 52 -5 -64
000040 6a 2b 0b 7f 17 9f 31 68 1b ce 3e 18 7f 9c f8 ca
       106 43 11 127 23 -97 49 104 27 -50 62 24 127 -100 -8 -54
000050 46 7f 1d ac ff f8 1c ed 37 1b fb 0f ff fa 38 ba
       70 127 29 -84 -1 -8 28 -19 55 27 -5 15 -1 -6 56 -70
000060 9b 7f f4 00 40 3e 07 cd d0 81 17 d6 03 08 fc f5
       -101 127 -12 0 64 62 7 -51 -48 -127 23 -42 3 8 -4 -11
000070 46 7f b8 5e 00 b2 dd d2 66 24 e9 33 81 eb 0c 09
       70 127 -72 94 0 -78 -35 -46 102 36 -23 51 -127 -21 12 9
000080 7f 01 8b 02 da fe 7c 0c 0e e1 eb 81 54 f9 5f df
       127 1 -117 2 -38 -2 124 12 14 -31 -21 -127 84 -7 95 -33
000090 3c bd dd 2a 1e f9 81 bf 0e ec 0a 68 09 7f 03 bb
       60 -67 -35 42 30 -7 -127 -65 14 -20 10 104 9 127 3 -69
0000a0 59 df b5 cb 81 f5 25 66 fb fb 0c 7f e9 26 09 cd
       89 -33 -75 -53 -127 -11 37 102 -5 -5 12 127 -23 38 9 -51
0000b0 19 fd b7 e6 1a d7 71 02 a1 f6 03 7f 24 f3 ec e1
       25 -3 -73 -26 26 -41 113 2 -95 -10 3 127 36 -13 -20 -31
0000c0 50 7f de f4 0c 31 c5 7f 11 d5 7a 32 50 17 25 81
       80 127 -34 -12 12 49 -59 127 17 -43 122 50 80 23 37 -127
0000d0 2b a8 5a 07 59 ee 9c 63 02 01 fe 9b 7f 0c e8 f1
       43 -88 90 7 89 -18 -100 99 2 1 -2 -101 127 12 -24 -15
0000e0 fe 42 eb c6 55 d1 81 57 2d d1 0c e9 3a 2c d8 fb
       -2 66 -21 -58 85 -47 -127 87 45 -47 12 -23 58 44 -40 -5
0000f0 81 e1 2d a8 08 81 3f 16 d4 4a 3b 7b bb f9 0c f4
       -127 -31 45 -88 8 -127 63 22 -44 74 59 123 -69 -7 12 -12

model_16/batch_normalization_130/FusedBatchNormV3;model_16/conv2d_73/BiasAdd/ReadVariableOp;model_16/conv2d_73/BiasAdd;model_16/conv2d_73/Conv2D/ReadVariableOp;model_16/conv2d_73/Conv2D i1 [32, 1, 1, 32]
000000 0d d3 f5 9c de f9 09 67 fa cb f7 41 37 c8 9c 0e
       13 -45 -11 -100 -34 -7 9 103 -6 -53 -9 65 55 -56 -100 14
000010 81 20 a5 73 14 6a b1 3a d7 1e f3 06 83 0d fb 2e
       -127 32 -91 115 20 106 -79 58 -41 30 -13 6 -125 13 -5 46
000020 0b 03 44 17 a1 e2 0e 24 81 b2 cb 2d ed 0c 02 f8
       11 3 68 23 -95 -30 14 36 -127 -78 -53 45 -19 12 2 -8
000030 ca e0 4e d3 b9 03 36 4e d7 32 fa 0d 37 2e 58 c9
       -54 -32 78 -45 -71 3 54 78 -41 50 -6 13 55 46 88 -55
000040 11 02 0d de f1 fc 26 b5 18 f7 6a f3 20 c0 ee 81
       17 2 13 -34 -15 -4 38 -75 24 -9 106 -13 32 -64 -18 -127
000050 e9 ed 1a da 04 17 d6 e2 17 fb f3 06 d1 e2 22 fa
       -23 -19 26 -38 4 23 -42 -30 23 -5 -13 6 -47 -30 34 -6
000060 c1 0e f7 d2 f4 f5 01 1d fe 1c da 1a f4 1a 03 0b
       -63 14 -9 -46 -12 -11 1 29 -2 28 -38 26 -12 26 3 11
000070 ee eb e9 fd 16 d7 81 f2 e2 0f 19 fe f9 d2 0a e5
       -18 -21 -23 -3 22 -41 -127 -14 -30 15 25 -2 -7 -46 10 -27
000080 ed b9 23 0b db e4 24 f4 db 81 ce 1d 01 37 0d 01
       -19 -71 35 11 -37 -28 36 -12 -37 -127 -50 29 1 55 13 1
000090 98 c5 f1 23 00 10 14 fb fd 2f f5 21 11 03 14 bd
       -104 -59 -15 35 0 16 20 -5 -3 47 -11 33 17 3 20 -67
0000a0 de ea 17 de 03 e2 26 06 03 16 fa 58 d0 e0 37 03
       -34 -22 23 -34 3 -30 38 6 3 22 -6 88 -48 -32 55 3
0000b0 09 42 fa 3a b9 37 c1 c7 ca f8 01 81 c7 ac 08 1c
       9 66 -6 58 -71 55 -63 -57 -54 -8 1 -127 -57 -84 8 28
0000c0 27 39 2e 81 20 f9 1d 19 27 0b f6 12 ba db 93 db
       39 57 46 -127 32 -7 29 25 39 11 -10 18 -70 -37 -109 -37
0000d0 2b 0b 1b 12 0a 0d 1f 29 b0 61 f7 0d ea e0 ec fc
       43 11 27 18 10 13 31 41 -80 97 -9 13 -22 -32 -20 -4
0000e0 3b 32 81 23 ee 3e f9 39 b2 fa 25 11 0f dd 05 1f
       59 50 -127 35 -18 62 -7 57 -78 -6 37 17 15 -35 5 31
0000f0 3d ab 03 09 f0 37 01 40 1d eb e6 1c e8 56 0a 85
       61 -85 3 9 -16 55 1 64 29 -21 -26 28 -24 86 10 -123

model_16/batch_normalization_132/FusedBatchNormV3;model_16/conv2d_74/BiasAdd/ReadVariableOp;model_16/conv2d_74/BiasAdd;model_16/conv2d_74/Conv2D/ReadVariableOp;model_16/conv2d_74/Conv2D i1 [32, 1, 1, 32]
000000 00 13 08 f7 ea 1e d8 81 11 09 09 fc 15 e5 e4 f8
       0 19 8 -9 -22 30 -40 -127 17 9 9 -4 21 -27 -28 -8
000010 f2 1a fa c1 21 0d e8 d5 d4 d6 eb d3 f9 0c fb 11
       -14 26 -6 -63 33 13 -24 -43 -44 -42 -21 -45 -7 12 -5 17
000020 10 0a 05 eb 0d 0f 12 d8 1d 11 fc cf 19 12 db 2c
       16 10 5 -21 13 15 18 -40 29 17 -4 -49 25 18 -37 44
000030 24 37 d0 de 1d ba 7f 07 d3 c5 0a 0a c9 e4 b3 09
       36 55 -48 -34 29 -70 127 7 -45 -59 10 10 -55 -28 -77 9
000040 39 15 81 18 e7 d0 08 2e f8 e6 ee eb e8 c6 e1 29
       57 21 -127 24 -25 -48 8 46 -8 -26 -18 -21 -24 -58 -31 41
000050 1e 97 51 04 cb d2 3f c2 2a fa 49 c4 29 e4 01 00
       30 -105 81 4 -53 -46 63 -62 42 -6 73 -60 41 -28 1 0
000060 e5 0c da d5 7f ea 15 fb 0a a3 e7 30 f5 f7 e6 c8
       -27 12 -38 -43 127 -22 21 -5 10 -93 -25 48 -11 -9 -26 -56
000070 15 e8 de 10 93 cf eb 1c f2 33 3d d3 cc e2 61 55
       21 -24 -34 16 -109 -49 -21 28 -14 51 61 -45 -52 -30 97 85
000080 22 19 4c 06 ed 10 33 18 30 fc f4 ed 32 e3 0c 20
       34 25 76 6 -19 16 51 24 48 -4 -12 -19 50 -29 12 32
000090 c9 f8 7f 39 09 34 e3 06 10 e8 11 c6 f6 e3 03 17
       -55 -8 127 57 9 52 -29 6 16 -24 17 -58 -10 -29 3 23
0000a0 81 dd 27 99 f4 2a 3a 3c cd b3 dd 46 9e 18 ab 10
       -127 -35 39 -103 -12 42 58 60 -51 -77 -35 70 -98 24 -85 16
0000b0 04 fd 20 76 e9 92 c4 bb ef 46 7d c2 db b2 40 c0
       4 -3 32 118 -23 -110 -60 -69 -17 70 125 -62 -37 -78 64 -64
0000c0 0a 04 fd f2 0b 81 f7 d4 1a 17 e6 fd ea e6 e8 30
       10 4 -3 -14 11 -127 -9 -44 26 23 -26 -3 -22 -26 -24 48
0000d0 e8 1b e5 02 06 fa 27 25 f8 c5 06 07 2d f5 02 04
       -24 27 -27 2 6 -6 39 37 -8 -59 6 7 45 -11 2 4
0000e0 f5 f5 f6 df f6 03 f2 29 81 ca c4 f8 14 b9 34 ff
       -11 -11 -10 -33 -10 3 -14 41 -127 -54 -60 -8 20 -71 52 -1
0000f0 d9 0e d1 14 ff ff d9 05 10 1f 15 1a 0c 0d 05 17
       -39 14 -47 20 -1 -1 -39 5 16 31 21 26 12 13 5 23

model_16/batch_normalization_134/FusedBatchNormV3;model_16/conv2d_75/BiasAdd/ReadVariableOp;model_16/conv2d_75/BiasAdd;model_16/conv2d_75/Conv2D/ReadVariableOp;model_16/conv2d_75/Conv2D i1 [32, 1, 1, 32]
000000 09 2b d3 f1 cb cb 22 1f 1c f1 1a f8 38 81 2d de
       9 43 -45 -15 -53 -53 34 31 28 -15 26 -8 56 -127 45 -34
000010 1a 28 1a c3 42 1c 32 25 99 a6 bc da 01 09 c1 0c
       26 40 26 -61 66 28 50 37 -103 -90 -68 -38 1 9 -63 12
000020 fc 22 e6 0a 48 0d ec 81 1f f0 fe fe 1c f9 e3 56
       -4 34 -26 10 72 13 -20 -127 31 -16 -2 -2 28 -7 -29 86
000030 3e ee 42 bf ef c6 84 58 ff 39 15 0b 2c 35 26 76
       62 -18 66 -65 -17 -58 -124 88 -1 57 21 11 44 53 38 118
000040 ef de e5 0c 14 5d b2 40 81 ea 5e 1f de 4c e9 ae
       -17 -34 -27 12 20 93 -78 64 -127 -22 94 31 -34 76 -23 -82
000050 97 fd ee 2b ca 23 f5 d6 13 15 de 20 1d 1a c4 db
       -105 -3 -18 43 -54 35 -11 -42 19 21 -34 32 29 26 -60 -37
000060 29 05 e7 d2 e4 81 f8 da 1c 01 c0 30 40 10 1e f9
       41 5 -25 -46 -28 -127 -8 -38 28 1 -64 48 64 16 30 -7
000070 18 2e 12 d6 0f ba ef 36 1e be 07 f2 19 fe 60 2e
       24 46 18 -42 15 -70 -17 54 30 -66 7 -14 25 -2 96 46
000080 bf 12 ff 1e 2c cc ea de ee 2c f3 a3 25 e5 c4 d6
       -65 18 -1 30 44 -52 -22 -34 -18 44 -13 -93 37 -27 -60 -42
000090 e8 0b 7f 3f 68 32 a2 1c 46 49 bd 3a f2 c7 c7 02
       -24 11 127 63 104 50 -94 28 70 73 -67 58 -14 -57 -57 2
0000a0 f4 2c 5c fd bb b5 7f 44 e5 10 04 ef 3b b8 14 b2
       -12 44 92 -3 -69 -75 127 68 -27 16 4 -17 59 -72 20 -78
0000b0 4a ad f2 db 05 3c 0b c6 cb bf 15 d9 f5 f1 3c 01
       74 -83 -14 -37 5 60 11 -58 -53 -65 21 -39 -11 -15 60 1
0000c0 16 0f f8 48 07 fc 26 81 15 3e 19 ed ae 09 ed f3
       22 15 -8 72 7 -4 38 -127 21 62 25 -19 -82 9 -19 -13
0000d0 f2 12 0c c0 26 33 01 f4 59 01 e8 db 5c f2 1e ef
       -14 18 12 -64 38 51 1 -12 89 1 -24 -37 92 -14 30 -17
0000e0 30 19 a8 03 37 da a4 a1 3d af d2 d4 eb b5 81 4f
       48 25 -88 3 55 -38 -92 -95 61 -81 -46 -44 -21 -75 -127 79
0000f0 df fc 1d 4b 0d f1 af 78 51 43 28 2b fc 5f 35 27
       -33 -4 29 75 13 -15 -81 120 81 67 40 43 -4 95 53 39

model_16/batch_normalization_136/FusedBatchNormV3;model_16/conv2d_76/BiasAdd/ReadVariableOp;model_16/conv2d_76/BiasAdd;model_16/conv2d_76/Conv2D/ReadVariableOp;model_16/conv2d_76/Conv2D i1 [64, 1, 1, 32]
000000 10 0d f2 30 2a 0d e6 96 f0 81 c5 33 1f 97 e2 68
       16 13 -14 48 42 13 -26 -106 -16 -127 -59 51 31 -105 -30 104
000010 a5 1f 5f ec ed 43 1c fd 12 50 13 a2 ca d2 c1 40
       -91 31 95 -20 -19 67 28 -3 18 80 19 -94 -54 -46 -63 64
000020 c2 01 4a 07 d4 ab 25 a1 68 0f f9 b0 f9 3b d8 9b
       -62 1 74 7 -44 -85 37 -95 104 15 -7 -80 -7 59 -40 -101
000030 01 2d 81 18 4c 2b 31 ff 08 15 0e e6 f9 03 de d4
       1 45 -127 24 76 43 49 -1 8 21 14 -26 -7 3 -34 -44
000040 d3 08 25 12 fe 38 ba 9d 0d f1 1f c0 65 1f 11 e2
       -45 8 37 18 -2 56 -70 -99 13 -15 31 -64 101 31 17 -30
000050 db 7f 4d f2 b4 3f e7 08 1b cb 5c f4 af 07 3e 3d
       -37 127 77 -14 -76 63 -25 8 27 -53 92 -12 -81 7 62 61
000060 fc d2 f5 eb d4 de 25 35 2b 1e db 0a fe 51 db 1f
       -4 -46 -11 -21 -44 -34 37 53 43 30 -37 10 -2 81 -37 31
000070 1a df 09 da e0 14 da 1d f2 29 81 23 08 46 85 d3
       26 -33 9 -38 -32 20 -38 29 -14 41 -127 35 8 70 -123 -45
000080 ea 0e f2 15 8a 81 1b f9 4e 18 9a 03 26 36 ca da
       -22 14 -14 21 -118 -127 27 -7 78 24 -102 3 38 54 -54 -38
000090 3e 68 f2 e8 ed de 50 3e 10 09 f7 16 04 f0 e4 8f
       62 104 -14 -24 -19 -34 80 62 16 9 -9 22 4 -16 -28 -113
0000a0 0e 27 f6 04 44 2e cb d2 ee b8 97 38 2a d9 46 19
       14 39 -10 4 68 46 -53 -46 -18 -72 -105 56 42 -39 70 25
0000b0 81 3b 2d c5 d4 23 c5 ec f3 23 1e 9f 2c f6 15 13
       -127 59 45 -59 -44 35 -59 -20 -13 35 30 -97 44 -10 21 19
0000c0 eb ed 03 ff 1b 1d f5 e5 05 0c cc d7 1e 24 0c c6
       -21 -19 3 -1 27 29 -11 -27 5 12 -52 -41 30 36 12 -58
0000d0 c6 3a 3c e4 81 38 db ce 30 fc 22 c1 df e2 0e 4f
       -58 58 60 -28 -127 56 -37 -50 48 -4 34 -63 -33 -30 14 79
0000e0 1e 15 1f 1a 3c 25 c4 05 bd d8 81 05 2c e4 09 fd
       30 21 31 26 60 37 -60 5 -67 -40 -127 5 44 -28 9 -3
0000f0 93 22 12 10 ef 2e 16 ae 0c e6 1e fe 17 13 1b 22
       -109 34 18 16 -17 46 22 -82 12 -26 30 -2 23 19 27 34
