IntImageInputModel/without_int_image_size_96_deeper_hotdog.tflite (tflite, 22784 bytes, 20 tensors)

model_16/activation_129/Relu;model_16/batch_normalization_129/FusedBatchNormV3;model_16/depthwise_conv2d_56/depthwise;model_16/depthwise_conv2d_56/BiasAdd;model_16/depthwise_conv2d_59/depthwise;model_16/depthwise_conv2d_56/BiasAdd/ReadVariableOp f4 [32]
0	0xc004a6bd	-2.072677
1	0x3f01010e	0.50392234
2	0xbf0938e1	-0.53602415
3	0x3f2f9c42	0.68597806
4	0xbd0c6f18	-0.034285635
5	0x3bdbdaad	0.006709418
6	0xbdc28be4	-0.09499338
7	0x3f543db2	0.8290664
8	0xbd7814bc	-0.06056665
9	0xbf797996	-0.9745115
10	0x3f738b75	0.9513467
11	0x3ecb0179	0.3964956
12	0xbecdae2a	-0.4017194
13	0xbd7c5300	-0.061602592
14	0x3f00585f	0.50134844
15	0xbe20a7d0	-0.15689015
16	0xbe593632	-0.2121208
17	0xbfa02e14	-1.2514062
18	0xbe2f48f5	-0.17117675
19	0x3fb5b9fa	1.419738
20	0x3f98a466	1.192517
21	0xbed060d0	-0.40698862
22	0xbf2413b2	-0.6409255
23	0x3f189460	0.596014
24	0x3f9dafb0	1.231924
25	0xbf268ab5	-0.650554
26	0xbee9f4c6	-0.4569456
27	0x3f9d0f28	1.227025
28	0xbf9f03f3	-1.242308
29	0x3f7823bd	0.9692953
30	0xbf0b216c	-0.5434787
31	0xbd986326	-0.07440786

model_16/activation_131/Relu;model_16/batch_normalization_131/FusedBatchNormV3;model_16/depthwise_conv2d_57/depthwise;model_16/depthwise_conv2d_57/BiasAdd;model_16/depthwise_conv2d_59/depthwise;model_16/depthwise_conv2d_57/BiasAdd/ReadVariableOp f4 [32]
0	0xbf380204	-0.71878076
1	0xbe2b77fd	-0.1674499
2	0x400a474e	2.160602
3	0xbfa8b167	-1.3179139
4	0x3fbc7856	1.4724224
5	0x3f8c0ec8	1.0942011
6	0x3fd266a6	1.6437576
7	0xbf0c2166	-0.5473846
8	0x3f17fc6e	0.5936955
9	0x3f1d89c5	0.61538345
10	0xbef9e060	-0.48803997
11	0xbde23608	-0.11045462
12	0x3d60fac4	0.05492665
13	0xbf07b68c	-0.5301292
14	0x400dd186	2.2159133
15	0x3f973d39	1.1815559
16	0x3f5c3fca	0.86034834
17	0x3df4a8d8	0.11946267
18	0x3fb32765	1.3996397
19	0x3fdb908a	1.7153485
20	0xbf134608	-0.57528734
21	0xbfbfe55e	-1.4991872
22	0x3fab45fc	1.3380733
23	0xbe70c2bc	-0.23511785
24	0xbedcde2a	-0.43138248
25	0xbfc1f3eb	-1.5152563
26	0xbf1c442e	-0.61041534
27	0x3f99b29e	1.2007635
28	0xbe871dd6	-0.2638995
29	0xbe9f7ec4	-0.31151402
30	0x401a7940	2.4136505
31	0x3f87c490	1.0606861

model_16/activation_133/Relu;model_16/batch_normalization_133/FusedBatchNormV3;model_16/depthwise_conv2d_58/depthwise;model_16/depthwise_conv2d_58/BiasAdd;model_16/depthwise_conv2d_59/depthwise;model_16/depthwise_conv2d_58/BiasAdd/ReadVariableOp f4 [32]
0	0xbf0baab4	-0.5455735
1	0xbfc611d1	-1.5474187
2	0xbf3774c0	-0.7166252
3	0xbf3d80b0	-0.74024487
4	0xbeb241d0	-0.34815836
5	0xbe2549ba	-0.16141406
6	0xbe68d7b3	-0.22738533
7	0x400c00ea	2.1875558
8	0xbe834243	-0.2563649
9	0x40080fd9	2.1259673
10	0xbfe59dce	-1.7938783
11	0x40328ccb	2.7898433
12	0x40d0f06a	6.5293474
13	0x4068bb66	3.636438
14	0xc01ca3a0	-2.4474869
15	0x402f407e	2.7383113
16	0xbfa6f8ac	-1.3044639
17	0xbe0da1fa	-0.1383132
18	0xbfb7553d	-1.4322888
19	0x3fee4783	1.8615574
20	0x3d85abc4	0.06526902
21	0xbf2ac620	-0.66708565
22	0x3fecc53d	1.8497692
23	0xbf80b355	-1.0054728
24	0x406eb768	3.7299442
25	0xbf09aed2	-0.5378238
26	0x3f145b6c	0.57952
27	0xbf466dd2	-0.7751132
28	0xbfe345be	-1.7755659
29	0xbf4abfb1	-0.7919875
30	0x3f619a00	0.8812561
31	0x3fe2d66a	1.7721684

model_16/activation_135/Relu;model_16/batch_normalization_135/FusedBatchNormV3;model_16/depthwise_conv2d_59/depthwise;model_16/depthwise_conv2d_59/BiasAdd;model_16/depthwise_conv2d_59/BiasAdd/ReadVariableOp f4 [32]
0	0xbe0a7173	-0.1351984
1	0x3f9f7618	1.2457914
2	0x4014d845	2.3257
3	0xbdaa8ca9	-0.0832761
4	0x400c7adc	2.1949987
5	0xc08f8ed3	-4.4861846
6	0xbf40a1fd	-0.75247175
7	0xc0a27fbd	-5.078093
8	0x3efb8794	0.49126875
9	0xbf88c040	-1.068367
10	0x40226ade	2.5377727
11	0xbfaf3358	-1.3687544
12	0x3f943225	1.1577803
13	0xbee5a50d	-0.44852486
14	0xbf8a0776	-1.0783527
15	0xbdcc1046	-0.099640414
16	0xbfa4d965	-1.2878844
17	0x3fbc94d2	1.4732916
18	0x3f445105	0.76686126
19	0xc04317ac	-3.0483198
20	0xc0c2961b	-6.0808234
21	0xc05496af	-3.321697
22	0x3faede11	1.3661519
23	0x3f8ff8cf	1.1247805
24	0xbe81f85c	-0.25384796
25	0xbff46a8c	-1.9095016
26	0x3fa2ecd9	1.272853
27	0x3d78f138	0.06077692
28	0xc0440f93	-3.0634506
29	0xc02f9755	-2.7436116
30	0x4002a51c	2.0413275
31	0x400008a0	2.0005264

model_16/dense_16/BiasAdd/ReadVariableOp f4 [2]
0	0x3de273fa	0.11057277
1	0xbde2712e	-0.110567436

model_16/activation_128/Relu;model_16/batch_normalization_128/FusedBatchNormV3;model_16/conv2d_72/BiasAdd/ReadVariableOp;model_16/conv2d_72/BiasAdd;model_16/depthwise_conv2d_59/depthwise;model_16/conv2d_72/Conv2D/ReadVariableOp;model_16/conv2d_72/Conv2D f4 [32]
0	0xbf2d04df	-0.6758556
1	0x3fc256e7	1.518277
2	0xc0c8e0ce	-6.277442
3	0x411677aa	9.404215
4	0xbf94c92b	-1.1623892
5	0xc0fbe349	-7.871495
6	0x4045b78a	3.0893273
7	0xc034b4d5	-2.823537
8	0xc014448a	-2.3166833
9	0xc043bc2b	-3.0583599
10	0xbedc977d	-0.43084326
11	0x4060c0f0	3.511776
12	0xc051ee94	-3.2801867
13	0x4002f358	2.0461025
14	0xc0e7e9f4	-7.2473087
15	0xbe15a8a0	-0.14615107
16	0x40b16561	5.5436254
17	0xc008b636	-2.1361213
18	0x4074e284	3.8263254
19	0xbfb0ca90	-1.3811817
20	0xc035df32	-2.8417478
21	0xc08ba2de	-4.3636312
22	0xc049910c	-3.149478
23	0xbf1009fb	-0.5626523
24	0xbe55bdea	-0.20873228
25	0x3f5bf5b1	0.8592177
26	0x404f9ba7	3.2438753
27	0xbfe06fee	-1.7534158
28	0x402d2444	2.7053385
29	0x400e02f6	2.2189307
30	0x404504d7	3.0784204
31	0xbf8384ff	-1.0274962

model_16/batch_normalization_129/FusedBatchNormV3;model_16/depthwise_conv2d_56/depthwise;model_16/depthwise_conv2d_56/BiasAdd;model_16/depthwise_conv2d_59/depthwise;model_16/depthwise_conv2d_56/BiasAdd/ReadVariableOp f4 [1, 3, 3, 32]
0	0x3fa101e3	1.2578701
1	0x3f3aeb1f	0.73015016
2	0x3e6208b2	0.2207363
3	0x3e80d0f6	0.25159425
4	0xbf2ea5e6	-0.6822189
5	0xbe5edcd2	-0.21763924
6	0x3b2d42f9	0.0026437624
7	0xbed36be5	-0.41293254
8	0xbf16058e	-0.58602226
9	0xbfcba7ac	-1.5910544
10	0x3e8dff4c	0.2773384
11	0x3e9ef233	0.31044158
12	0xbf96a462	-1.1768916
13	0xbffcc94b	-1.974893
14	0xbe5c35af	-0.21504854
15	0x3f53a81a	0.8267838
16	0xbf051fb2	-0.5200149
17	0x3ec5faba	0.38667852
18	0xbead5c91	-0.33859685
19	0x3c508297	0.012726448
20	0xc00f5880	-2.2397766
21	0x3eff0025	0.49804798
22	0xbf961c88	-1.1727457
23	0xbec5b248	-0.3861258
24	0xbf115a38	-0.5677829
25	0x3f7367d5	0.9508031
26	0xbe3dba99	-0.18528213
27	0x3cbac0b1	0.02279696
28	0xbed0691b	-0.4070519
29	0xbdf18aa5	-0.117940225
30	0x3fadb74c	1.3571563
31	0xc01227d8	-2.2836819
32	0x3ec5e5df	0.3865194
33	0xbfc1b35a	-1.5132859
34	0x3e9a94b4	0.30191576
35	0xbed8bc8b	-0.42331347
36	0x3ee2a980	0.44269943
37	0xbe209818	-0.15683019
38	0xbf4310d1	-0.76197535
39	0x3ef35e49	0.4753287
40	0x3f275a88	0.65372515
41	0x40169989	2.353121
42	0x3d1660d7	0.036713447
43	0x3e479e0d	0.19493885
44	0xbf2809c8	-0.65639925
45	0xbe86e2e1	-0.2634497
46	0xbe32b5ea	-0.17452207
47	0xbc89eba5	-0.016835997
48	0x3ea7b67e	0.32756418
49	0x3ed2cf29	0.41173676
50	0xbd0aa5bb	-0.03384946
51	0xbe90a6cd	-0.2825226
52	0x3f66f686	0.90219915
53	0x3f886df1	1.0658551
54	0xbf14f2db	-0.5818307
55	0xbfde7bd2	-1.7381537
56	0xbd29c967	-0.041451838
57	0xbea04d0e	-0.31308788
58	0xbe825f0f	-0.2546315
59	0x3da86f48	0.0822435
60	0x3fa02650	1.2511692
61	0xbf116043	-0.5678751
62	0xbee88083	-0.45410547
63	0x3e52d04e	0.20587274
64	0x3e89bb71	0.2690082
65	0xbe6a1d6a	-0.22862783
66	0x3e91ea6c	0.28499162
67	0x3ea2ae05	0.3177339
68	0xbd04c1ed	-0.032411505
69	0xbe2b6c98	-0.16740644
70	0xbe3bd1a8	-0.18341696
71	0xbf2b374b	-0.66881245
72	0xbf5a69d1	-0.85317713
73	0x3fd12f4a	1.6342556
74	0xbf9ab57f	-1.2086638
75	0x3ef797b9	0.48357943
76	0x3ef386af	0.47563693
77	0x3f2ce73e	0.6754035
78	0xbe064d39	-0.13115396
79	0xbf9e3a66	-1.2361572
80	0x3ebce6bf	0.36894795
81	0x3ef3cd41	0.47617534
82	0xbf279c68	-0.6547303
83	0xbc9a5de4	-0.018843599
84	0xbf008b79	-0.5021282
85	0xba75927b	-0.00093678356
86	0x3eb3ecae	0.3514151
87	0x3f68977c	0.90856147
88	0xbebb4aae	-0.36580414
89	0x3f95b838	1.1696844
90	0x3f35b012	0.70971787
91	0xbeb24e48	-0.3482535
92	0xbedaee0e	-0.42759746
93	0xbde95174	-0.11392489
94	0x3f5da805	0.865845
95	0x3f83822e	1.0274103
96	0x3f363a09	0.71182305
97	0xbeebff47	-0.460932
98	0x3e5ca273	0.21546344
99	0xbd3d78cc	-0.04625778
100	0x3f004615	0.50106937
101	0xbbbe398e	-0.005805201
102	0x3c85e878	0.016346201
103	0x3f849475	1.0357805
104	0x3f22cbe3	0.63592356
105	0xbf394634	-0.72372746
106	0x3da29479	0.07938475
107	0xbf0667b8	-0.5250201
108	0x3fa38833	1.277594
109	0x3fa8a868	1.3176394
110	0xbdca002c	-0.09863314
111	0x3fc548fe	1.54129
112	0x3e379f1c	0.17931789
113	0x3ebb69c1	0.3660412
114	0x3e5bd022	0.21466115
115	0xbf0fb8c7	-0.5614132
116	0xbfaaa2dc	-1.3330951
117	0xbed9ab0c	-0.4251331
118	0x3ed79278	0.42103934
119	0x3f023278	0.5085826
120	0xbde9fbea	-0.11425002
121	0xbe36c6cc	-0.17849272
122	0x3f3485e3	0.70516795
123	0xbdce0940	-0.10060358
124	0x3f52fb20	0.82414436
125	0xbf9132ec	-1.1343665
126	0x3f4830c1	0.7819939
127	0x3ddba62a	0.10725053
128	0xbeddc81e	-0.4331674
129	0x3f57fb74	0.8436806
130	0x3ec97260	0.39345074
131	0xbda79c83	-0.08184149
132	0x3e5930af	0.21209978
133	0xbe3d0736	-0.18459782
134	0xbda89094	-0.08230701
135	0x3f91ccdf	1.1390647
136	0xbd3ca7ff	-0.04605865
137	0x3e3bda78	0.18345058
138	0xbe1a3091	-0.15057589
139	0xbe8932af	-0.2679648
140	0xbf5f399b	-0.87197274
141	0xbf10332a	-0.5632807
142	0x3e2ab573	0.1667078
143	0x3fbf0b37	1.4925297
144	0x3ee4234e	0.44558185
145	0xbf8e148c	-1.110002
146	0xbc197986	-0.009367352
147	0xbdaf1fc7	-0.08550983
148	0x3ed543dd	0.41653338
149	0xbd43c571	-0.047795717
150	0x3face1e7	1.350644
151	0x3e40f97c	0.1884517
152	0xbf5fba53	-0.87393683
153	0xbe2d9852	-0.16952637
154	0xbe718560	-0.23586035
155	0xbf5d5244	-0.8645365
156	0xbf552479	-0.8325878
157	0x3f26f39e	0.6521548
158	0xbf188769	-0.5958162
159	0xbed0fe07	-0.40818807
160	0xbda0e335	-0.07855836
161	0xbf467aed	-0.7753132
162	0xbe21c843	-0.1579905
163	0xbd34e39e	-0.044162385
164	0x3f0b6bd6	0.5446142
165	0x3eac1198	0.33607173
166	0x3f0cfec1	0.55076224
167	0xbe3ba1b0	-0.18323398
168	0xbe8a2061	-0.26977828
169	0x3d59fd2d	0.053219963
170	0xbf656a16	-0.89615
171	0xbe7074a2	-0.23481992
172	0x3ee11407	0.43960592
173	0x3b85ede8	0.0040871985
174	0xbd0ecad2	-0.034861393
175	0xbf310ada	-0.69157183
176	0xbef0c400	-0.47024536
177	0xbf890716	-1.0705287
178	0xbeb524b2	-0.3537956
179	0x3df745d2	0.12073864
180	0x3f935852	1.1511328
181	0xbf47c809	-0.78039604
182	0x3f2b4687	0.6690449
183	0x3f516eb7	0.8180956
184	0xbca994a4	-0.02070076
185	0xbfab7ed6	-1.3398082
186	0xbf0b01e9	-0.5429979
187	0x3e653472	0.22383288
188	0x3f4047d0	0.7510958
189	0xbf0aca05	-0.5421451
190	0xbce169fe	-0.027516361
191	0x3f89bb2d	1.0760247
192	0xbedd553f	-0.432291
193	0xbf333093	-0.69995993
194	0xbf54f2dd	-0.8318308
195	0xbcf7ad3d	-0.030233974
196	0x3f3d118f	0.7385492
197	0x3e6977d0	0.22799611
198	0x3e22ae92	0.15886906
199	0xbf908944	-1.129189
200	0x3f81f325	1.0152327
201	0x3e393283	0.18085675
202	0x3db90093	0.09033313
203	0x3de7dde6	0.11321621
204	0x3f3cc3e9	0.73736435
205	0xbf495c7b	-0.7865674
206	0x3ec4b384	0.3841821
207	0x3f01a4e2	0.50642216
208	0xbebdbfe1	-0.37060454
209	0x3ecc2412	0.3987127
210	0x3e5c4293	0.21509771
211	0xbeb7b4ca	-0.3588012
212	0x3f2cf3b3	0.67559355
213	0xbead1882	-0.3380776
214	0xbf718deb	-0.94357175
215	0xbf775910	-0.96620274
216	0x3ea40add	0.32039538
217	0xbf6e3a42	-0.93057644
218	0xbdc674d1	-0.0969025
219	0xbf6627aa	-0.8990427
220	0xbe8f5bed	-0.2799982
221	0xbfaa9226	-1.3325851
222	0xbdcaaff7	-0.09896844
223	0xbe839820	-0.25702
224	0x3e38f40a	0.18061844
225	0xbd683073	-0.05668683
226	0xbe3c013b	-0.18359844
227	0xbec0389f	-0.37543198
228	0xbfdd005a	-1.7265732
229	0xbdc67115	-0.096895374
230	0xbe0660eb	-0.13122909
231	0xbf5e359b	-0.86800545
232	0xbe414ede	-0.18877742
233	0xbdf38668	-0.1189087
234	0xbe9dc150	-0.30811548
235	0x3dae20ee	0.085023746
236	0x3f547ede	0.83006084
237	0xbf40485e	-0.75110424
238	0xbebb32db	-0.36562237
239	0xc0373ffc	-2.8632803
240	0xbe59babd	-0.21262641
241	0x3e18e3ff	0.14930724
242	0x3edca7b1	0.43096688
243	0x3dc6d181	0.097079284
244	0x3e875459	0.2643154
245	0x3e12a274	0.14319783
246	0x3fdebe5c	1.7401843
247	0xbfc095c1	-1.5045701
248	0xbf06a1ed	-0.5259083
249	0x3f7a9e7b	0.9789807
250	0x3e0e8444	0.13917643
251	0x3f3ca301	0.73686224
252	0x3ede6387	0.43435308
253	0xbdac89a8	-0.08424693
254	0xbe4f53a7	-0.20246755
255	0x3f22fa80	0.6366348

model_16/activation_130/Relu;model_16/batch_normalization_130/FusedBatchNormV3;model_16/conv2d_73/BiasAdd/ReadVariableOp;model_16/conv2d_73/BiasAdd;model_16/depthwise_conv2d_59/depthwise;model_16/conv2d_73/Conv2D/ReadVariableOp;model_16/conv2d_73/Conv2D f4 [32]
0	0x3e0b7ff8	0.13623035
1	0xbec77484	-0.38956082
2	0x3fbb95e0	1.4655113
3	0x3eb730d5	0.35779443
4	0x3eb4d4a0	0.3531847
5	0xbe8c6516	-0.27420872
6	0xbe921710	-0.2853322
7	0xbf9f91f2	-1.2466414
8	0x3d2faa6c	0.042887136
9	0xbfae208a	-1.360368
10	0x3ef209bd	0.47273055
11	0xbf6148b5	-0.8800157
12	0x3dabf056	0.0839545
13	0x3f4a8b6a	0.7911898
14	0x3f75a866	0.9596008
15	0xbd175830	-0.036949337
16	0x3fd13e74	1.6347184
17	0xbf0ac79b	-0.54210824
18	0xbf29d830	-0.663455
19	0x3f0ad0a0	0.54224586
20	0x3e3616b4	0.17782098
21	0x3e8d12c8	0.2755339
22	0xc0457921	-3.0855181
23	0xbde91da4	-0.113826066
24	0x3f0e0cdf	0.5548839
25	0xbdb99a3e	-0.090626225
26	0x3d8c4028	0.06848174
27	0xbffc1e06	-1.9696662
28	0xbf0c56b2	-0.54819787
29	0x3d88010f	0.06640827
30	0x3f9e9306	1.2388618
31	0xbd9ea832	-0.077469245

model_16/batch_normalization_131/FusedBatchNormV3;model_16/depthwise_conv2d_57/depthwise;model_16/depthwise_conv2d_57/BiasAdd;model_16/depthwise_conv2d_59/depthwise;model_16/depthwise_conv2d_57/BiasAdd/ReadVariableOp f4 [1, 3, 3, 32]
0	0xbe4328b3	-0.19058494
1	0x3e8d677f	0.27618024
2	0xbe720b2d	-0.23637076
3	0x3e92d5e6	0.28678817
4	0xbf1edc3e	-0.6205481
5	0xc07583d3	-3.836171
6	0xbe90f7c5	-0.28314033
7	0xbff57f7d	-1.9179531
8	0x3eecc990	0.4624753
9	0x3fa06815	1.2531763
10	0x3dff9224	0.12479046
11	0xc0ac2487	-5.379459
12	0x400ba8a8	2.182169
13	0x3c68ec4d	0.014216495
14	0xbe121fcc	-0.14269942
15	0x3e8fcb74	0.2808491
16	0x3e9fcfc8	0.31213212
17	0x40a04023	5.007829
18	0xbc8e00dc	-0.017334394
19	0xbdbef4eb	-0.09324058
20	0xbf1d5c0b	-0.6146857
21	0x3f0dc414	0.55377316
22	0xbd688e04	-0.05677606
23	0xbf8339f1	-1.0252057
24	0x3de67a2d	0.11253772
25	0xc040c97a	-3.0122972
26	0x3f624ce2	0.88398564
27	0x3e3a9794	0.18221885
28	0x3fb02183	1.3760227
29	0x3d78b333	0.060717773
30	0xbe2b34b8	-0.1671933
31	0xc05f26d1	-3.4867442
32	0x3dc99a29	0.09843857
33	0x3e88c09b	0.26709446
34	0xbdedf36f	-0.11618697
35	0x3f79523b	0.973911
36	0xbe82bd3b	-0.25534996
37	0xbfdf72b5	-1.7456881
38	0xbfa2106f	-1.2661265
39	0xc0ff2564	-7.9733143
40	0x3f3c05e0	0.73446465
41	0xc0036063	-2.052758
42	0x3eb92b6f	0.3616595
43	0x3f77a8de	0.96742046
44	0xbf58ba42	-0.84659207
45	0x3f5987d0	0.8497286
46	0xbeb2fe2e	-0.3495955
47	0x3d504554	0.050847366
48	0xbee5188d	-0.44745293
49	0x3f45058c	0.7696159
50	0xbf76c2a7	-0.96390766
51	0xbee6b70c	-0.4506153
52	0x3f2cd02d	0.6750515
53	0x3fac4a90	1.3460255
54	0xbe980549	-0.29691532
55	0x3f9c4ea3	1.2211498
56	0x3f5316e1	0.82456785
57	0x3b2bf6d8	0.002623966
58	0x3e791ccb	0.2432739
59	0x3f135fde	0.57568157
60	0x3f35aaf1	0.7096396
61	0x3f98bf3c	1.193336
62	0xbf5da67f	-0.8658218
63	0x3f2c1843	0.6722452
64	0xbe562d8a	-0.2091581
65	0xbcf52dc7	-0.029929055
66	0xbe967529	-0.2938626
67	0x3ccfec41	0.02538121
68	0xbf01273a	-0.5045048
69	0xc0010121	-2.015694
70	0xbea15385	-0.31509033
71	0x40d8e83d	6.7783494
72	0x4021a646	2.5257735
73	0xc02502e4	-2.5783014
74	0x3f8eedf5	1.1166369
75	0x40000896	2.000524
76	0xbfa24907	-1.2678536
77	0x3f406135	0.75148326
78	0xbd9b2eb5	-0.07577268
79	0x3da2db73	0.07952013
80	0x3dfcd031	0.12344397
81	0xc09ec4ac	-4.961508
82	0xc08360e8	-4.1055794
83	0xbf9e496b	-1.2366155
84	0x3e47923a	0.19489375
85	0x3f03bdf1	0.514617
86	0x3d099fae	0.033599548
87	0x3e3324ce	0.17494509
88	0xbdf15d20	-0.1178534
89	0xbec3a693	-0.38213024
90	0x3e822c60	0.2542448
91	0xbe09bcde	-0.13450953
92	0x3f9be4eb	1.2179235
93	0x3f92fcc2	1.1483386
94	0xbdbbeece	-0.09176408
95	0xbf279637	-0.65463585
96	0x3e95ad2e	0.29233688
97	0x3e3576c9	0.17721094
98	0xbdaf4d87	-0.08559709
99	0x3fb35953	1.4011635
100	0xbf5057b4	-0.81383824
101	0x3f9dbac8	1.2322626
102	0xbe0d8a77	-0.13822351
103	0x3e21a254	0.1578458
104	0xc01fb3d6	-2.4953513
105	0x3e2c566c	0.16829842
106	0xbe2d507c	-0.16925234
107	0x402e9adb	2.7282016
108	0x3efd50f5	0.49475828
109	0x3dfc54b6	0.12320845
110	0xbe4c862d	-0.19973059
111	0xbe93f00b	-0.28894076
112	0xbe4c6279	-0.1995944
113	0x3fc614d7	1.547511
114	0xbf7e99ed	-0.9945362
115	0xbc780ab6	-0.015139272
116	0xbd61509d	-0.05500852
117	0x3f82dd2a	1.0223744
118	0xbe604f47	-0.21905242
119	0x3f42a68a	0.7603537
120	0xbc8a4372	-0.016877864
121	0x4028f754	2.6400957
122	0x3fdbc1dc	1.7168536
123	0xbf40297c	-0.750633
124	0x3ec2f80c	0.3807987
125	0xc0355834	-2.8335085
126	0xbf75c4b0	-0.96003246
127	0x3dfaf838	0.12254375
128	0xbe1be919	-0.15225638
129	0x3e77f9d2	0.24216393
130	0xbebc7e5e	-0.3681516
131	0x3f8c65a4	1.0968518
132	0xbd8df74a	-0.06931932
133	0x407a9c40	3.9157867
134	0xbeb53956	-0.35395306
135	0xc03e2a6c	-2.9713392
136	0xbfa92d72	-1.3216994
137	0xbef61cfa	-0.48068982
138	0x3f54fee7	0.8320145
139	0x402629fc	2.5963125
140	0xbfc570ce	-1.542505
141	0x3e6938ef	0.22775625
142	0xbf7c98ff	-0.98670954
143	0xbb64efc1	-0.0034932944
144	0xbeb8a6b8	-0.36064696
145	0x3fdff81c	1.7497592
146	0xbd6a93be	-0.057269804
147	0xbf863f6a	-1.0488102
148	0x3e09a7ff	0.13442992
149	0x3ff50bc0	1.9144211
150	0xbfd69755	-1.6764933
151	0xbe79718f	-0.24359725
152	0x3eaa1d2d	0.33225384
153	0x401aacea	2.4168038
154	0x3de68a09	0.11256797
155	0xbf1e109f	-0.6174411
156	0xbe918a72	-0.28425938
157	0x3f88e21d	1.0694004
158	0xbee76c35	-0.45199743
159	0xc0060a4e	-2.094379
160	0xbe4ebbc9	-0.20188822
161	0x3cae238e	0.021257188
162	0xbe6daa9e	-0.23209617
163	0x3fc6634c	1.5499053
164	0xbf7dbf1d	-0.9911974
165	0xbf17e15d	-0.5932825
166	0xbe9526a9	-0.29131058
167	0x40cd8eb5	6.4236703
168	0x402b10b1	2.6728938
169	0xbe7d0146	-0.24707517
170	0xbb8c4002	-0.0042800913
171	0x400ef54b	2.2337215
172	0x3ec42a6b	0.38313612
173	0x3e40e426	0.18837032
174	0xbf9a211a	-1.2041352
175	0xbcc85e78	-0.024459109
176	0xbecdadbd	-0.40171614
177	0xc06c7191	-3.6944315
178	0xbe8d4da7	-0.27598307
179	0xbe78da94	-0.24302131
180	0x3e20dd02	0.15709308
181	0x3f859bca	1.0438168
182	0xbe13dd41	-0.1443987
183	0x401773bd	2.366439
184	0x3f7ee4c6	0.9956783
185	0x3f00e20d	0.50344926
186	0xbdcf0200	-0.10107803
187	0xbfd47f7d	-1.6601406
188	0xbe292bce	-0.16520616
189	0xc0114916	-2.2700858
190	0xbe4bdf0e	-0.19909307
191	0xbeb965d2	-0.36210495
192	0x3cc6f11d	0.024284894
193	0x3eb4370d	0.3519825
194	0x3dbd7c4e	0.09252225
195	0x3f93fd8d	1.1561753
196	0x3d9ddaa0	0.07707715
197	0x3fcb1d36	1.586829
198	0x3e7029d9	0.23453464
199	0x410151ca	8.082468
200	0x3f31e3bf	0.6948814
201	0x3dcca83d	0.099930264
202	0xbe739e06	-0.2379075
203	0x3f9c4dbf	1.2211226
204	0x3f94f4ac	1.1637168
205	0x3f4d9d17	0.80317825
206	0x3c3d9cfb	0.011573072
207	0xbe65da8c	-0.2244665
208	0x3f09d290	0.5383692
209	0x3e902834	0.28155673
210	0x3f73aa5f	0.9518184
211	0xbf6ede1d	-0.9330767
212	0x3f9c3894	1.2204766
213	0xbd457f38	-0.04821703
214	0xbe8f383a	-0.27972585
215	0x404a5401	3.1613772
216	0x3fbd90b0	1.480978
217	0x401fd76f	2.497524
218	0x3daefcb6	0.085442945
219	0xbf82bbfd	-1.021362
220	0x3f0ce675	0.5503915
221	0x3f40af91	0.75267893
222	0x3dbbbf99	0.09167404
223	0x3e3eafac	0.18621701
224	0x3f16aee8	0.58860636
225	0x3e911c19	0.2834175
226	0x3e1efeef	0.15526937
227	0x4009c538	2.1526623
228	0xbfb2fee7	-1.398404
229	0xbe95b7f3	-0.29241905
230	0xbd0e8507	-0.034794834
231	0xc0938e8f	-4.611152
232	0xc02c6f7e	-2.694305
233	0xbfed9273	-1.8560318
234	0xbf6b8ce1	-0.9201184
235	0x4008ca74	2.1373568
236	0x3fe75ebd	1.8075787
237	0xbec69e00	-0.3879242
238	0xbe77987f	-0.24179266
239	0xbeda8349	-0.42678288
240	0xbea81fc5	-0.32836738
241	0x3fd715de	1.6803548
242	0xbe92d4ca	-0.2867797
243	0xbf2a5116	-0.6652998
244	0x3fcc926d	1.5982186
245	0x3c82b3a7	0.015954806
246	0xbdcbbb8b	-0.0994788
247	0x3f13dbdb	0.5775735
248	0xbe11c3c3	-0.14234833
249	0x406f2c24	3.7370691
250	0x3f08c5e3	0.5342695
251	0xc028cd9b	-2.6375492
252	0x3e04fc9b	0.12986986
253	0x3f4c9cc0	0.7992668
254	0xbf2105e1	-0.62899595
255	0x3de77fa2	0.11303641

model_16/activation_132/Relu;model_16/batch_normalization_132/FusedBatchNormV3;model_16/conv2d_74/BiasAdd/ReadVariableOp;model_16/conv2d_74/BiasAdd;model_16/depthwise_conv2d_59/depthwise;model_16/conv2d_74/Conv2D/ReadVariableOp;model_16/conv2d_74/Conv2D f4 [32]
0	0x3ec4c027	0.3842785
1	0x3e2b3ab8	0.16721618
2	0x3f38bbf2	0.7216178
3	0x3fcb6c1d	1.5892369
4	0xc00590ee	-2.0869708
5	0xbe6b88bc	-0.23001379
6	0x3f1029c0	0.56313705
7	0x3fba510f	1.4555987
8	0x3f8f8227	1.1211594
9	0xbfe5bbae	-1.79479
10	0x3faacb97	1.3343381
11	0x3ddcade0	0.107753515
12	0x3fab7651	1.3395482
13	0x3e4d9d15	0.20079453
14	0x3f718c7a	0.94354975
15	0x3f55e19c	0.8354738
16	0xbe9ee416	-0.3103339
17	0xbf29a395	-0.6626523
18	0x3eec3a08	0.46138024
19	0x3e273e23	0.16332297
20	0xbf8fdfa7	-1.1240128
21	0xbf11985a	-0.56873095
22	0xc00bc17d	-2.1836846
23	0x3f69f9fa	0.9139706
24	0x3eb4d9ff	0.35322568
25	0x3fa9cd3e	1.326576
26	0x3effb9ae	0.4994635
27	0x3f9eb700	1.2399597
28	0x3fe06d3d	1.7533337
29	0x3e36adda	0.17839757
30	0x3eaf9647	0.3429434
31	0x3fa2471c	1.2677951

model_16/batch_normalization_133/FusedBatchNormV3;model_16/depthwise_conv2d_58/depthwise;model_16/depthwise_conv2d_58/BiasAdd;model_16/depthwise_conv2d_59/depthwise;model_16/depthwise_conv2d_58/BiasAdd/ReadVariableOp f4 [1, 3, 3, 32]
0	0xbdfa8e81	-0.12234212
1	0x3dd32400	0.10309601
2	0x3f506dd9	0.81417614
3	0xbc80b0a5	-0.01570923
4	0x3ed8e0c1	0.42358974
5	0x3fb0d919	1.3816253
6	0x3f2594a8	0.64679956
7	0xbe8e3ce4	-0.2778083
8	0x3f7f8ff4	0.9982903
9	0xbe935f2a	-0.28783542
10	0x3ed8d698	0.42351222
11	0xbf1ea13d	-0.6196478
12	0xc00189f4	-2.024045
13	0xbe6d39e6	-0.23166618
14	0x3f2cc132	0.6748229
15	0xbee2f18a	-0.44324905
16	0x3ddb5d31	0.10711134
17	0x3f6ae197	0.9175047
18	0x3ed26025	0.41088977
19	0x3eaaab15	0.3333365
20	0xbf1c8800	-0.6114502
21	0xbd026e7b	-0.031843644
22	0xbf1e705f	-0.61890215
23	0x3e12754e	0.1430256
24	0xbd096158	-0.0335401
25	0x3e077f27	0.13232099
26	0x3f5bc209	0.8584295
27	0xbe29b138	-0.1657151
28	0x3f3c9f24	0.7368033
29	0x3eed8b3c	0.4639529
30	0xbe9f2d14	-0.3108908
31	0xbdebc143	-0.11511471
32	0x3f88d06f	1.0688609
33	0x3f45882d	0.7716091
34	0x3f04cf96	0.5187925
35	0x3dae043f	0.08496904
36	0x402e1893	2.72025
37	0x3ebf2c91	0.3733869
38	0x3f981204	1.1880498
39	0x3ec8d8b0	0.3922782
40	0x3f0524c2	0.5200921
41	0x3e280d99	0.16411437
42	0x3f1546e2	0.58311284
43	0xbeccf089	-0.40027264
44	0xbd43af15	-0.047774393
45	0xbf67a285	-0.9048236
46	0xbdee80cb	-0.11645659
47	0xbbc65f17	-0.006053816
48	0x3ec1a438	0.378206
49	0x3f92acef	1.1459025
50	0x3f3ee2a8	0.745646
51	0xbe5c83ad	-0.21534605
52	0x3fa57f5d	1.2929493
53	0x3da178ec	0.07884392
54	0xbf009e01	-0.50241095
55	0x3eda6304	0.42653668
56	0x3ecc76d2	0.39934403
57	0x3e839b4b	0.25704417
58	0x3d582d90	0.052777827
59	0xbcc2bec3	-0.023772603
60	0xbe4677a5	-0.19381578
61	0xbe495687	-0.19661914
62	0xbf923977	-1.1423787
63	0x3f12f06c	0.57398105
64	0x40009efb	2.0097034
65	0xbcb91ad7	-0.022595806
66	0x3f61a414	0.8814099
67	0x3e5204ec	0.2050969
68	0x3f9de6f6	1.2336109
69	0x3f91029b	1.132892
70	0x3f705123	0.93873805
71	0xbe98b936	-0.29828805
72	0x3eb87925	0.36029926
73	0xbda228a6	-0.07917909
74	0x3f3098cb	0.68983144
75	0xbe612692	-0.2198737
76	0xbf76cb21	-0.964037
77	0xbe8e5df9	-0.2780607
78	0xbd0d9463	-0.03456534
79	0xbea847d2	-0.32867295
80	0xbe14fa83	-0.14548688
81	0x3ce87d6b	0.028380116
82	0x3e8b836d	0.27248707
83	0xbf5188ab	-0.81849164
84	0x3f0f1c66	0.5590271
85	0x3cb78d90	0.02240637
86	0x3d15aee4	0.03654374
87	0x3f53ae8e	0.82688224
88	0xbef22fea	-0.4730218
89	0x3e1880cc	0.14892882
90	0x3ee1794d	0.44037858
91	0xbe8c2130	-0.2736907
92	0xbf313633	-0.69223326
93	0x3ec10525	0.37699237
94	0x3d33df2e	0.043914013
95	0x3eba1bd0	0.36349344
96	0x401489ad	2.320903
97	0x3e43a8e9	0.19107403
98	0xbd92ceb9	-0.071683355
99	0x3e511165	0.20416792
100	0x400dda8a	2.2164636
101	0x3db3a37b	0.08771416
102	0xbeaefc7f	-0.34177014
103	0x3f306eba	0.68918955
104	0xbd52cae1	-0.05146301
105	0xbf4e49a7	-0.80581135
106	0x3ecd3f76	0.4008748
107	0xbed1d44a	-0.40982276
108	0xbee8416e	-0.4536242
109	0xbf0928a4	-0.5357764
110	0x3fb974e7	1.4488801
111	0x3f01048e	0.50397575
112	0x3f5041d0	0.8135042
113	0x3fba21e4	1.4541593
114	0x3edffa74	0.43745768
115	0xbde1df2b	-0.11028894
116	0x3fa2fb33	1.273291
117	0x3d217764	0.0394205
118	0xbeb6994b	-0.35663828
119	0x3eb95058	0.3619411
120	0xbeef04bf	-0.46683308
121	0x3e6efca5	0.23338564
122	0x3f4e1949	0.8050733
123	0x3ed2f71b	0.41204152
124	0x3f23b749	0.63951546
125	0x3ebef94e	0.3729958
126	0x3e7732b0	0.2414043
127	0xbf44009a	-0.7656342
128	0x3f726613	0.94687
129	0xbdab867e	-0.08375262
130	0xbe570a83	-0.21000104
131	0x3e81702e	0.252809
132	0x3f98bc61	1.1932489
133	0x3fc34c12	1.525759
134	0xbd8fa0ab	-0.07013067
135	0xbf15b15e	-0.58473766
136	0xbe88cffc	-0.2672118
137	0xbf96f25c	-1.1792712
138	0x3f2ff8ea	0.6873919
139	0xbe7608da	-0.24026814
140	0xbf184f38	-0.5949588
141	0xbf3458d5	-0.70448047
142	0x3f9e2f39	1.2358161
143	0xbf17d71f	-0.59312624
144	0x3e676a5b	0.22599165
145	0x3ff9e888	1.9524088
146	0x3ebc5b7e	0.36788553
147	0xbf238255	-0.63870746
148	0x3f63bc4c	0.88959193
149	0x3dd4c112	0.10388388
150	0xbe040759	-0.12893428
151	0xbdced4ae	-0.10099159
152	0xbf583211	-0.84451395
153	0x3f2a0d33	0.6642639
154	0xbf2960d5	-0.6616338
155	0x3f27575b	0.6536767
156	0x3ed0cbb4	0.40780413
157	0x3e89997d	0.26874915
158	0x3f26978e	0.65075004
159	0x3bf0d2d4	0.0073493514
160	0x3f810403	1.0079349
161	0x3e314215	0.17310365
162	0x3e983d3b	0.29734215
163	0x3df59c72	0.1199273
164	0x3f2b592f	0.6693296
165	0x3de016ef	0.10941874
166	0x3d22dc1c	0.039760694
167	0x3dd98e92	0.10622896
168	0xbda140e9	-0.07873709
169	0xbf61186f	-0.8792791
170	0x3e27c1fa	0.1638259
171	0xbe15b438	-0.14619529
172	0x3e87da85	0.26533905
173	0xbf0f746b	-0.56037015
174	0x3ec22065	0.3791534
175	0x3eb4a019	0.35278395
176	0x3ebca3d2	0.36843735
177	0x3ec98038	0.39355636
178	0x3f020a16	0.5079664
179	0x3d4eca26	0.050485753
180	0x3fa4d460	1.2877312
181	0xbd626a02	-0.05527688
182	0xbf016413	-0.50543326
183	0xbe6ea406	-0.23304757
184	0xbf286242	-0.6577493
185	0x3e196262	0.14978936
186	0xbf14a30f	-0.5806131
187	0x3f1232b9	0.57108647
188	0x3eaa8b92	0.3330961
189	0x3f8b569b	1.0885805
190	0x3f9088da	1.1291764
191	0xbe8bc758	-0.27300525
192	0xbf954903	-1.1662906
193	0x3e82e980	0.2556877
194	0x3ebb6046	0.36596888
195	0xbcfbf6bc	-0.0307573
196	0x3e2ffe9c	0.1718697
197	0xbec1ec75	-0.37875715
198	0xbea79755	-0.32732645
199	0xbe971f66	-0.29516143
200	0xbe7bb37d	-0.24580188
201	0xbed17382	-0.40908438
202	0x3d1fa489	0.038975272
203	0xbea69a7e	-0.32539743
204	0xbeec48d9	-0.46149328
205	0xbde4b115	-0.11166588
206	0xbe363be2	-0.17796281
207	0xbf12a833	-0.572879
208	0x3e418b57	0.1890081
209	0x3f96897d	1.1760708
210	0xbd802fae	-0.06259094
211	0xbd3a8fb7	-0.045547213
212	0x3f55c82e	0.83508575
213	0x3ee4bbb3	0.44674453
214	0xbe0f3b68	-0.13987505
215	0x3e94fbc7	0.2909834
216	0xbf120a56	-0.5704702
217	0x3e260df2	0.16216257
218	0xbef9b362	-0.4876967
219	0x3f06d74a	0.52672255
220	0x3fb31a95	1.3992487
221	0x3f1f7fa3	0.62304133
222	0xbeffc2b0	-0.49953222
223	0xbe8267e2	-0.2546988
224	0x3f9149dd	1.1350666
225	0x3efe5c28	0.49679685
226	0x3da44035	0.08020059
227	0x3da5e619	0.08100528
228	0x3f1ccd3c	0.6125066
229	0x3f002d49	0.500691
230	0x3da69010	0.081329465
231	0x3dc4cf43	0.096098445
232	0xbe8a7367	-0.2704117
233	0xbebfa922	-0.37433726
234	0xbd4a47df	-0.049384948
235	0xbdb1ad2a	-0.086756065
236	0xbf89f08a	-1.0776532
237	0xbf1be532	-0.608966
238	0x3d24c50e	0.04022699
239	0xbf2fdfd5	-0.68700916
240	0x3f2f4548	0.6846509
241	0x3fdd1701	1.7272645
242	0x3d34962c	0.044088528
243	0x3eaabcd7	0.33347198
244	0x3f00453f	0.5010566
245	0x3e7898a2	0.24276975
246	0xbf8a13fc	-1.0787349
247	0xbe1ebc89	-0.15501608
248	0xbf6aea8a	-0.9176413
249	0x3ee5a068	0.44848943
250	0xbf7430c0	-0.95386887
251	0xbe063801	-0.13107301
252	0xbe680228	-0.22657073
253	0x3fa2b493	1.2711357
254	0xbe2fe620	-0.1717763
255	0xbf1318e4	-0.57459855

model_16/activation_134/Relu;model_16/batch_normalization_134/FusedBatchNormV3;model_16/conv2d_75/BiasAdd/ReadVariableOp;model_16/conv2d_75/BiasAdd;model_16/depthwise_conv2d_59/depthwise;model_16/conv2d_75/Conv2D/ReadVariableOp;model_16/conv2d_75/Conv2D f4 [32]
0	0x3ea7b46e	0.32754844
1	0x3f0a8a93	0.541177
2	0x3f00440d	0.5010384
3	0x3f0859f4	0.5326226
4	0x3eba66ff	0.36406705
5	0x3f71098a	0.9415518
6	0x3f86a477	1.0518941
7	0x3fba21c6	1.4541557
8	0x3f6989b5	0.9122575
9	0x3faf4de4	1.3695645
10	0x3f133f4e	0.5751847
11	0x3fc2b4ef	1.5211467
12	0x3f0f36f7	0.55943245
13	0x3fd958b1	1.6980191
14	0x3f644a58	0.8917594
15	0x3f8eb394	1.1148553
16	0x3f055d5b	0.52095574
17	0x3f98837e	1.1915128
18	0x3fba3bab	1.4549459
19	0x3f951deb	1.1649755
20	0x3fa2b3f2	1.2711165
21	0x3f704b32	0.9386474
22	0xbfa9c66e	-1.3263681
23	0x3f34ce65	0.70627433
24	0xbeac839b	-0.33694157
25	0x3f7a34c2	0.9773675
26	0xbede7645	-0.43449607
27	0x3ea7a197	0.3274047
28	0x40263716	2.5971122
29	0x3faa4b53	1.3304237
30	0x3f63b30f	0.88945097
31	0x3ebb5d0b	0.36594424

model_16/batch_normalization_135/FusedBatchNormV3;model_16/depthwise_conv2d_59/depthwise;model_16/depthwise_conv2d_59/BiasAdd;model_16/depthwise_conv2d_59/BiasAdd/ReadVariableOp f4 [1, 3, 3, 32]
0	0x3f7512ad	0.9573162
1	0xbea68854	-0.32525885
2	0xbec1d22f	-0.3785567
3	0x3e6a9915	0.22909959
4	0xbf0c0eb8	-0.5470996
5	0x3f5b642d	0.8569973
6	0x3e0a706b	0.13519447
7	0x3faf043e	1.367317
8	0x3ddec251	0.10876907
9	0x3f527b60	0.82219505
10	0xbe645f8e	-0.22302076
11	0x3e41e352	0.18934372
12	0xbed356c0	-0.41277122
13	0xbf90f0fd	-1.1323544
14	0xbf1217b4	-0.5706742
15	0xbe3799c9	-0.17929758
16	0x3e99e4f3	0.30057487
17	0xbe83e0a6	-0.2575733
18	0xbf9b3528	-1.2125597
19	0x3f9a72e7	1.2066315
20	0x3ef6825b	0.48146328
21	0x3e2c8885	0.16848953
22	0xbf85ceeb	-1.0453771
23	0xbebc54d8	-0.3678348
24	0x3e37b4e3	0.17940097
25	0x3f0ac121	0.5420094
26	0xbe588a80	-0.21146584
27	0xbf63c00f	-0.88964933
28	0x3da95cff	0.08269691
29	0x3f15ed32	0.58565056
30	0x3e289074	0.16461354
31	0xbdcd048b	-0.10010632
32	0xbd5f1d66	-0.054471396
33	0xbec5815e	-0.38575262
34	0xbef6d460	-0.48208904
35	0xbdbdde5d	-0.09270928
36	0xbf009f1a	-0.5024277
37	0x3fc52e47	1.5404748
38	0x3e1404e0	0.14454985
39	0x3fb58141	1.418007
40	0x3deeed45	0.11666349
41	0x3ee4f927	0.44721338
42	0xbcd256d1	-0.025676163
43	0x3fae439b	1.3614382
44	0xbecf9f17	-0.40551063
45	0x3ed2e7fb	0.41192612
46	0xbe71032e	-0.23536369
47	0x3d2486ca	0.040167607
48	0x3e46107c	0.19342226
49	0xbe4967ce	-0.19668505
50	0xbf812891	-1.0090505
51	0x3f063873	0.52429885
52	0x3f24c6dc	0.64365935
53	0x3e9591ea	0.29212886
54	0xbf78e559	-0.97224957
55	0x3eaba092	0.33520943
56	0xbfed4e78	-1.8539572
57	0x3eecc2d0	0.4624238
58	0xbeb2172c	-0.34783304
59	0xbf362b6a	-0.71159995
60	0x3ac7c616	0.0015241529
61	0x3ef6d589	0.4820979
62	0xbf28a9c6	-0.65884054
63	0x3a3d5f77	0.0007224003
64	0x3ea6fe1f	0.32615754
65	0xbeca2a22	-0.3948527
66	0xbeab78e1	-0.3349066
67	0xbe8e607a	-0.2780798
68	0xbe729c49	-0.2369243
69	0x3f83f7f8	1.0310049
70	0xbdf9e02b	-0.1220096
71	0x3fad54c6	1.3541496
72	0x3d87f9e7	0.06639462
73	0x3e5a1f5d	0.21301027
74	0x3d13d2ce	0.03608971
75	0xbf41f4d2	-0.7576419
76	0xbeac7278	-0.33681083
77	0xbedc2e5a	-0.43004113
78	0xbe01a239	-0.1265954
79	0x3e0cb53e	0.13741013
80	0xbec8139e	-0.39077467
81	0xbe1754e8	-0.14778483
82	0xbed5816e	-0.4170031
83	0xbd1c6f03	-0.038191807
84	0x3f613874	0.87976766
85	0x3eae47b0	0.34039068
86	0xbe53b987	-0.20676242
87	0x3e1f64cd	0.15565796
88	0xbf8bea2a	-1.0930836
89	0xbcd6f073	-0.026237702
90	0xbbb47ee0	-0.0055082887
91	0x3e2237ed	0.15841646
92	0x3d217336	0.039416514
93	0x3e634025	0.22192438
94	0xbeb4cb9a	-0.35311586
95	0xbdca73ed	-0.09885392
96	0xbea3b05c	-0.3197049
97	0xbe54e8bd	-0.20791908
98	0xbe0ad6eb	-0.13558547
99	0xbd4db726	-0.050223492
100	0xbe15fb8c	-0.14646739
101	0x3f0a1ca5	0.5394996
102	0x3f2eafaf	0.6823682
103	0x3ce61680	0.0280869
104	0x3e2053fe	0.1565704
105	0x3e7fda0c	0.24985522
106	0xbe963379	-0.29336146
107	0x3d4b1629	0.04958168
108	0xbe88aaf5	-0.2669293
109	0xbf541ffb	-0.828613
110	0x3caa684a	0.020801682
111	0x3db96c95	0.090539135
112	0x3f4e840f	0.80670255
113	0xbd0ec604	-0.03485681
114	0xbefcd7ba	-0.49383336
115	0xbe256e07	-0.16155253
116	0x3f9d2f1d	1.2280003
117	0x3eabc171	0.33546022
118	0x3d034774	0.032050565
119	0xbed6a42b	-0.41922125
120	0xbfce4bd4	-1.6116891
121	0x3f111010	0.56665134
122	0xbe583c0e	-0.21116659
123	0xbe0e346e	-0.13887188
124	0x3de6e12a	0.112734154
125	0x3de40096	0.11132924
126	0xbda2f466	-0.079567716
127	0xbeebd433	-0.46060333
128	0x3d886c55	0.06661288
129	0xbe8136ce	-0.25237125
130	0x3d87a6be	0.066236004
131	0xbe06b95c	-0.13156646
132	0xbf02808a	-0.50977385
133	0x3f46e4f4	0.77693105
134	0xbc100ba3	-0.008791837
135	0x3e3b3912	0.1828349
136	0x3edd07c1	0.43169978
137	0xbd16ffbf	-0.036864992
138	0xbeabca74	-0.33552897
139	0x3f571483	0.84015673
140	0xbf40f38f	-0.7537164
141	0x3f8ef8cc	1.1169677
142	0x3f114643	0.56747836
143	0x3ea9501a	0.33068925
144	0x3e9e8911	0.30963948
145	0xbe753c5c	-0.23948807
146	0xbccfdc34	-0.025373556
147	0x3f0cbe3e	0.54977787
148	0x3f6c178d	0.92223436
149	0x3ef37b16	0.47554845
150	0xbf0b97e1	-0.54528624
151	0x3ecc746c	0.39932573
152	0x3e1d326f	0.1535127
153	0x3f26cac4	0.65153146
154	0xbdc3cd76	-0.09560673
155	0xbe843ed1	-0.25829175
156	0x3e25ee8a	0.16204277
157	0xbcd9d096	-0.02658872
158	0xbe951de1	-0.29124358
159	0xbf493e6a	-0.7861086
160	0x3e146a54	0.14493686
161	0x3e117300	0.14204025
162	0xbe737a3e	-0.237771
163	0xbe1db53b	-0.15401165
164	0xbf093809	-0.5360113
165	0x3e0dabb9	0.13835038
166	0xbe266e18	-0.16252935
167	0xbcee7e23	-0.029112881
168	0x3c4b1f63	0.01239762
169	0xbe27e404	-0.16395575
170	0xbe1ec430	-0.15504527
171	0xbff97f49	-1.9491969
172	0xbf5581ed	-0.83401376
173	0x3efe0820	0.49615574
174	0x3e576b82	0.21037105
175	0x3e8090ec	0.25110567
176	0xbe27c3b6	-0.16383252
177	0xbe49ab4a	-0.19694248
178	0x3f90f5bb	1.1324991
179	0x3fd22495	1.6417414
180	0x3f7e4f96	0.9934019
181	0x3e8af817	0.27142403
182	0xbe12a637	-0.14321218
183	0x3f236216	0.6382154
184	0x3df2ef73	0.118620776
185	0x3e2fb96d	0.17160578
186	0xbe3be138	-0.18347633
187	0x3a8e3232	0.00108487
188	0x3e4b81da	0.19873753
189	0xbe589282	-0.21149638
190	0xbe173799	-0.14767303
191	0xbf1c4084	-0.61035943
192	0x3df613d0	0.12015498
193	0x3f164ad4	0.5870793
194	0xbec58874	-0.38580668
195	0x3e4dd0ff	0.20099257
196	0xbd08fcb8	-0.033444136
197	0x3e9d94b6	0.3077752
198	0x3e1ce267	0.1532074
199	0x3e313152	0.1730397
200	0xbe221aa7	-0.1583048
201	0x3e84c087	0.25928137
202	0xbf9a2371	-1.2042066
203	0xbf7a6a2d	-0.9781826
204	0x3f271530	0.65266705
205	0x3e85feb3	0.26170883
206	0x3ec314ce	0.3810181
207	0xbd8b08ec	-0.06788811
208	0x3ebb555e	0.36588567
209	0xbdb4b232	-0.088230506
210	0x3f4423eb	0.76617306
211	0xbd68c052	-0.056824036
212	0x3f370dca	0.71505415
213	0x3f5a58db	0.8529183
214	0xbe9f64b0	-0.31131506
215	0xbf3f07a1	-0.74621016
216	0x3f537613	0.8260204
217	0x3e3f5fa2	0.18688825
218	0x3d6bae97	0.05753955
219	0x3f05809d	0.52149373
220	0x3e83ed28	0.25766873
221	0x3f22e6d6	0.6363348
222	0x3e5ac973	0.2136591
223	0xbded3180	-0.11581707
224	0x3f220214	0.6328442
225	0x3ea5135a	0.32241327
226	0xbf0061bd	-0.50149137
227	0x3ef56ae4	0.47933114
228	0xbe04b7e4	-0.12960774
229	0x3e96e993	0.29475078
230	0x3e38a62a	0.18032137
231	0x3d7800c0	0.06054759
232	0xbce72fec	-0.028221093
233	0x3e93d43b	0.28872856
234	0xbf3e691f	-0.7437915
235	0x3f6e2262	0.93021214
236	0x3f1bf8d9	0.60926586
237	0x3f805954	1.0027261
238	0x3f75fb05	0.9608615
239	0x3e97ed8e	0.29673427
240	0xbe157598	-0.1459564
241	0xbe33715d	-0.17523713
242	0x3f370bc4	0.7150233
243	0xbde1fd1c	-0.11034605
244	0x3e72dc0a	0.2371675
245	0x3f33d949	0.70253426
246	0xbf0c94e3	-0.54914683
247	0xbe5840ce	-0.21118471
248	0x3f5db75c	0.8660791
249	0x3f16a173	0.588401
250	0xbe1ba16c	-0.15198296
251	0x3ee8934d	0.45424882
252	0x3f0dbaf6	0.55363405
253	0x3f60bcbd	0.8778799
254	0xbd57e9e7	-0.0527133
255	0xbf11b64e	-0.569188

model_16/activation_136/Relu;model_16/batch_normalization_136/FusedBatchNormV3;model_16/conv2d_76/BiasAdd/ReadVariableOp;model_16/conv2d_76/BiasAdd;model_16/conv2d_76/Conv2D/ReadVariableOp;model_16/conv2d_76/Conv2D f4 [64]
0	0xbf455c46	-0.77093923
1	0x3f7a468b	0.9776389
2	0xc01540de	-2.3320842
3	0xbd91b188	-0.071139395
4	0xbe9c664a	-0.3054679
5	0x3e6a193c	0.22861189
6	0xbf28f300	-0.6599579
7	0x3e90e675	0.28300825
8	0xbf467a7e	-0.7753066
9	0x3f368936	0.7130312
10	0x3f2480a5	0.64258796
11	0xbd6cfcd8	-0.057858318
12	0x3f20b21e	0.62771785
13	0x3f196275	0.5991586
14	0x3f50b98d	0.8153313
15	0xbe17d578	-0.14827526
16	0x3f45e560	0.77303123
17	0xbf25a6f1	-0.6470786
18	0xbdfb5ce4	-0.12273577
19	0x3e3d7b66	0.18504104
20	0x3f419db9	0.7563129
21	0xbf97991d	-1.1843601
22	0xbf26e8a5	-0.6519874
23	0xbe0c3a1f	-0.13694046
24	0xbfadacad	-1.3568321
25	0xbe76f380	-0.24116325
26	0xbe17eece	-0.1483719
27	0x3e6a13c4	0.22859102
28	0xbe829a3b	-0.25508294
29	0xbde0f63a	-0.10984464
30	0xbe5df6d8	-0.21676195
31	0xc0108c4f	-2.2585638
32	0xbe39d174	-0.18146306
33	0x3dc4a32a	0.096014336
34	0xbf4dda3d	-0.8041113
35	0xbeba74d2	-0.36417252
36	0x3ed6b61c	0.41935813
37	0xbf17b574	-0.5926125
38	0x3f19c44d	0.60065156
39	0xbee0f585	-0.43937317
40	0xbfd489c4	-1.6604543
41	0xbb886868	-0.004162837
42	0x3db0f580	0.086405754
43	0xbf9d5e17	-1.2294339
44	0x3eec1050	0.46106195
45	0xbe667640	-0.22506046
46	0xbe93b2ce	-0.28847355
47	0xbf0fe062	-0.56201756
48	0x3f4356da	0.763044
49	0x3dbf84e4	0.09351519
50	0xbeadb9c5	-0.33930793
51	0xbdc7776c	-0.09739575
52	0x3e775a0b	0.24155442
53	0xbecb193a	-0.39667684
54	0x3e0fdd46	0.14049253
55	0xbe2245b0	-0.15846896
56	0xbeba386d	-0.36371174
57	0xc02901b2	-2.6407285
58	0x3f179d96	0.5922483
59	0xbbe7c620	-0.007073179
60	0xbf28fd6b	-0.66011685
61	0xbea2ff50	-0.31835413
62	0xc0345e58	-2.8182583
63	0xbda12016	-0.07867448

model_16/dense_16/MatMul f4 [2, 64]
0	0xbf67f81d	-0.90612966
1	0x3ecadac0	0.39620018
2	0xbf910de3	-1.1332363
3	0x3eb1b3d3	0.34707507
4	0x3f3e751f	0.7439746
5	0xbec59425	-0.38589588
6	0xbf855ee3	-1.0419582
7	0xbf22f55e	-0.6365565
8	0xbf36138e	-0.7112359
9	0x3f125edf	0.5717601
10	0x3f2268ea	0.63441336
11	0x3f7cc054	0.9873097
12	0x3ec582de	0.38576406
13	0xbec75797	-0.38934013
14	0x3f0e93a0	0.5569401
15	0x3f71ff7c	0.94530463
16	0x3f400b5b	0.7501733
17	0xbf912c07	-1.1341561
18	0xbf0328d6	-0.51234186
19	0x3f602e05	0.8757022
20	0x3f00024a	0.5000349
21	0xbf3ea9cd	-0.74477845
22	0xc00b0c41	-2.172623
23	0x3fe63f38	1.7988043
24	0xbf537668	-0.8260255
25	0x3fa3dc14	1.2801538
26	0xbf93526c	-1.1509528
27	0x40196acb	2.3971431
28	0xbfc48a14	-1.5354638
29	0x400e6aba	2.225264
30	0xbf226e85	-0.6344989
31	0xbf34be0e	-0.706025
32	0xbfab7dc0	-1.3397751
33	0x3f197d29	0.59956604
34	0xbf009f25	-0.50242835
35	0xbf1749c7	-0.5909695
36	0x3f1def74	0.616935
37	0xc03b2b1f	-2.924507
38	0x3ed2c912	0.4116903
39	0xbf9ae21b	-1.2100252
40	0xbf55c453	-0.8350269
41	0x3f693d4e	0.9110917
42	0xbee21f1a	-0.44164354
43	0xbf584e27	-0.8449425
44	0xbf09d13b	-0.53834885
45	0xbf265a8d	-0.6498192
46	0xbfbf66fd	-1.4953305
47	0xbf476a8f	-0.7789697
48	0x3eb53e9d	0.35399333
49	0x3f520cbd	0.8205069
50	0xbf7428de	-0.9537486
51	0x3f0a7b45	0.54094344
52	0x3f11ae50	0.56906605
53	0x3fe2dd88	1.7723856
54	0x3ef107be	0.4707622
55	0xbee4d649	-0.44694737
56	0x40149ffa	2.3222642
57	0xbf8c5526	-1.0963485
58	0x3f543725	0.82896644
59	0x3f5d2b1d	0.8639391
60	0xc0364aff	-2.8483274
61	0xbf616f20	-0.8806019
62	0xbf956d8c	-1.1674056
63	0x3f8fdf9d	1.1240116
64	0x3f647f05	0.89256316
65	0xbf117435	-0.5681794
66	0x3fc664e3	1.5499538
67	0xbf501d0c	-0.8129432
68	0xbf69e599	-0.91365963
69	0x3f206d6d	0.6266697
70	0x3f740b2b	0.9532954
71	0x3ec0cc93	0.37656078
72	0x3f149d0d	0.5805214
73	0xbeeab5c8	-0.45841813
74	0xbf864174	-1.0488725
75	0xbf8d9ea8	-1.1064043
76	0xbf1b7fea	-0.60742056
77	0x3f366af5	0.71256953
78	0xbef20614	-0.47270262
79	0xbf6ee643	-0.933201
80	0xbe52686d	-0.20547648
81	0x3faa7690	1.3317432
82	0x3ef6c6d2	0.48198563
83	0xbf5623e7	-0.8364853
84	0xbef9de11	-0.48802236
85	0x3e8b8028	0.27246213
86	0x400c5fad	2.1933396
87	0xbfbc9a7f	-1.4734648
88	0x3f8ecf89	1.1157085
89	0xbfa1769a	-1.2614319
90	0x3fa50b63	1.28941
91	0xc00ad6fc	-2.1693716
92	0x3fbad450	1.4596043
93	0xc0098b09	-2.149111
94	0x3eac8266	0.33693236
95	0x3f5cf9dc	0.86318755
96	0x3fc06347	1.5030297
97	0xbe91b28e	-0.2845654
98	0x3f630ab9	0.88688236
99	0x3f22ba00	0.63565063
100	0xbf395622	-0.72397053
101	0x40236691	2.5531352
102	0xbefa87fd	-0.48931876
103	0x3f5fd063	0.8742735
104	0x3f8b95b0	1.0905056
105	0xbf870354	-1.0547891
106	0x3eba454b	0.3638099
107	0x3f742f9a	0.95385134
108	0x3ed58ba1	0.4170809
109	0x3f2d6109	0.6772619
110	0x3fe9fda4	1.828053
111	0x3f6caed2	0.92454255
112	0xbf0b6983	-0.54457873
113	0xbf812304	-1.0088811
114	0x3f106299	0.5640045
115	0xbf61641f	-0.880434
116	0xbf1bcb13	-0.6085674
117	0xbfba4bd3	-1.455439
118	0xbf17b86b	-0.59265774
119	0x3f00554b	0.50130147
120	0xc00189cd	-2.0240357
121	0x3f51dfac	0.8198192
122	0xbf89374c	-1.072
123	0xbf8371cf	-1.0269107
124	0x402e9814	2.728032
125	0x3f58be0e	0.84665
126	0x3fdedff6	1.7412097
127	0xbf963d64	-1.1737485

model_16/batch_normalization_128/FusedBatchNormV3;model_16/conv2d_72/BiasAdd/ReadVariableOp;model_16/conv2d_72/BiasAdd;model_16/conv2d_72/Conv2D/ReadVariableOp;model_16/conv2d_72/Conv2D f4 [32, 3, 3, 1]
0	0xbc5515b4	-0.013005663
1	0x3bbe11a3	0.0058004423
2	0x3bc31b99	0.0059542176
3	0x3b0e3bea	0.0021703192
4	0x3a0a3a74	0.00052729924
5	0x3c2aefa5	0.010433112
6	0xbbf994cf	-0.0076166163
7	0xbbe55f6d	-0.006999901
8	0x3c4161de	0.0118031185
9	0xbc6e2969	-0.01453624
10	0xba6f7fd2	-0.0009136173
11	0xbcd21c48	-0.025648251
12	0x3bacdb82	0.005275191
13	0x3a3765e2	0.0006996078
14	0xbb70f282	-0.003676564
15	0x3c2292a7	0.00992266
16	0x3c905de0	0.017622888
17	0xbaa3b451	-0.0012489652
18	0x3b80ebc7	0.003934357
19	0xba50b399	-0.00079613324
20	0x3bfa97b9	0.0076474813
21	0x3bc2f54f	0.005949653
22	0xbbe21e48	-0.0069005825
23	0x3ce5fcda	0.02807467
24	0xb9b36794	-0.00034218712
25	0x3c9267ac	0.0178717
26	0xbc13d399	-0.009022617
27	0xbc88415d	-0.01663273
28	0xbc759364	-0.014988754
29	0xbca279b7	-0.019833429
30	0xbc93b5f2	-0.018031094
31	0xbccd181c	-0.02503591
32	0x3d56da09	0.05245403
33	0x3d2fd68e	0.042929225
34	0xbd6663ff	-0.056247707
35	0xbc5aa0c8	-0.013343997
36	0x3ce30c89	0.027715938
37	0xbc4a0b59	-0.012331807
38	0xbce85336	-0.02835999
39	0xbccf9ac7	-0.025342358
40	0x3cb76a4b	0.022389552
41	0x3c846368	0.016160682
42	0x3ce8741f	0.028375683
43	0xbcae590c	-0.021282695
44	0xbab67eb3	-0.0013923257
45	0x3a33ec05	0.0006863478
46	0xbba34e89	-0.0049837274
47	0xbad1c720	-0.0016004778
48	0xbc35d601	-0.011098386
49	0x3cb4ff9e	0.022094544
50	0xbc6b9992	-0.014379876
51	0xbc844786	-0.016147386
52	0x3d43b5a2	0.04778064
53	0x3d19e908	0.03757575
54	0x3bc2ccf0	0.0059448406
55	0x3c7c9236	0.015415719
56	0x3cce74cd	0.02520218
57	0xbccf255c	-0.025286369
58	0xbba6b3b8	-0.005087342
59	0xbd053b31	-0.032527152
60	0xbca231f5	-0.019799212
61	0x3c581fa1	0.013191135
62	0xbaa22db9	-0.0012373246
63	0xbba21a7d	-0.0049470053
64	0x3c04c14d	0.008102727
65	0x3b5703ea	0.003280873
66	0x3a61e9f4	0.00086179306
67	0x3c1fc821	0.009752304
68	0x3aea0f88	0.0017857412
69	0xbbf49c7a	-0.0074649425
70	0x3b7607fa	0.0037541375
71	0x3c02dd62	0.007987352
72	0x3bb7b85e	0.005606695
73	0xbc2b1df4	-0.010444153
74	0x3c5372ba	0.012905771
75	0x3ba50bee	0.0050368225
76	0x3cd9ace0	0.026571691
77	0xbcab76fc	-0.02093076
78	0xbae1c65a	-0.0017225251
79	0xbc37bfe2	-0.011215182
80	0x3c713171	0.01472126
81	0x3c8460a3	0.016159361
82	0x3b6f4034	0.0036506774
83	0xbc2ef417	-0.010678313
84	0xb8bdacc3	-9.044402e-05
85	0xba891626	-0.0010458871
86	0x3b6d779d	0.0036234625
87	0xbb200a5b	-0.0024420235
88	0x3be484ea	0.0069738524
89	0x3b62b40a	0.0034592175
90	0xbae64d13	-0.0017570577
91	0x3bafb7f1	0.0053625037
92	0xba000536	-0.0004883589
93	0xbb1b5609	-0.0023702404
94	0x3ca8ec52	0.020620499
95	0xbcd35f24	-0.025802203
96	0xbd18f717	-0.03734502
97	0x3d3fb505	0.046803493
98	0xbb947d25	-0.00453152
99	0x384e066e	4.9120215e-05
100	0x3c60202e	0.013679547
101	0x3c58fc04	0.013243679
102	0x3ab4ee3b	0.0013803908
103	0xbc314b88	-0.010821231
104	0xbc286aea	-0.010279397
105	0xbcdcb679	-0.026942478
106	0x3ba0e39d	0.004909946
107	0xbc107fe4	-0.008819554
108	0x39a810dd	0.0003205602
109	0x3a4a277c	0.0007711572
110	0xb9cffe38	-0.00039671524
111	0xba923a6b	-0.0011156326
112	0x3be2d365	0.006922173
113	0x3c4e9a08	0.012609966
114	0xbbea9792	-0.007159182
115	0x3c189265	0.009312247
116	0xb83c4ccb	-4.4894212e-05
117	0xbc259c8b	-0.0101081235
118	0xbb95e2e7	-0.004574168
119	0xbbc33c76	-0.0059581352
120	0x3c573a3b	0.013136442
121	0x3b98310e	0.0046445196
122	0xbb4387fe	-0.0029835696
123	0x3bd82393	0.0065960377
124	0xbc8631f7	-0.016381247
125	0xbb3523c9	-0.0027639738
126	0x3bc0ed64	0.005887674
127	0x3b8a7a13	0.004225978
128	0x3d801940	0.06254816
129	0x3a30d4f2	0.00067455985
130	0xbd6c58e3	-0.057701956
131	0x3a849953	0.0010116495
132	0xbc9a7c16	-0.018857997
133	0xba92f00c	-0.0011210456
134	0x3d7a8140	0.06115842
135	0x3b18b53c	0.0023301383
136	0x3b327b97	0.002723431
137	0xbbcf17fb	-0.0063199974
138	0xbb891b4d	-0.0041841627
139	0xbcd0f39c	-0.025506787
140	0x3c89d1ce	0.016823675
141	0xbab07da1	-0.0013465175
142	0x3c9b9688	0.018992677
143	0xbbdab7b0	-0.0066747293
144	0x3c89e892	0.016834531
145	0xbc99723b	-0.018731227
146	0xbc22aa92	-0.009928362
147	0x3c403fd0	0.011733964
148	0x3c08e285	0.008354788
149	0xbb04fed3	-0.0020293489
150	0xbd117d3e	-0.03551983
151	0xbc95e869	-0.018299298
152	0x3b78ca23	0.003796228
153	0xbaeb6925	-0.0017960413
154	0x3a719640	0.00092158094
155	0x3c18caba	0.0093256775
156	0x3a5c17a3	0.0008395856
157	0x3c3ae10e	0.011406196
158	0x399a28f3	0.00029403678
159	0xbbcbb139	-0.006216195
160	0x3c03808d	0.008026254
161	0xbb3f85a2	-0.0029223938
162	0xbc8c12e3	-0.01709885
163	0xbc455717	-0.01204469
164	0xbcecdafe	-0.028913017
165	0xbb23b204	-0.0024977932
166	0x3c09a5f2	0.008401381
167	0x3cbdc5af	0.023165552
168	0xba93f066	-0.0011286854
169	0xba9a1c3d	-0.0011757683
170	0x3b2bda70	0.0026222728
171	0x3d730260	0.059328437
172	0xbc2cad45	-0.010539358
173	0x3c9053fa	0.017618168
174	0x3b86e907	0.0041171345
175	0xbcc4c48b	-0.0240195
176	0x3c3ff958	0.011717163
177	0xbace8782	-0.0015756937
178	0xbd0b993f	-0.034081694
179	0xbc441765	-0.011968468
180	0x3b3ba5d8	0.0028632786
181	0xbb91acb3	-0.004445636
182	0x3c49378b	0.012281309
183	0x3984e627	0.0002534848
184	0xbc27c856	-0.010240635
185	0xba8f9763	-0.0010955151
186	0x39bca04f	0.00035977594
187	0x3c61651f	0.013757019
188	0x3b7d7edc	0.003868035
189	0xbb2df4c3	-0.0026543594
190	0xbb839fd0	-0.004016854
191	0xbbcb4178	-0.006202873
192	0x3c838f5d	0.016059572
193	0x3cd18814	0.025577582
194	0xbbe38270	-0.0069430396
195	0xbb202ac3	-0.002443955
196	0x3b239a30	0.002496373
197	0x3c20573d	0.009786424
198	0xbb64c6c2	-0.0034908508
199	0x3bf8356a	0.007574727
200	0x3a838403	0.0010033849
201	0xbb28afc5	-0.0025739532
202	0x3beda9fa	0.007252929
203	0x3b42ee34	0.002974403
204	0x3b9d4a43	0.0048001125
205	0x3ab16679	0.0013534568
206	0x3b102061	0.0021991956
207	0xbcac8d5a	-0.021063495
208	0x3be7b51b	0.00707115
209	0xbc6ef6df	-0.014585226
210	0x3c75e321	0.015007765
211	0x3a9ef1f6	0.0012126553
212	0x3c711650	0.014714792
213	0xbb43b368	-0.0029861573
214	0xbc887683	-0.016658073
215	0x3c86c907	0.01645328
216	0x3a572b7c	0.0008208079
217	0x3a039b9b	0.00050204404
218	0xba309710	-0.0006736377
219	0xbd34e0c8	-0.04415968
220	0x3d64894a	0.05579499
221	0x3bb3cb6d	0.0054868967
222	0xbc2e2534	-0.010628987
223	0xbbd0d2ec	-0.0063728
224	0xba8b9fa5	-0.0010652436
225	0x3bc9fe13	0.006164321
226	0xbaffb06b	-0.0019507533
227	0xbbb0df9a	-0.005397749
228	0x3c010ccb	0.007876585
229	0xbb8e5f6b	-0.004344871
230	0xbc417a0a	-0.011808882
231	0x3c04d160	0.0081065595
232	0x3b89575a	0.0041913213
233	0xbb9085b4	-0.00441047
234	0x3b98af83	0.0046595945
235	0xbc0f8058	-0.008758627
236	0x3cb38f3f	0.021918891
237	0x3c87745c	0.016534977
238	0xbc7897b0	-0.015172884
239	0xbafaf805	-0.0019147402
240	0xbd449145	-0.047990102
241	0xbc4241b2	-0.011856483
242	0x3c89fc17	0.016843839
243	0xbc859b54	-0.016309418
244	0x3ac47c53	0.0014990665
245	0xbcc08e73	-0.023505425
246	0x3c3f99b7	0.011694363
247	0x3b8758e4	0.0041304696
248	0xbc044c38	-0.008074813
249	0x3c5f2873	0.013620484
250	0x3c3397ad	0.010961455
251	0x3cba21bd	0.022721166
252	0xbc18c6ba	-0.009324724
253	0xba7c8357	-0.0009632608
254	0x3ad06895	0.0015900308
255	0xbad5954e	-0.0016295107

model_16/batch_normalization_130/FusedBatchNormV3;model_16/conv2d_73/BiasAdd/ReadVariableOp;model_16/conv2d_73/BiasAdd;model_16/conv2d_73/Conv2D/ReadVariableOp;model_16/conv2d_73/Conv2D i1 [32, 1, 1, 32] scale=0.021570178 zero_point=0
0	0x06	0.12942107
1	0xeb	-0.45297372
2	0xfb	-0.10785089
3	0xd1	-1.0137984
4	0xf0	-0.34512284
5	0xfd	-0.064710535
6	0x04	0.08628071
7	0x31	1.0569388
8	0xfd	-0.064710535
9	0xe7	-0.5392544
10	0xfc	-0.08628071
11	0x1f	0.6686755
12	0x1a	0.56082463
13	0xe6	-0.56082463
14	0xd1	-1.0137984
15	0x06	0.12942107
16	0xc4	-1.2942107
17	0x0f	0.32355267
18	0xd5	-0.92751765
19	0x36	1.1647896
20	0x0a	0.21570177
21	0x32	1.0785089
22	0xdb	-0.7980966
23	0x1b	0.5823948
24	0xed	-0.40983337
25	0x0e	0.3019825
26	0xfa	-0.12942107
27	0x03	0.064710535
28	0xc5	-1.2726405
29	0x06	0.12942107
30	0xfe	-0.043140355
31	0x16	0.4745439
32	0x05	0.10785089
33	0x01	0.021570178
34	0x1f	0.6686755
35	0x0a	0.21570177
36	0xd5	-0.92751765
37	0xf2	-0.3019825
38	0x06	0.12942107
39	0x10	0.34512284
40	0xc7	-1.2295002
41	0xdd	-0.75495625
42	0xe8	-0.5176843
43	0x14	0.43140355
44	0xf7	-0.1941316
45	0x05	0.10785089
46	0x01	0.021570178
47	0xfd	-0.064710535
48	0xe8	-0.5176843
49	0xf1	-0.32355267
50	0x23	0.75495625
51	0xec	-0.43140355
52	0xe0	-0.6902457
53	0x01	0.021570178
54	0x18	0.5176843
55	0x23	0.75495625
56	0xed	-0.40983337
57	0x17	0.49611408
58	0xfd	-0.064710535
59	0x06	0.12942107
60	0x19	0.5392544
61	0x15	0.45297372
62	0x28	0.8628071
63	0xe7	-0.5392544
64	0x11	0.36669302
65	0x02	0.043140355
66	0x0d	0.28041232
67	0xde	-0.73338604
68	0xf1	-0.32355267
69	0xfc	-0.08628071
70	0x26	0.81966674
71	0xb5	-1.6177633
72	0x18	0.5176843
73	0xf7	-0.1941316
74	0x6a	2.286439
75	0xf3	-0.28041232
76	0x20	0.6902457
77	0xc0	-1.3804914
78	0xee	-0.3882632
79	0x81	-2.7394125
80	0xe9	-0.49611408
81	0xed	-0.40983337
82	0x1a	0.56082463
83	0xda	-0.81966674
84	0x04	0.08628071
85	0x17	0.49611408
86	0xd6	-0.90594745
87	0xe2	-0.64710534
88	0x17	0.49611408
89	0xfb	-0.10785089
90	0xf3	-0.28041232
91	0x06	0.12942107
92	0xd1	-1.0137984
93	0xe2	-0.64710534
94	0x22	0.73338604
95	0xfa	-0.12942107
96	0xec	-0.43140355
97	0x04	0.08628071
98	0xfd	-0.064710535
99	0xf2	-0.3019825
100	0xfc	-0.08628071
101	0xfd	-0.064710535
102	0x00	0.0
103	0x09	0.1941316
104	0xff	-0.021570178
105	0x09	0.1941316
106	0xf4	-0.25884214
107	0x08	0.17256142
108	0xfc	-0.08628071
109	0x08	0.17256142
110	0x01	0.021570178
111	0x03	0.064710535
112	0xfb	-0.10785089
113	0xf9	-0.15099125
114	0xf9	-0.15099125
115	0xff	-0.021570178
116	0x07	0.15099125
117	0xf3	-0.28041232
118	0xd8	-0.8628071
119	0xfc	-0.08628071
120	0xf7	-0.1941316
121	0x05	0.10785089
122	0x08	0.17256142
123	0xff	-0.021570178
124	0xfe	-0.043140355
125	0xf2	-0.3019825
126	0x03	0.064710535
127	0xf8	-0.17256142
128	0xf9	-0.15099125
129	0xe6	-0.56082463
130	0x0d	0.28041232
131	0x04	0.08628071
132	0xf3	-0.28041232
133	0xf6	-0.21570177
134	0x0d	0.28041232
135	0xfc	-0.08628071
136	0xf3	-0.28041232
137	0xd2	-0.99222815
138	0xee	-0.3882632
139	0x0a	0.21570177
140	0x00	0.0
141	0x14	0.43140355
142	0x05	0.10785089
143	0x00	0.0
144	0xda	-0.81966674
145	0xeb	-0.45297372
146	0xfa	-0.12942107
147	0x0d	0.28041232
148	0x00	0.0
149	0x06	0.12942107
150	0x07	0.15099125
151	0xfe	-0.043140355
152	0xff	-0.021570178
153	0x11	0.36669302
154	0xfc	-0.08628071
155	0x0c	0.25884214
156	0x06	0.12942107
157	0x01	0.021570178
158	0x07	0.15099125
159	0xe8	-0.5176843
160	0xfb	-0.10785089
161	0xfc	-0.08628071
162	0x04	0.08628071
163	0xfb	-0.10785089
164	0x00	0.0
165	0xfb	-0.10785089
166	0x06	0.12942107
167	0x01	0.021570178
168	0x01	0.021570178
169	0x03	0.064710535
170	0xff	-0.021570178
171	0x0e	0.3019825
172	0xf9	-0.15099125
173	0xfb	-0.10785089
174	0x09	0.1941316
175	0x00	0.0
176	0x01	0.021570178
177	0x0a	0.21570177
178	0xff	-0.021570178
179	0x09	0.1941316
180	0xf5	-0.23727195
181	0x09	0.1941316
182	0xf6	-0.21570177
183	0xf7	-0.1941316
184	0xf8	-0.17256142
185	0xff	-0.021570178
186	0x00	0.0
187	0xec	-0.43140355
188	0xf7	-0.1941316
189	0xf3	-0.28041232
190	0x01	0.021570178
191	0x04	0.08628071
192	0x13	0.40983337
193	0x1c	0.603965
194	0x17	0.49611408
195	0xc2	-1.337351
196	0x10	0.34512284
197	0xfd	-0.064710535
198	0x0e	0.3019825
199	0x0c	0.25884214
200	0x13	0.40983337
201	0x06	0.12942107
202	0xfb	-0.10785089
203	0x09	0.1941316
204	0xde	-0.73338604
205	0xee	-0.3882632
206	0xcb	-1.1432195
207	0xee	-0.3882632
208	0x15	0.45297372
209	0x05	0.10785089
210	0x0d	0.28041232
211	0x09	0.1941316
212	0x05	0.10785089
213	0x06	0.12942107
214	0x0f	0.32355267
215	0x14	0.43140355
216	0xd9	-0.84123695
217	0x2f	1.0137984
218	0xfb	-0.10785089
219	0x06	0.12942107
220	0xf5	-0.23727195
221	0xf0	-0.34512284
222	0xf6	-0.21570177
223	0xfe	-0.043140355
224	0x09	0.1941316
225	0x08	0.17256142
226	0xed	-0.40983337
227	0x05	0.10785089
228	0xfd	-0.064710535
229	0x09	0.1941316
230	0xff	-0.021570178
231	0x09	0.1941316
232	0xf4	-0.25884214
233	0xff	-0.021570178
234	0x06	0.12942107
235	0x03	0.064710535
236	0x02	0.043140355
237	0xfb	-0.10785089
238	0x01	0.021570178
239	0x05	0.10785089
240	0x09	0.1941316
241	0xf3	-0.28041232
242	0x00	0.0
243	0x01	0.021570178
244	0xfe	-0.043140355
245	0x08	0.17256142
246	0x00	0.0
247	0x0a	0.21570177
248	0x04	0.08628071
249	0xfd	-0.064710535
250	0xfc	-0.08628071
251	0x04	0.08628071
252	0xfc	-0.08628071
253	0x0d	0.28041232
254	0x02	0.043140355
255	0xed	-0.40983337
