intmodel_withoutbatchnorm/int_image_size_96_deeper_hotdog_remove_batchnorm.tflite (tflite, 25984 bytes, 10 tensors)

model_23/dense_23/MatMul i1 [2, 64] scale=0.009845904 zero_point=0
0	0xea	-0.2166099
1	0xf7	-0.08861314
2	0x14	0.19691809
3	0xc4	-0.5907543
4	0xea	-0.2166099
5	0x05	0.04922952
6	0x0a	0.09845904
7	0x9a	-1.0042822
8	0xe9	-0.2264558
9	0x0f	0.14768857
10	0xe4	-0.2756853
11	0x00	0.0
12	0x02	0.019691808
13	0xfc	-0.039383616
14	0xe8	-0.23630169
15	0x08	0.07876723
16	0xf2	-0.13784266
17	0xf2	-0.13784266
18	0xfa	-0.059075423
19	0xfa	-0.059075423
20	0xe2	-0.29537714
21	0x06	0.059075423
22	0xe2	-0.29537714
23	0x0f	0.14768857
24	0xed	-0.18707217
25	0xea	-0.2166099
26	0x13	0.18707217
27	0xf1	-0.14768857
28	0x00	0.0
29	0xf8	-0.07876723
30	0xf8	-0.07876723
31	0x0a	0.09845904
32	0xe9	-0.2264558
33	0x0f	0.14768857
34	0xf6	-0.09845904
35	0xfb	-0.04922952
36	0x03	0.029537711
37	0x18	0.23630169
38	0x14	0.19691809
39	0x08	0.07876723
40	0xf7	-0.08861314
41	0x04	0.039383616
42	0xe7	-0.2461476
43	0x00	0.0
44	0x10	0.15753447
45	0xfa	-0.059075423
46	0xe1	-0.30522302
47	0x05	0.04922952
48	0x11	0.16738036
49	0x13	0.18707217
50	0xfc	-0.039383616
51	0xfd	-0.029537711
52	0x06	0.059075423
53	0xe9	-0.2264558
54	0xf2	-0.13784266
55	0xee	-0.17722628
56	0x08	0.07876723
57	0xfb	-0.04922952
58	0xf4	-0.118150845
59	0x0c	0.118150845
60	0xea	-0.2166099
61	0xec	-0.19691809
62	0x07	0.06892133
63	0x01	0.009845904
64	0xf3	-0.12799676
65	0x0b	0.10830495
66	0x07	0.06892133
67	0x34	0.51198703
68	0xf7	-0.08861314
69	0x12	0.17722628
70	0x17	0.2264558
71	0x7f	1.2504299
72	0xf8	-0.07876723
73	0x08	0.07876723
74	0xef	-0.16738036
75	0x08	0.07876723
76	0x0e	0.13784266
77	0x08	0.07876723
78	0xf4	-0.118150845
79	0x00	0.0
80	0xff	-0.009845904
81	0xeb	-0.20676398
82	0xee	-0.17722628
83	0x08	0.07876723
84	0xee	-0.17722628
85	0x11	0.16738036
86	0xf0	-0.15753447
87	0x04	0.039383616
88	0x13	0.18707217
89	0x01	0.009845904
90	0x09	0.08861314
91	0xde	-0.33476073
92	0x0b	0.10830495
93	0x0c	0.118150845
94	0x0d	0.12799676
95	0x21	0.32491484
96	0x05	0.04922952
97	0xfc	-0.039383616
98	0x01	0.009845904
99	0xee	-0.17722628
100	0xf6	-0.09845904
101	0x0f	0.14768857
102	0x0d	0.12799676
103	0x18	0.23630169
104	0x05	0.04922952
105	0xf9	-0.06892133
106	0xf0	-0.15753447
107	0x07	0.06892133
108	0x05	0.04922952
109	0xea	-0.2166099
110	0xf1	-0.14768857
111	0xf4	-0.118150845
112	0x0b	0.10830495
113	0x19	0.2461476
114	0x0d	0.12799676
115	0x0b	0.10830495
116	0x0e	0.13784266
117	0xf8	-0.07876723
118	0x02	0.019691808
119	0xe5	-0.2658394
120	0x10	0.15753447
121	0xeb	-0.20676398
122	0x05	0.04922952
123	0xff	-0.009845904
124	0xf7	-0.08861314
125	0x02	0.019691808
126	0xfc	-0.039383616
127	0x0a	0.09845904

model_23/conv2d_110/Conv2D i1 [32, 3, 3, 1]
0	0xad	-83
1	0xc0	-64
2	0xd9	-39
3	0x7f	127
4	0x29	41
5	0x58	88
6	0xf1	-15
7	0x40	64
8	0xce	-50
9	0x05	5
10	0xc5	-59
11	0xd9	-39
12	0x40	64
13	0x54	84
14	0x0a	10
15	0x7f	127
16	0x2d	45
17	0xba	-70
18	0xc8	-56
19	0x09	9
20	0x25	37
21	0xde	-34
22	0x0c	12
23	0x0a	10
24	0x81	-127
25	0xef	-17
26	0x15	21
27	0xbf	-65
28	0x5d	93
29	0xff	-1
30	0x36	54
31	0x7f	127
32	0x3c	60
33	0xa6	-90
34	0xf7	-9
35	0x89	-119
36	0x0e	14
37	0xde	-34
38	0x39	57
39	0x81	-127
40	0x82	-126
41	0x01	1
42	0x29	41
43	0x64	100
44	0x07	7
45	0x1b	27
46	0x14	20
47	0x7f	127
48	0xba	-70
49	0x11	17
50	0x4e	78
51	0xf5	-11
52	0xe1	-31
53	0x08	8
54	0xeb	-21
55	0xe2	-30
56	0x7f	127
57	0x92	-110
58	0xc1	-63
59	0x24	36
60	0x14	20
61	0x94	-108
62	0xd3	-45
63	0xfa	-6
64	0xf2	-14
65	0xc5	-59
66	0x7f	127
67	0x34	52
68	0xf4	-12
69	0x3d	61
70	0x1e	30
71	0xdb	-37
72	0x95	-107
73	0x7f	127
74	0x4a	74
75	0x0e	14
76	0xf7	-9
77	0xa5	-91
78	0xfa	-6
79	0x74	116
80	0xb2	-78
81	0x29	41
82	0x62	98
83	0x08	8
84	0xed	-19
85	0xf8	-8
86	0x7f	127
87	0xdb	-37
88	0xec	-20
89	0xb3	-77
90	0xcd	-51
91	0x2e	46
92	0x21	33
93	0xe0	-32
94	0x30	48
95	0x08	8
96	0x81	-127
97	0x40	64
98	0x1d	29
99	0xce	-50
100	0xef	-17
101	0x5b	91
102	0xbf	-65
103	0xef	-17
104	0x2d	45
105	0x7f	127
106	0x31	49
107	0xa0	-96
108	0xee	-18
109	0x48	72
110	0x5b	91
111	0x67	103
112	0x8c	-116
113	0xdb	-37
114	0x4c	76
115	0xd5	-43
116	0x81	-127
117	0xe4	-28
118	0x7f	127
119	0x12	18
120	0x93	-109
121	0x6c	108
122	0xee	-18
123	0xba	-70
124	0x33	51
125	0x20	32
126	0x3f	63
127	0x11	17
128	0xf7	-9
129	0x33	51
130	0x7f	127
131	0x54	84
132	0xdb	-37
133	0x4f	79
134	0xc8	-56
135	0x31	49
136	0x6e	110
137	0x4a	74
138	0xec	-20
139	0x9f	-97
140	0x81	-127
141	0xc2	-62
142	0x07	7
143	0x00	0
144	0x92	-110
145	0xbc	-68
146	0xe0	-32
147	0xd3	-45
148	0x85	-123
149	0x4d	77
150	0xf3	-13
151	0x7f	127
152	0x5d	93
153	0x28	40
154	0xbb	-69
155	0xf5	-11
156	0x60	96
157	0x09	9
158	0xc1	-63
159	0xe6	-26
160	0x7f	127
161	0x27	39
162	0xe5	-27
163	0x81	-127
164	0x89	-119
165	0x15	21
166	0xb5	-75
167	0xd4	-44
168	0x22	34
169	0x31	49
170	0x15	21
171	0x7f	127
172	0xcd	-51
173	0x9e	-98
174	0x2e	46
175	0xff	-1
176	0xec	-20
177	0xf1	-15
178	0xdb	-37
179	0xfb	-5
180	0x6b	107
181	0xb1	-79
182	0x48	72
183	0xaf	-81
184	0xbd	-67
185	0x81	-127
186	0x8a	-118
187	0x1a	26
188	0xab	-85
189	0x8c	-116
190	0xc2	-62
191	0x29	41
192	0x49	73
193	0x53	83
194	0x81	-127
195	0x03	3
196	0x00	0
197	0x30	48
198	0xa5	-91
199	0xeb	-21
200	0xa9	-87
201	0xc3	-61
202	0x14	20
203	0x1b	27
204	0xf8	-8
205	0x7f	127
206	0xee	-18
207	0x3b	59
208	0x1c	28
209	0x2c	44
210	0x10	16
211	0x35	53
212	0xe8	-24
213	0x7f	127
214	0xdb	-37
215	0x02	2
216	0x03	3
217	0xeb	-21
218	0xf2	-14
219	0xfa	-6
220	0x60	96
221	0xfd	-3
222	0xf8	-8
223	0x81	-127
224	0x06	6
225	0xbf	-65
226	0x27	39
227	0xfa	-6
228	0xaf	-81
229	0x7f	127
230	0x2b	43
231	0x31	49
232	0xe7	-25
233	0x0b	11
234	0x81	-127
235	0xa1	-95
236	0xc5	-59
237	0x2d	45
238	0xc5	-59
239	0x08	8
240	0x1f	31
241	0x06	6
242	0x3f	63
243	0x0b	11
244	0x9f	-97
245	0x9a	-102
246	0x33	51
247	0xff	-1
248	0x30	48
249	0x0a	10
250	0xfa	-6
251	0x7f	127
252	0xbb	-69
253	0x81	-127
254	0x1f	31
255	0x85	-123

model_23/depthwise_conv2d_87/depthwise i1 [1, 3, 3, 32]
0	0xf9	-7
1	0xb2	-78
2	0x51	81
3	0x93	-109
4	0x37	55
5	0x81	-127
6	0x15	21
7	0xf9	-7
8	0x81	-127
9	0x81	-127
10	0xf2	-14
11	0x0e	14
12	0x15	21
13	0xa3	-93
14	0x7f	127
15	0x41	65
16	0x97	-105
17	0x17	23
18	0x6d	109
19	0xc8	-56
20	0x7f	127
21	0x81	-127
22	0xb8	-72
23	0xe5	-27
24	0x31	49
25	0x3b	59
26	0xd7	-41
27	0x61	97
28	0x2e	46
29	0x2c	44
30	0x27	39
31	0x81	-127
32	0xdd	-35
33	0x28	40
34	0x15	21
35	0x9f	-97
36	0x6f	111
37	0xc7	-57
38	0x7f	127
39	0xcd	-51
40	0xac	-84
41	0xd3	-45
42	0x81	-127
43	0x1d	29
44	0xd2	-46
45	0x09	9
46	0x6c	108
47	0xf3	-13
48	0x21	33
49	0x30	48
50	0x81	-127
51	0x7f	127
52	0xed	-19
53	0xe2	-30
54	0x23	35
55	0xae	-82
56	0xea	-22
57	0xe9	-23
58	0x34	52
59	0x55	85
60	0x7f	127
61	0xd5	-43
62	0x24	36
63	0x2b	43
64	0xe3	-29
65	0x0d	13
66	0x8d	-115
67	0xa9	-87
68	0x0f	15
69	0xdb	-37
70	0x27	39
71	0x81	-127
72	0x47	71
73	0x17	23
74	0x68	104
75	0x82	-126
76	0x37	55
77	0x7f	127
78	0x19	25
79	0x7f	127
80	0x14	20
81	0x7f	127
82	0xa9	-87
83	0x27	39
84	0x3a	58
85	0x04	4
86	0x13	19
87	0xea	-22
88	0x7f	127
89	0x70	112
90	0xfa	-6
91	0x08	8
92	0x48	72
93	0xf9	-7
94	0x81	-127
95	0xb8	-72
96	0x09	9
97	0x3e	62
98	0x2f	47
99	0x15	21
100	0xcf	-49
101	0x0a	10
102	0xee	-18
103	0x07	7
104	0xd5	-43
105	0xd8	-40
106	0xfb	-5
107	0x81	-127
108	0xcd	-51
109	0x26	38
110	0x23	35
111	0x34	52
112	0x4d	77
113	0x12	18
114	0x06	6
115	0xf8	-8
116	0x25	37
117	0xb7	-73
118	0xf9	-7
119	0xe8	-24
120	0x01	1
121	0xe2	-30
122	0xeb	-21
123	0x99	-103
124	0x8f	-113
125	0x1b	27
126	0xcd	-51
127	0x16	22
128	0x86	-122
129	0x27	39
130	0x1f	31
131	0x67	103
132	0xf7	-9
133	0x24	36
134	0x57	87
135	0xf3	-13
136	0x29	41
137	0x0b	11
138	0x0c	12
139	0x36	54
140	0x5e	94
141	0xf0	-16
142	0xb9	-71
143	0x1e	30
144	0xcb	-53
145	0xe3	-29
146	0x51	81
147	0x1f	31
148	0x08	8
149	0x50	80
150	0x2b	43
151	0x9b	-101
152	0x58	88
153	0xeb	-21
154	0x3d	61
155	0x81	-127
156	0x00	0
157	0x3a	58
158	0x5a	90
159	0x20	32
160	0x1f	31
161	0xa1	-95
162	0x5b	91
163	0xd8	-40
164	0x1b	27
165	0x36	54
166	0x39	57
167	0x06	6
168	0x52	82
169	0xfc	-4
170	0x29	41
171	0xd6	-42
172	0x81	-127
173	0xff	-1
174	0x07	7
175	0x4d	77
176	0x7f	127
177	0x15	21
178	0x0d	13
179	0xd1	-47
180	0x65	101
181	0x0b	11
182	0x81	-127
183	0x12	18
184	0x3e	62
185	0xb6	-74
186	0xab	-85
187	0x01	1
188	0x64	100
189	0xbc	-68
190	0xf6	-10
191	0x16	22
192	0x23	35
193	0x6c	108
194	0x81	-127
195	0xc1	-63
196	0xf2	-14
197	0x16	22
198	0x47	71
199	0x08	8
200	0x00	0
201	0x44	68
202	0xea	-22
203	0x39	57
204	0xe9	-23
205	0xfc	-4
206	0x02	2
207	0x22	34
208	0xd8	-40
209	0xfe	-2
210	0xd4	-44
211	0xaf	-81
212	0x3b	59
213	0x18	24
214	0xf3	-13
215	0x12	18
216	0x18	24
217	0x96	-106
218	0xa1	-95
219	0x04	4
220	0x19	25
221	0x81	-127
222	0x3f	63
223	0xca	-54
224	0x7f	127
225	0x7f	127
226	0x4d	77
227	0x14	20
228	0x4a	74
229	0xd7	-41
230	0xa3	-93
231	0xf0	-16
232	0x31	49
233	0x3e	62
234	0x32	50
235	0x19	25
236	0xd1	-47
237	0xca	-54
238	0x89	-119
239	0x21	33
240	0xf2	-14
241	0xba	-70
242	0x9c	-100
243	0x07	7
244	0x6c	108
245	0x2f	47
246	0x3f	63
247	0x4e	78
248	0x32	50
249	0x93	-109
250	0x7f	127
251	0xe3	-29
252	0xa4	-92
253	0x40	64
254	0xed	-19
255	0xf4	-12

model_23/conv2d_111/Conv2D i1 [32, 1, 1, 32]
0	0x08	8
1	0xef	-17
2	0x01	1
3	0xe4	-28
4	0xd5	-43
5	0x2f	47
6	0xda	-38
7	0x11	17
8	0x17	23
9	0xef	-17
10	0x06	6
11	0x2f	47
12	0xc2	-62
13	0x0f	15
14	0xb8	-72
15	0x21	33
16	0xed	-19
17	0xe1	-31
18	0x81	-127
19	0x0f	15
20	0x0d	13
21	0x07	7
22	0xe8	-24
23	0x0a	10
24	0x14	20
25	0xf5	-11
26	0x09	9
27	0xd6	-42
28	0xfa	-6
29	0xdf	-33
30	0x3d	61
31	0x09	9
32	0xfc	-4
33	0xf6	-10
34	0xdd	-35
35	0xfc	-4
36	0x01	1
37	0x81	-127
38	0x0d	13
39	0x0a	10
40	0x0e	14
41	0xf6	-10
42	0x06	6
43	0x11	17
44	0x03	3
45	0x0e	14
46	0x02	2
47	0xfe	-2
48	0x01	1
49	0x01	1
50	0xf0	-16
51	0xd7	-41
52	0xff	-1
53	0xbe	-66
54	0x0f	15
55	0x05	5
56	0xcf	-49
57	0x04	4
58	0xfb	-5
59	0xf5	-11
60	0xee	-18
61	0xf1	-15
62	0xed	-19
63	0x1d	29
64	0x02	2
65	0xf5	-11
66	0xe2	-30
67	0x00	0
68	0x12	18
69	0xb2	-78
70	0x07	7
71	0x81	-127
72	0x20	32
73	0x09	9
74	0x06	6
75	0x10	16
76	0xe1	-31
77	0x09	9
78	0xff	-1
79	0xe2	-30
80	0xe4	-28
81	0x09	9
82	0xfb	-5
83	0xee	-18
84	0xe5	-27
85	0x1b	27
86	0x96	-106
87	0xe5	-27
88	0xf9	-7
89	0x10	16
90	0xf5	-11
91	0x1a	26
92	0x9a	-102
93	0x08	8
94	0xcb	-53
95	0xde	-34
96	0x00	0
97	0xd2	-46
98	0xf5	-11
99	0xd6	-42
100	0x03	3
101	0x17	23
102	0x0c	12
103	0x2b	43
104	0xd9	-39
105	0x04	4
106	0xe3	-29
107	0xfc	-4
108	0x0a	10
109	0x2a	42
110	0x81	-127
111	0xd6	-42
112	0x10	16
113	0xfb	-5
114	0x06	6
115	0x2c	44
116	0x28	40
117	0x06	6
118	0x38	56
119	0x0d	13
120	0xf3	-13
121	0xce	-50
122	0xda	-38
123	0x10	16
124	0x0c	12
125	0x12	18
126	0xfb	-5
127	0xfa	-6
128	0x46	70
129	0xc2	-62
130	0x03	3
131	0xf6	-10
132	0x23	35
133	0x37	55
134	0xfa	-6
135	0x8f	-113
136	0xf5	-11
137	0x1a	26
138	0xff	-1
139	0x38	56
140	0x0d	13
141	0x10	16
142	0xea	-22
143	0xdf	-33
144	0xe6	-26
145	0x2b	43
146	0xdc	-36
147	0x0e	14
148	0x02	2
149	0x0a	10
150	0xef	-17
151	0x81	-127
152	0xb6	-74
153	0x21	33
154	0x2e	46
155	0x23	35
156	0x0d	13
157	0x23	35
158	0x18	24
159	0x1a	26
160	0xe5	-27
161	0xcb	-53
162	0x05	5
163	0xe2	-30
164	0xf3	-13
165	0x23	35
166	0x1b	27
167	0x2a	42
168	0xe8	-24
169	0x23	35
170	0x00	0
171	0xe8	-24
172	0x01	1
173	0xec	-20
174	0xdd	-35
175	0xab	-85
176	0xfb	-5
177	0xfa	-6
178	0xef	-17
179	0x1c	28
180	0x59	89
181	0x9b	-101
182	0xf5	-11
183	0x32	50
184	0xca	-54
185	0x1d	29
186	0x81	-127
187	0xcb	-53
188	0x0b	11
189	0xdc	-36
190	0x24	36
191	0xa7	-89
192	0x00	0
193	0x03	3
194	0xc6	-58
195	0x08	8
196	0x04	4
197	0xff	-1
198	0x05	5
199	0x07	7
200	0x0a	10
201	0xe9	-23
202	0x06	6
203	0x0e	14
204	0xfa	-6
205	0x01	1
206	0x00	0
207	0xef	-17
208	0xef	-17
209	0x02	2
210	0xc9	-55
211	0xfd	-3
212	0x06	6
213	0xd0	-48
214	0x19	25
215	0xf3	-13
216	0xd4	-44
217	0xfc	-4
218	0xdc	-36
219	0x0f	15
220	0xe5	-27
221	0x0e	14
222	0x14	20
223	0x81	-127
224	0xfa	-6
225	0xf0	-16
226	0xef	-17
227	0x81	-127
228	0xeb	-21
229	0x61	97
230	0x0c	12
231	0x17	23
232	0xe8	-24
233	0xd0	-48
234	0xd8	-40
235	0xbe	-66
236	0xd8	-40
237	0x1b	27
238	0x03	3
239	0xff	-1
240	0xe9	-23
241	0xd4	-44
242	0x3c	60
243	0x36	54
244	0x5c	92
245	0xb0	-80
246	0x6f	111
247	0x46	70
248	0xb4	-76
249	0x2a	42
250	0x16	22
251	0xe4	-28
252	0x93	-109
253	0xba	-70
254	0xd6	-42
255	0x47	71

model_23/depthwise_conv2d_88/depthwise i1 [1, 3, 3, 32]
0	0x39	57
1	0x01	1
2	0x01	1
3	0x81	-127
4	0xd0	-48
5	0x11	17
6	0xed	-19
7	0x01	1
8	0x23	35
9	0x2d	45
10	0xb7	-73
11	0x67	103
12	0xf4	-12
13	0x2f	47
14	0xfa	-6
15	0x0f	15
16	0xed	-19
17	0x04	4
18	0x7f	127
19	0x05	5
20	0x28	40
21	0x06	6
22	0x08	8
23	0x0e	14
24	0x7d	125
25	0xfd	-3
26	0x15	21
27	0x16	22
28	0x29	41
29	0x46	70
30	0x00	0
31	0x08	8
32	0x9e	-98
33	0x14	20
34	0x06	6
35	0xe5	-27
36	0xeb	-21
37	0x0d	13
38	0x0c	12
39	0x71	113
40	0x7f	127
41	0x22	34
42	0xf2	-14
43	0x32	50
44	0x10	16
45	0x9a	-102
46	0xc0	-64
47	0x7f	127
48	0xf3	-13
49	0x05	5
50	0x18	24
51	0x07	7
52	0xf7	-9
53	0x18	24
54	0x04	4
55	0xe1	-31
56	0x0f	15
57	0xfc	-4
58	0x36	54
59	0x05	5
60	0x62	98
61	0xf0	-16
62	0xbd	-67
63	0x81	-127
64	0x9e	-98
65	0x7f	127
66	0xfd	-3
67	0xca	-54
68	0x0c	12
69	0x42	66
70	0x18	24
71	0x81	-127
72	0x1b	27
73	0x12	18
74	0x02	2
75	0x74	116
76	0x75	117
77	0x39	57
78	0xf8	-8
79	0xe7	-25
80	0x1b	27
81	0x03	3
82	0xd3	-45
83	0x04	4
84	0x08	8
85	0x20	32
86	0x13	19
87	0xff	-1
88	0x9a	-102
89	0xd8	-40
90	0x17	23
91	0x07	7
92	0x20	32
93	0x44	68
94	0x15	21
95	0xdb	-37
96	0x81	-127
97	0x10	16
98	0x04	4
99	0x69	105
100	0x19	25
101	0x0a	10
102	0x20	32
103	0x1f	31
104	0x2b	43
105	0x7f	127
106	0xd6	-42
107	0x7f	127
108	0xe3	-29
109	0x09	9
110	0xf1	-15
111	0x26	38
112	0x81	-127
113	0x01	1
114	0x08	8
115	0xfb	-5
116	0x15	21
117	0x02	2
118	0xfb	-5
119	0x12	18
120	0x7f	127
121	0x61	97
122	0x54	84
123	0xf8	-8
124	0x17	23
125	0x18	24
126	0xf3	-13
127	0x0d	13
128	0xfc	-4
129	0xd5	-43
130	0x03	3
131	0xe0	-32
132	0x1c	28
133	0x7f	127
134	0x24	36
135	0x59	89
136	0x37	55
137	0x16	22
138	0x81	-127
139	0xd2	-46
140	0xb9	-71
141	0x67	103
142	0x9d	-99
143	0x41	65
144	0x03	3
145	0x04	4
146	0xfc	-4
147	0xf9	-7
148	0xcc	-52
149	0xf6	-10
150	0xfb	-5
151	0x7f	127
152	0xf7	-9
153	0xfe	-2
154	0x81	-127
155	0x00	0
156	0x0f	15
157	0x7d	125
158	0x06	6
159	0xd2	-46
160	0x14	20
161	0x2c	44
162	0x03	3
163	0x08	8
164	0xfb	-5
165	0x1e	30
166	0x28	40
167	0x7e	126
168	0x58	88
169	0xa6	-90
170	0xfc	-4
171	0x8a	-118
172	0x92	-110
173	0xed	-19
174	0x28	40
175	0x4b	75
176	0xeb	-21
177	0x00	0
178	0x05	5
179	0xfd	-3
180	0xf2	-14
181	0xdb	-37
182	0x15	21
183	0x71	113
184	0xbf	-65
185	0xbd	-67
186	0x1e	30
187	0xe5	-27
188	0xd7	-41
189	0x01	1
190	0x81	-127
191	0xd7	-41
192	0x10	16
193	0x23	35
194	0xa0	-96
195	0x13	19
196	0x81	-127
197	0x05	5
198	0x1b	27
199	0x67	103
200	0x13	19
201	0x45	69
202	0xfd	-3
203	0x63	99
204	0xa8	-88
205	0x7f	127
206	0x7f	127
207	0xc9	-55
208	0xfb	-5
209	0xeb	-21
210	0x16	22
211	0x81	-127
212	0x26	38
213	0xff	-1
214	0xf1	-15
215	0xdd	-35
216	0x0a	10
217	0xfc	-4
218	0x46	70
219	0xec	-20
220	0x81	-127
221	0x7f	127
222	0xd9	-39
223	0x16	22
224	0x09	9
225	0xf0	-16
226	0x81	-127
227	0x17	23
228	0xea	-22
229	0x06	6
230	0x7f	127
231	0x38	56
232	0xf0	-16
233	0x13	19
234	0xff	-1
235	0x1f	31
236	0xb0	-80
237	0x47	71
238	0x79	121
239	0x21	33
240	0xf6	-10
241	0x81	-127
242	0x29	41
243	0xbd	-67
244	0x81	-127
245	0x81	-127
246	0x81	-127
247	0xfb	-5
248	0xec	-20
249	0xf8	-8
250	0x1d	29
251	0x81	-127
252	0xfd	-3
253	0xf7	-9
254	0xf8	-8
255	0xf2	-14

model_23/conv2d_112/Conv2D i1 [32, 1, 1, 32]
0	0x22	34
1	0x37	55
2	0x8f	-113
3	0xab	-85
4	0x2b	43
5	0xd5	-43
6	0xa0	-96
7	0xf8	-8
8	0xf5	-11
9	0x00	0
10	0x50	80
11	0x5b	91
12	0xa0	-96
13	0x1e	30
14	0xcd	-51
15	0x9a	-102
16	0xa5	-91
17	0x43	67
18	0xc6	-58
19	0x60	96
20	0x7f	127
21	0x69	105
22	0x8d	-115
23	0x5c	92
24	0xe7	-25
25	0x52	82
26	0xb0	-80
27	0x65	101
28	0xeb	-21
29	0x34	52
30	0xa3	-93
31	0x3c	60
32	0x19	25
33	0x0a	10
34	0xf7	-9
35	0xef	-17
36	0x04	4
37	0x05	5
38	0x07	7
39	0xfa	-6
40	0xf8	-8
41	0xfe	-2
42	0x10	16
43	0x12	18
44	0xd9	-39
45	0x07	7
46	0xe7	-25
47	0x02	2
48	0x2b	43
49	0xff	-1
50	0x81	-127
51	0x09	9
52	0xf9	-7
53	0xe4	-28
54	0x11	17
55	0xb8	-72
56	0xf6	-10
57	0xf3	-13
58	0x09	9
59	0x0b	11
60	0x0c	12
61	0xe4	-28
62	0xf7	-9
63	0x0e	14
64	0x81	-127
65	0xe8	-24
66	0xff	-1
67	0x2f	47
68	0x13	19
69	0x06	6
70	0x06	6
71	0x0e	14
72	0xd3	-45
73	0xa9	-87
74	0x0b	11
75	0xfc	-4
76	0xfc	-4
77	0xd3	-45
78	0xfc	-4
79	0xc0	-64
80	0x9e	-98
81	0x0b	11
82	0x20	32
83	0xd8	-40
84	0xfb	-5
85	0x04	4
86	0x07	7
87	0x06	6
88	0x05	5
89	0x02	2
90	0xf8	-8
91	0xfb	-5
92	0x07	7
93	0xe6	-26
94	0x16	22
95	0xe3	-29
96	0x6c	108
97	0x3e	62
98	0xf7	-9
99	0x6d	109
100	0x4a	74
101	0xaa	-86
102	0xa7	-89
103	0x56	86
104	0x2b	43
105	0x2b	43
106	0xe0	-32
107	0x33	51
108	0xc9	-55
109	0xd4	-44
110	0x8c	-116
111	0x7f	127
112	0xac	-84
113	0xd3	-45
114	0xf5	-11
115	0xa4	-92
116	0x5c	92
117	0xae	-82
118	0x91	-111
119	0x17	23
120	0xb5	-75
121	0x57	87
122	0xcf	-49
123	0x83	-125
124	0x22	34
125	0x17	23
126	0xeb	-21
127	0x68	104
128	0x19	25
129	0x81	-127
130	0xf0	-16
131	0xf5	-11
132	0x02	2
133	0x07	7
134	0xf5	-11
135	0x97	-105
136	0xf8	-8
137	0xfd	-3
138	0x16	22
139	0x09	9
140	0x03	3
141	0x00	0
142	0xf9	-7
143	0xdd	-35
144	0xf9	-7
145	0xe9	-23
146	0xf5	-11
147	0xed	-19
148	0xf5	-11
149	0x93	-109
150	0x17	23
151	0xec	-20
152	0x04	4
153	0xd0	-48
154	0x1d	29
155	0xfc	-4
156	0xef	-17
157	0x05	5
158	0x18	24
159	0xf8	-8
160	0x02	2
161	0xf3	-13
162	0x0d	13
163	0x35	53
164	0x1c	28
165	0x02	2
166	0x09	9
167	0x0e	14
168	0xff	-1
169	0x02	2
170	0x15	21
171	0x21	33
172	0x81	-127
173	0x03	3
174	0xc0	-64
175	0x12	18
176	0xdd	-35
177	0x08	8
178	0xf9	-7
179	0xff	-1
180	0x23	35
181	0x02	2
182	0x0a	10
183	0xdd	-35
184	0xee	-18
185	0x0b	11
186	0x9e	-98
187	0xff	-1
188	0xf0	-16
189	0x06	6
190	0x1f	31
191	0xe6	-26
192	0x0d	13
193	0xe9	-23
194	0x07	7
195	0xfe	-2
196	0xf9	-7
197	0xcf	-49
198	0xec	-20
199	0xb3	-77
200	0xf8	-8
201	0xc8	-56
202	0x06	6
203	0x21	33
204	0xf6	-10
205	0x0f	15
206	0xdd	-35
207	0x1f	31
208	0x40	64
209	0xf7	-9
210	0xc8	-56
211	0xff	-1
212	0x10	16
213	0x9e	-98
214	0xf3	-13
215	0xa5	-91
216	0x11	17
217	0x07	7
218	0x17	23
219	0xf0	-16
220	0x3c	60
221	0x81	-127
222	0xd8	-40
223	0x2d	45
224	0x03	3
225	0xfd	-3
226	0xfe	-2
227	0x07	7
228	0x81	-127
229	0x08	8
230	0x01	1
231	0xfd	-3
232	0xf1	-15
233	0xfc	-4
234	0xfe	-2
235	0xff	-1
236	0x04	4
237	0x00	0
238	0xf9	-7
239	0xf5	-11
240	0x00	0
241	0xf9	-7
242	0xda	-38
243	0xfb	-5
244	0x05	5
245	0x06	6
246	0xea	-22
247	0x04	4
248	0xd1	-47
249	0xfe	-2
250	0xfb	-5
251	0xfe	-2
252	0x03	3
253	0x02	2
254	0x05	5
255	0xfa	-6

model_23/depthwise_conv2d_89/depthwise i1 [1, 3, 3, 32]
0	0xb0	-80
1	0xdc	-36
2	0x26	38
3	0xb9	-71
4	0x06	6
5	0x0d	13
6	0xe1	-31
7	0x2d	45
8	0xfa	-6
9	0x7f	127
10	0x8d	-115
11	0x7f	127
12	0x03	3
13	0x0c	12
14	0xa2	-94
15	0xeb	-21
16	0xd7	-41
17	0x4c	76
18	0xfb	-5
19	0xf3	-13
20	0x7f	127
21	0x34	52
22	0x45	69
23	0xf1	-15
24	0x25	37
25	0xcf	-49
26	0xb4	-76
27	0x75	117
28	0x26	38
29	0xfe	-2
30	0x09	9
31	0xc5	-59
32	0x96	-106
33	0xf3	-13
34	0x8a	-118
35	0x81	-127
36	0x1c	28
37	0xd2	-46
38	0x2f	47
39	0x16	22
40	0x33	51
41	0x57	87
42	0xe7	-25
43	0x18	24
44	0xe1	-31
45	0x34	52
46	0x0e	14
47	0x2b	43
48	0x22	34
49	0xe4	-28
50	0x7f	127
51	0x11	17
52	0x04	4
53	0x50	80
54	0xf0	-16
55	0xd3	-45
56	0x62	98
57	0x01	1
58	0xf5	-11
59	0x5f	95
60	0x0d	13
61	0xf1	-15
62	0xef	-17
63	0xcc	-52
64	0xde	-34
65	0x0e	14
66	0xda	-38
67	0xfd	-3
68	0x07	7
69	0x7f	127
70	0xf4	-12
71	0xee	-18
72	0x04	4
73	0x41	65
74	0xfa	-6
75	0x6f	111
76	0x02	2
77	0x7f	127
78	0xe3	-29
79	0xe4	-28
80	0xf3	-13
81	0xec	-20
82	0x43	67
83	0xf1	-15
84	0x01	1
85	0x1d	29
86	0xc0	-64
87	0x20	32
88	0x0e	14
89	0xd8	-40
90	0x46	70
91	0x7f	127
92	0x06	6
93	0x08	8
94	0xd7	-41
95	0x81	-127
96	0xf3	-13
97	0x25	37
98	0x00	0
99	0xfe	-2
100	0xf9	-7
101	0xfe	-2
102	0x34	52
103	0x64	100
104	0x2f	47
105	0xdc	-36
106	0xe4	-28
107	0x29	41
108	0x0a	10
109	0xfb	-5
110	0x71	113
111	0x7f	127
112	0xf0	-16
113	0xdb	-37
114	0x47	71
115	0x03	3
116	0x50	80
117	0x20	32
118	0xfb	-5
119	0xbe	-66
120	0x43	67
121	0x7f	127
122	0x5d	93
123	0x26	38
124	0xe9	-23
125	0x09	9
126	0x07	7
127	0xea	-22
128	0x00	0
129	0x7f	127
130	0x58	88
131	0xbf	-65
132	0x08	8
133	0x3d	61
134	0x7f	127
135	0x7f	127
136	0x30	48
137	0x06	6
138	0x81	-127
139	0xa7	-89
140	0xe6	-26
141	0xe3	-29
142	0x78	120
143	0x68	104
144	0x57	87
145	0xd6	-42
146	0x34	52
147	0x3c	60
148	0x04	4
149	0x09	9
150	0xe9	-23
151	0x04	4
152	0x6d	109
153	0xd4	-44
154	0x6c	108
155	0x76	118
156	0x02	2
157	0xe8	-24
158	0x27	39
159	0xf1	-15
160	0xa1	-95
161	0x4b	75
162	0x11	17
163	0xec	-20
164	0x3f	63
165	0x1f	31
166	0xb2	-78
167	0x05	5
168	0x7f	127
169	0xe3	-29
170	0x8d	-115
171	0x1a	26
172	0x28	40
173	0xf7	-9
174	0x04	4
175	0x3a	58
176	0x1a	26
177	0xb3	-77
178	0x20	32
179	0xd6	-42
180	0x1b	27
181	0x00	0
182	0xcd	-51
183	0xfb	-5
184	0x6c	108
185	0x29	41
186	0x5f	95
187	0xf7	-9
188	0xe1	-31
189	0x1e	30
190	0x00	0
191	0xdd	-35
192	0x81	-127
193	0x7d	125
194	0x08	8
195	0xe5	-27
196	0xff	-1
197	0xd4	-44
198	0x0a	10
199	0x10	16
200	0x1b	27
201	0x6b	107
202	0xa1	-95
203	0x18	24
204	0x34	52
205	0xfd	-3
206	0x7f	127
207	0x04	4
208	0x7f	127
209	0xa9	-87
210	0x20	32
211	0x20	32
212	0xf6	-10
213	0x7f	127
214	0x4e	78
215	0x7f	127
216	0x4b	75
217	0x0f	15
218	0xee	-18
219	0xc9	-55
220	0xe9	-23
221	0x56	86
222	0x81	-127
223	0xc8	-56
224	0xa9	-87
225	0x0d	13
226	0x81	-127
227	0x8e	-114
228	0x58	88
229	0x01	1
230	0x06	6
231	0x2e	46
232	0x2e	46
233	0xe4	-28
234	0xfb	-5
235	0xde	-34
236	0x44	68
237	0xef	-17
238	0x48	72
239	0xcb	-53
240	0x59	89
241	0x7f	127
242	0x12	18
243	0x7f	127
244	0x0b	11
245	0x1b	27
246	0x12	18
247	0x35	53
248	0x66	102
249	0x16	22
250	0x7f	127
251	0x2c	44
252	0x9a	-102
253	0x35	53
254	0xef	-17
255	0xfe	-2

model_23/conv2d_113/Conv2D i1 [32, 1, 1, 32]
0	0x21	33
1	0x49	73
2	0x34	52
3	0x0f	15
4	0x01	1
5	0xa8	-88
6	0x68	104
7	0xfb	-5
8	0x94	-108
9	0xad	-83
10	0x48	72
11	0x7c	124
12	0x31	49
13	0xe7	-25
14	0xc2	-62
15	0x7a	122
16	0x30	48
17	0xe6	-26
18	0x81	-127
19	0xc1	-63
20	0xa9	-87
21	0x8c	-116
22	0x8c	-116
23	0x4f	79
24	0xef	-17
25	0xcd	-51
26	0x4f	79
27	0xb4	-76
28	0x85	-123
29	0xc1	-63
30	0x31	49
31	0x72	114
32	0xe4	-28
33	0x08	8
34	0x70	112
35	0xf2	-14
36	0x9a	-102
37	0x37	55
38	0xb0	-80
39	0x41	65
40	0x03	3
41	0xb2	-78
42	0xdb	-37
43	0x72	114
44	0x63	99
45	0x31	49
46	0xe1	-31
47	0x06	6
48	0x00	0
49	0xc2	-62
50	0x2c	44
51	0x93	-109
52	0x5c	92
53	0xf6	-10
54	0xd5	-43
55	0x43	67
56	0xb8	-72
57	0xff	-1
58	0xe5	-27
59	0x0d	13
60	0xbb	-69
61	0x24	36
62	0x81	-127
63	0xe7	-25
64	0xfe	-2
65	0x0b	11
66	0xee	-18
67	0xf6	-10
68	0x03	3
69	0x04	4
70	0x0f	15
71	0xfd	-3
72	0x37	55
73	0xc3	-61
74	0xf3	-13
75	0x19	25
76	0xe7	-25
77	0x1a	26
78	0x10	16
79	0x04	4
80	0xfe	-2
81	0x02	2
82	0x81	-127
83	0x1c	28
84	0x04	4
85	0xfe	-2
86	0xd2	-46
87	0xe0	-32
88	0x18	24
89	0x13	19
90	0x15	21
91	0xdb	-37
92	0xed	-19
93	0xf6	-10
94	0xf0	-16
95	0x07	7
96	0x03	3
97	0xa5	-91
98	0x55	85
99	0x12	18
100	0x05	5
101	0x31	49
102	0xb0	-80
103	0x26	38
104	0x1d	29
105	0xc4	-60
106	0x20	32
107	0x28	40
108	0x46	70
109	0x58	88
110	0x81	-127
111	0x4a	74
112	0x91	-111
113	0xfc	-4
114	0xf7	-9
115	0xea	-22
116	0x5e	94
117	0x1a	26
118	0xea	-22
119	0x46	70
120	0xf6	-10
121	0x64	100
122	0x54	84
123	0x30	48
124	0xe5	-27
125	0x2d	45
126	0xe5	-27
127	0x14	20
128	0x09	9
129	0x28	40
130	0xb1	-79
131	0xf1	-15
132	0x21	33
133	0xe3	-29
134	0x59	89
135	0xf4	-12
136	0x24	36
137	0x65	101
138	0x18	24
139	0xb2	-78
140	0xab	-85
141	0xd5	-43
142	0x25	37
143	0xe9	-23
144	0x1d	29
145	0xe5	-27
146	0x03	3
147	0x0c	12
148	0xbf	-65
149	0x09	9
150	0x2f	47
151	0x81	-127
152	0x10	16
153	0xce	-50
154	0xfa	-6
155	0xf4	-12
156	0xcc	-52
157	0xb9	-71
158	0x75	117
159	0xeb	-21
160	0x22	34
161	0xed	-19
162	0x27	39
163	0x0e	14
164	0x95	-107
165	0xf4	-12
166	0xdf	-33
167	0x5c	92
168	0xa4	-92
169	0x1e	30
170	0xec	-20
171	0x0e	14
172	0x0d	13
173	0xfd	-3
174	0x41	65
175	0x31	49
176	0x07	7
177	0xfc	-4
178	0x49	73
179	0xd6	-42
180	0xf2	-14
181	0xd9	-39
182	0xf3	-13
183	0x7f	127
184	0xb1	-79
185	0x01	1
186	0x27	39
187	0x89	-119
188	0x6e	110
189	0x03	3
190	0xc2	-62
191	0x0a	10
192	0x08	8
193	0xdc	-36
194	0x25	37
195	0x05	5
196	0x07	7
197	0x1d	29
198	0xe7	-25
199	0x03	3
200	0xe8	-24
201	0x14	20
202	0x02	2
203	0x20	32
204	0x01	1
205	0x0a	10
206	0xf0	-16
207	0x0c	12
208	0xb8	-72
209	0xd0	-48
210	0xf5	-11
211	0xed	-19
212	0xe4	-28
213	0xf2	-14
214	0xee	-18
215	0x13	19
216	0x0a	10
217	0x26	38
218	0x0f	15
219	0x0c	12
220	0x81	-127
221	0xf8	-8
222	0x31	49
223	0xf1	-15
224	0x0e	14
225	0x26	38
226	0xcc	-52
227	0x17	23
228	0x02	2
229	0x05	5
230	0x14	20
231	0x0f	15
232	0xf2	-14
233	0x1d	29
234	0xf2	-14
235	0xe1	-31
236	0xe7	-25
237	0xff	-1
238	0x0c	12
239	0x81	-127
240	0x2f	47
241	0xce	-50
242	0x18	24
243	0xe1	-31
244	0xec	-20
245	0xf7	-9
246	0xf8	-8
247	0xfe	-2
248	0x0c	12
249	0x02	2
250	0xad	-83
251	0x0d	13
252	0x3c	60
253	0xe4	-28
254	0x26	38
255	0xf3	-13

model_23/depthwise_conv2d_90/depthwise i1 [1, 3, 3, 32]
0	0x8a	-118
1	0xf5	-11
2	0x43	67
3	0xdc	-36
4	0xfd	-3
5	0x7f	127
6	0xeb	-21
7	0x00	0
8	0x5f	95
9	0x63	99
10	0x01	1
11	0xcc	-52
12	0xa8	-88
13	0x81	-127
14	0x00	0
15	0xe0	-32
16	0x9b	-101
17	0x3d	61
18	0x1f	31
19	0x4d	77
20	0xed	-19
21	0x00	0
22	0xe0	-32
23	0x12	18
24	0xfd	-3
25	0x7f	127
26	0x20	32
27	0x30	48
28	0xe8	-24
29	0x1c	28
30	0xfc	-4
31	0x0b	11
32	0xbf	-65
33	0xfb	-5
34	0x7f	127
35	0xe4	-28
36	0x06	6
37	0x25	37
38	0xd8	-40
39	0x54	84
40	0x7f	127
41	0x7f	127
42	0x01	1
43	0xf7	-9
44	0xfc	-4
45	0xd9	-39
46	0x03	3
47	0xbf	-65
48	0x93	-109
49	0x38	56
50	0x26	38
51	0x7f	127
52	0xd8	-40
53	0x02	2
54	0x81	-127
55	0x05	5
56	0xb5	-75
57	0x19	25
58	0x1f	31
59	0x0e	14
60	0xe9	-23
61	0x58	88
62	0x01	1
63	0x23	35
64	0xbc	-68
65	0xf8	-8
66	0x2f	47
67	0xfd	-3
68	0xfd	-3
69	0x04	4
70	0xe2	-30
71	0xea	-22
72	0x61	97
73	0x31	49
74	0x95	-107
75	0xce	-50
76	0xfc	-4
77	0xe0	-32
78	0xf1	-15
79	0xa7	-89
80	0x0a	10
81	0x10	16
82	0x17	23
83	0x18	24
84	0xf7	-9
85	0x06	6
86	0x06	6
87	0x9f	-97
88	0xca	-54
89	0x1c	28
90	0x25	37
91	0x24	36
92	0x0a	10
93	0x0c	12
94	0x03	3
95	0x1c	28
96	0x81	-127
97	0xfb	-5
98	0xfc	-4
99	0xe0	-32
100	0xf7	-9
101	0x06	6
102	0xfa	-6
103	0x13	19
104	0x6d	109
105	0xe3	-29
106	0x01	1
107	0xd0	-48
108	0x00	0
109	0x06	6
110	0x7f	127
111	0xff	-1
112	0x47	71
113	0x03	3
114	0xec	-20
115	0x56	86
116	0xf6	-10
117	0x00	0
118	0x10	16
119	0x6a	106
120	0xba	-70
121	0x0d	13
122	0x06	6
123	0xf9	-7
124	0xef	-17
125	0x20	32
126	0x7f	127
127	0x18	24
128	0x97	-105
129	0xfb	-5
130	0xf2	-14
131	0xca	-54
132	0x09	9
133	0x15	21
134	0x7f	127
135	0x38	56
136	0x28	40
137	0xd6	-42
138	0x01	1
139	0xfc	-4
140	0xad	-83
141	0x7e	126
142	0xf1	-15
143	0xff	-1
144	0x2a	42
145	0x03	3
146	0xfb	-5
147	0x1a	26
148	0xda	-38
149	0x02	2
150	0x16	22
151	0xba	-70
152	0xf2	-14
153	0xe6	-26
154	0x07	7
155	0xf4	-12
156	0xf9	-7
157	0x25	37
158	0xf9	-7
159	0x7f	127
160	0x92	-110
161	0x01	1
162	0xd0	-48
163	0xe9	-23
164	0xf8	-8
165	0x19	25
166	0x10	16
167	0x35	53
168	0x05	5
169	0xe0	-32
170	0x81	-127
171	0xd3	-45
172	0xb3	-77
173	0x13	19
174	0x4a	74
175	0x81	-127
176	0x25	37
177	0xf8	-8
178	0xf2	-14
179	0xf6	-10
180	0xd3	-45
181	0x04	4
182	0xf8	-8
183	0x81	-127
184	0xab	-85
185	0xf5	-11
186	0x04	4
187	0x12	18
188	0xf9	-7
189	0x7f	127
190	0x3f	63
191	0xdc	-36
192	0xb1	-79
193	0xee	-18
194	0x01	1
195	0x4b	75
196	0x1f	31
197	0xe6	-26
198	0xe5	-27
199	0xde	-34
200	0x04	4
201	0xe0	-32
202	0x00	0
203	0x81	-127
204	0xd3	-45
205	0xee	-18
206	0x10	16
207	0x90	-112
208	0x75	117
209	0x0a	10
210	0x17	23
211	0x8d	-115
212	0x68	104
213	0x93	-109
214	0x5e	94
215	0x1b	27
216	0x81	-127
217	0xf9	-7
218	0xdd	-35
219	0x81	-127
220	0x42	66
221	0xdc	-36
222	0x09	9
223	0xd4	-44
224	0xe1	-31
225	0xe2	-30
226	0x34	52
227	0x20	32
228	0x1b	27
229	0xea	-22
230	0xde	-34
231	0x81	-127
232	0x02	2
233	0x72	114
234	0x0a	10
235	0xf5	-11
236	0xb9	-71
237	0x26	38
238	0x54	84
239	0xe3	-29
240	0x7f	127
241	0x9a	-102
242	0x21	33
243	0x14	20
244	0x26	38
245	0x8d	-115
246	0x5f	95
247	0x06	6
248	0xf2	-14
249	0xec	-20
250	0x81	-127
251	0xd1	-47
252	0x1c	28
253	0x3c	60
254	0x43	67
255	0xde	-34

model_23/conv2d_114/Conv2D i1 [64, 1, 1, 32]
0	0x04	4
1	0x14	20
2	0xf0	-16
3	0x27	39
4	0x00	0
5	0xf8	-8
6	0xc8	-56
7	0xf4	-12
8	0x81	-127
9	0x02	2
10	0xf7	-9
11	0x09	9
12	0x09	9
13	0xe8	-24
14	0xf0	-16
15	0xf2	-14
16	0x1a	26
17	0xa4	-92
18	0x0b	11
19	0x16	22
20	0xe7	-25
21	0xf4	-12
22	0x07	7
23	0xe5	-27
24	0x0c	12
25	0x17	23
26	0xde	-34
27	0xb5	-75
28	0xfc	-4
29	0xb7	-73
30	0xf5	-11
31	0xfd	-3
32	0x07	7
33	0xe5	-27
34	0xd8	-40
35	0xf6	-10
36	0xfb	-5
37	0x23	35
38	0x0b	11
39	0xef	-17
40	0xff	-1
41	0xe5	-27
42	0xfd	-3
43	0x06	6
44	0x04	4
45	0xfe	-2
46	0xf7	-9
47	0x01	1
48	0x0a	10
49	0xf6	-10
50	0xf7	-9
51	0xf5	-11
52	0xf4	-12
53	0x81	-127
54	0x03	3
55	0xfd	-3
56	0xff	-1
57	0xe7	-25
58	0x08	8
59	0x99	-103
60	0x0a	10
61	0xf6	-10
62	0xfd	-3
63	0xf9	-7
64	0x22	34
65	0xe4	-28
66	0x5f	95
67	0xf4	-12
68	0x95	-107
69	0xd6	-42
70	0x37	55
71	0xba	-70
72	0xea	-22
73	0xa2	-94
74	0x9b	-101
75	0xfd	-3
76	0x12	18
77	0xb9	-71
78	0x16	22
79	0xf5	-11
80	0x46	70
81	0x17	23
82	0x7f	127
83	0xc5	-59
84	0xe8	-24
85	0xa0	-96
86	0xce	-50
87	0xff	-1
88	0xec	-20
89	0xee	-18
90	0x0c	12
91	0x1a	26
92	0xda	-38
93	0xe5	-27
94	0xe5	-27
95	0x18	24
96	0x00	0
97	0xfd	-3
98	0xf5	-11
99	0xfe	-2
100	0xea	-22
101	0x07	7
102	0x0f	15
103	0xf5	-11
104	0xfd	-3
105	0xd9	-39
106	0xa2	-94
107	0xff	-1
108	0xf6	-10
109	0xf2	-14
110	0xd8	-40
111	0x07	7
112	0x04	4
113	0x07	7
114	0xe8	-24
115	0x02	2
116	0xff	-1
117	0x81	-127
118	0xff	-1
119	0xfc	-4
120	0xfb	-5
121	0xfc	-4
122	0xee	-18
123	0xd3	-45
124	0xf6	-10
125	0xcb	-53
126	0xf1	-15
127	0x09	9
128	0xfd	-3
129	0x81	-127
130	0xe4	-28
131	0xb0	-80
132	0xdd	-35
133	0xec	-20
134	0xf8	-8
135	0xf6	-10
136	0xbf	-65
137	0xe2	-30
138	0xf7	-9
139	0x0a	10
140	0xf9	-7
141	0xf4	-12
142	0xf2	-14
143	0x0d	13
144	0x01	1
145	0x55	85
146	0xde	-34
147	0x17	23
148	0xb3	-77
149	0x26	38
150	0xde	-34
151	0xec	-20
152	0xfc	-4
153	0xe4	-28
154	0xc9	-55
155	0xca	-54
156	0x7b	123
157	0xe9	-23
158	0xfc	-4
159	0x22	34
160	0x06	6
161	0xbd	-67
162	0xfb	-5
163	0xfc	-4
164	0xd2	-46
165	0xf3	-13
166	0x02	2
167	0xda	-38
168	0x0f	15
169	0x00	0
170	0xe6	-26
171	0xfa	-6
172	0xfe	-2
173	0xe6	-26
174	0x01	1
175	0x08	8
176	0x81	-127
177	0x0d	13
178	0xdb	-37
179	0xd0	-48
180	0xc5	-59
181	0x10	16
182	0xc1	-63
183	0xf3	-13
184	0x08	8
185	0xfc	-4
186	0xd1	-47
187	0xfa	-6
188	0xbe	-66
189	0x05	5
190	0x03	3
191	0x21	33
192	0x01	1
193	0xf5	-11
194	0xf7	-9
195	0xff	-1
196	0xff	-1
197	0xfb	-5
198	0xfa	-6
199	0x00	0
200	0xfd	-3
201	0xf8	-8
202	0xff	-1
203	0x04	4
204	0x00	0
205	0xfc	-4
206	0xf2	-14
207	0xfb	-5
208	0x81	-127
209	0x06	6
210	0xf7	-9
211	0xfc	-4
212	0x0d	13
213	0xfd	-3
214	0xd7	-41
215	0xfb	-5
216	0xfc	-4
217	0xfe	-2
218	0x0a	10
219	0x0e	14
220	0xfa	-6
221	0x02	2
222	0xf5	-11
223	0x0a	10
224	0x05	5
225	0x27	39
226	0xe0	-32
227	0x01	1
228	0xe0	-32
229	0x05	5
230	0xf1	-15
231	0xf5	-11
232	0xf0	-16
233	0x8c	-116
234	0xac	-84
235	0x02	2
236	0xff	-1
237	0xc5	-59
238	0xd5	-43
239	0xff	-1
240	0x06	6
241	0x05	5
242	0xd8	-40
243	0x00	0
244	0xfb	-5
245	0x81	-127
246	0x01	1
247	0xf4	-12
248	0xfe	-2
249	0xfc	-4
250	0x06	6
251	0xe9	-23
252	0xeb	-21
253	0xd2	-46
254	0xfa	-6
255	0xf9	-7
