hotdog_model/size_96_deeper_hotdog.tflite (tflite, 37680 bytes, 20 tensors)

model_13/activation_102/Relu;model_13/batch_normalization_102/FusedBatchNormV3;model_13/depthwise_conv2d_44/depthwise;model_13/depthwise_conv2d_44/BiasAdd;model_13/depthwise_conv2d_47/depthwise;model_13/depthwise_conv2d_44/BiasAdd/ReadVariableOp f4 [32]
-1.9022504 -0.074759856 -1.0136538 -0.5014016 -0.15531944 -0.37702852 0.9549877 0.8058675
0.27645898 -0.56676304 1.5608605 -0.04893678 -0.08635092 -0.13833663 1.3188828 -0.2950339
-0.09124241 -1.1531337 -1.0110304 -0.9771898 -0.2014473 -0.5384434 -0.22460644 -0.12880114
-0.7863817 1.0055592 0.48057956 0.40250134 0.6872028 1.1814759 -0.5410526 -1.357754
00000000: f17c f3bf b21b 99bd 68bf 81bf db5b 00bf
00000010: 0f0c 1fbe e209 c1be 137a 743f 554d 4e3f
00000020: 088c 8d3e 6217 11bf 47ca c73f ef71 48bd
00000030: c0d8 b0bd 1ea8 0dbe 27d1 a83f af0e 97be
00000040: 4ddd babd e399 93bf 7269 81bf 1c29 7abf
00000050: 3348 4ebe 6dd7 09bf 3bff 65be 72e4 03be
00000060: 5050 49bf 2ab6 803f 860e f63e a814 ce3e
00000070: 86ec 2f3f 9a3a 973f 6c82 0abf e2ca adbf

model_13/activation_104/Relu;model_13/batch_normalization_104/FusedBatchNormV3;model_13/depthwise_conv2d_45/depthwise;model_13/depthwise_conv2d_45/BiasAdd;model_13/depthwise_conv2d_47/depthwise;model_13/depthwise_conv2d_45/BiasAdd/ReadVariableOp f4 [32]
-0.98473614 -0.96376306 0.39224815 -0.9050127 1.3581297 1.9996747 0.33280426 -1.7454705
0.72707283 1.1366469 -0.5347048 -0.026021719 -0.048440456 -0.79387796 -0.004519224 -0.7172597
1.0204257 2.1921315 -0.29613423 -0.114683226 -3.0188472 0.48654237 -0.6336161 -0.13786301
-1.6095175 1.8510141 -0.6075749 -0.11876802 -1.5361952 0.59289277 -0.17646351 0.9244642
00000000: ab17 7cbf 2db9 76bf c0d4 c83e eaae 67bf
00000010: 32d7 ad3f 57f5 ff3f 5265 aa3e 946b dfbf
00000020: 7221 3a3f a57d 913f 6ae2 08bf 802b d5bc
00000030: 8069 46bd 963b 4bbf 0016 94bb 559e 37bf
00000040: 4f9d 823f e24b 0c40 e89e 97be 0adf eabd
00000050: cb34 41c0 151c f93e aa34 22bf f62b 0dbe
00000060: ab04 cebf 08ee ec3f 078a 1bbf a63c f3bd
00000070: 0ba2 c4bf d2c7 173f dab2 34be b0a9 6c3f

model_13/activation_106/Relu;model_13/batch_normalization_106/FusedBatchNormV3;model_13/depthwise_conv2d_46/depthwise;model_13/depthwise_conv2d_46/BiasAdd;model_13/depthwise_conv2d_47/depthwise;model_13/depthwise_conv2d_46/BiasAdd/ReadVariableOp f4 [32]
1.2604852 -0.5321707 1.4302242 0.6499458 -3.600457 3.1841369 -1.2214478 2.7548976
1.6381034 -0.34564745 0.12725522 2.8629694 -0.4687572 -0.92893046 -1.8829153 -0.061425403
-0.876962 0.34766835 -0.44913116 0.04985082 -1.0864378 -1.6869926 0.2825535 0.71137637
-2.2570744 -1.2516062 0.264718 -0.11358375 -1.0449283 -0.535986 2.7758586 2.4059336
00000000: 9457 a13f 573c 08bf 9611 b73f d962 263f
00000010: e36d 66c0 e6c8 4b40 6758 9cbf 3e50 3040
00000020: 5fad d13f b4f8 b0be 314f 023e e43a 3740
00000030: f200 f0be 63ce 6dbf 5e03 f1bf 3499 7bbd
00000040: 9580 60bf 9601 b23e 85f4 e5be 6030 4c3d
00000050: 6510 8bbf 60ef d7bf daaa 903e c31c 363f
00000060: e873 10c0 a234 a0bf 1e89 873e 999e e8bd
00000070: 36c0 85bf 6136 09bf aba7 3140 d1fa 1940

model_13/activation_108/Relu;model_13/batch_normalization_108/FusedBatchNormV3;model_13/depthwise_conv2d_47/depthwise;model_13/depthwise_conv2d_47/BiasAdd;model_13/depthwise_conv2d_47/BiasAdd/ReadVariableOp f4 [32]
2.5693421 -0.11193529 0.031140406 -1.5811208 -4.0852814 0.5403443 -0.31286016 6.756153
-0.12825467 4.9529505 -1.0600988 2.5975375 0.2628905 0.25348017 -0.97582 -1.6460453
-1.9530593 3.2622936 0.27764246 -0.3744164 0.22060111 2.1627698 0.5512054 1.1109004
-0.33158508 -1.5159959 3.5924747 0.26550242 1.144001 0.29816508 -3.379419 -0.5699584
00000000: 1a70 2440 543e e5bd 2a1a ff3c 2b62 cabf
00000010: a0ba 82c0 0154 0a3f 352f a0be 6832 d840
00000020: 3155 03be 927e 9e40 51b1 87bf 0e3e 2640
00000030: 9599 863e 27c8 813e 57cf 79bf 9db1 d2bf
00000040: d9fd f9bf 6bc9 5040 2727 8e3e 82b3 bfbe
00000050: 42e5 613e d26a 0a40 cc1b 0d3f fc31 8e3f
00000060: 85c5 a9be 270c c2bf 1beb 6540 efef 873e
00000070: a06e 923f 18a9 983e 6748 58c0 cbe8 11bf

model_13/dense_13/BiasAdd/ReadVariableOp f4 [2]
0.08888945 -0.088881776
00000000: ac0b b63d a607 b6bd

model_13/activation_101/Relu;model_13/batch_normalization_101/FusedBatchNormV3;model_13/conv2d_57/BiasAdd/ReadVariableOp;model_13/conv2d_57/BiasAdd;model_13/depthwise_conv2d_47/depthwise;model_13/conv2d_57/Conv2D/ReadVariableOp;model_13/conv2d_57/Conv2D f4 [32]
2.3617496 -0.6845213 -2.005161 -1.7349635 0.40649557 9.507379 -3.539883 3.0632827
-1.3225467 1.8054985 -3.2347279 4.0193815 2.4802809 -1.3838716 3.1871614 -3.5735598
9.544041 2.6189034 7.548848 -2.811208 -3.7953894 2.1293058 2.4663117 -0.5130046
-0.9944558 -0.58909154 -2.177816 1.7812018 -6.7966805 -4.616047 -0.45673028 -3.3414888
00000000: e826 1740 ca3c 2fbf 8f54 00c0 4913 debf
00000010: 3020 d03e 391e 1841 718d 62c0 d30c 4440
00000020: 3649 a9bf 931a e73f c805 4fc0 c69e 8040
00000030: ecbc 1e40 b422 b1bf 74fa 4b40 34b5 64c0
00000040: 64b4 1841 1d9c 2740 2a90 f140 d5ea 33c0
00000050: a9e7 72c0 8c46 0840 0dd8 1d40 4554 03bf
00000060: a894 7ebf b4ce 16bf 5661 0bc0 6cfe e33f
00000070: 687e d9c0 a8b6 93c0 8dd8 e9be f4da 55c0

model_13/batch_normalization_102/FusedBatchNormV3;model_13/depthwise_conv2d_44/depthwise;model_13/depthwise_conv2d_44/BiasAdd;model_13/depthwise_conv2d_47/depthwise;model_13/depthwise_conv2d_44/BiasAdd/ReadVariableOp f4 [1, 3, 3, 32]
0.14022298 0.73106176 -0.22402394 0.7432543 -0.7053386 -0.25008866 -0.74556595 0.7964213
0.6153215 0.66837144 -0.04687423 0.35252294 0.14643885 -0.21752776 -0.5019797 0.856741
-0.09964447 0.20966603 -0.23843817 -0.1863211 -0.43769237 -0.35421938 1.3657207 0.8444892
1.4194794 -0.9268264 -0.49485767 0.57130617 0.08486321 0.583607 -0.68607765 1.1724191
1.274588 -0.32906452 0.5193758 0.33687678 0.20740083 0.08050696 -0.033128545 0.45364514
-0.46488488 -0.90641856 -0.12487498 0.08471556 -0.021398693 0.218036 -0.3492071 0.5499879
-0.0728439 0.39288703 -0.12124849 -0.5859977 -0.22444648 -0.100926146 0.011522632 -0.5431877
0.7165902 0.37522185 0.40537098 -1.0536629 -0.3665716 -0.1759872 0.7675342 -0.073361315
-1.2004542 0.85774773 0.16185924 0.18301354 0.39455348 -0.47880208 0.24441727 -0.68453026
0.15592708 -0.5280748 -0.3300006 0.5322363 0.2856597 0.26922932 0.336838 -0.28300434
-0.34230062 -0.62579656 0.060186923 1.0370489 -0.11646681 0.13021773 0.7078803 0.22080223
-1.3777407 -0.2346401 0.5427532 -0.079972856 0.10419402 -0.4695802 0.9500186 1.7891846
0.93458176 -0.40425923 -0.31080455 0.37133163 0.15124407 0.0262036 0.2826443 -0.09780547
0.06026819 -0.16147287 -0.12239017 0.5416531 -0.27399194 -1.1880217 -0.047023322 -0.0072108386
0.013815528 0.65983224 -0.19087067 -0.3038038 -0.27438557 0.36407286 0.264861 1.2992957
-1.6321787 0.3267918 1.2654314 -0.24357304 0.038814686 -0.74565226 0.09594755 -1.4214486
0.91016704 -0.7333329 0.011805724 -0.3808363 -1.27278 0.24823114 1.2901293 -0.98063034
0.48806342 -1.1212239 -0.26081756 -0.55727637 0.1408038 -0.96612835 -0.15841559 -0.26857594
0.20194192 -0.18263543 -0.028581703 0.48846376 0.05948142 -0.118614435 0.3206011 -0.018959152
2.036619 0.04950618 -0.8124728 -0.46773273 -0.31314445 0.3437164 -0.17502815 0.3762899
-0.32437074 -0.053809095 -0.28840438 -1.0933045 1.1985302 0.2555715 -1.2790252 -0.123224705
-0.47211298 -0.42568126 0.14666052 -0.084065236 0.98918086 1.1538606 -0.03421555 0.03401006
0.27197644 0.075164005 0.22544657 -0.15184383 0.14972967 0.33035526 -0.94905305 0.47045168
1.9688317 -1.088509 -0.09558534 -0.5804173 0.046809006 -0.28611818 0.43688834 0.45838004
-0.89726835 -0.4007126 -0.31408015 0.0044182367 0.40437093 -0.16341312 -0.9236733 -0.8750526
-1.012418 2.2531915 -0.71295035 -0.12518297 -0.72736895 0.15353142 -0.25464013 0.45519584
-0.07415835 0.8043309 0.1187502 0.3253717 0.5491042 0.13717136 -0.33545902 -0.3549415
-1.3816046 -2.2419126 -0.31364927 0.5746046 -0.51974535 -0.6035903 -0.8062711 -0.6389253
-1.0847518 0.42978895 0.8644835 -0.6192611 -0.71597207 0.17392975 -0.6844882 -0.33157283
0.28380904 0.058160633 0.029610543 -0.6308368 0.009566173 -1.4277096 0.08677156 -0.32649967
0.20807773 0.38696706 0.4417054 -0.25292122 -0.042693567 -0.38208887 0.12480658 0.58913547
-1.5827281 -1.906264 -0.019960051 0.24852218 0.23454891 -0.38468987 0.68112206 -0.00482336
00000000: 9d96 0f3e dd26 3b3f 8866 65be ea45 3e3f
00000010: 1291 34bf 9f0b 80be 69dd 3ebf 44e2 4b3f
00000020: b685 1d3f 641a 2b3f 31ff 3fbd e37d b43e
00000030: 11f4 153e 99bf 5ebe be81 00bf 6153 5b3f
00000040: 6612 ccbd b1b2 563e 2329 74be f5ca 3ebe
00000050: 3719 e0be 3e5c b5be f0cf ae3f 7230 583f
00000060: 80b1 b53f 7f44 6dbf fc5d fdbe 1f41 123f
00000070: c3cc ad3d 4567 153f c9a2 2fbf d411 963f
00000080: b325 a33f 257b a8be d0f5 043f 1d7b ac3e
00000090: e260 543e d5e0 a43d ccb1 07bd 2d44 e83e
000000a0: 6405 eebe 0c0b 68bf 74be ffbd 5a7f ad3d
000000b0: 504c afbc d444 5f3e 46cb b2be 02cc 0c3f
000000c0: 2f2f 95bd 7d28 c93e 2151 f8bd f203 16bf
000000d0: 4cd5 65be 5eb2 cebd 6cc9 3c3c 590e 0bbf
000000e0: 7572 373f 141d c03e c98c cf3e 6dde 86bf
000000f0: 46af bbbe fd35 34be 1f7d 443f 753e 96bd
00000100: 7ca8 99bf 5b95 5b3f 6ebe 253e e767 3b3e
00000110: ea02 ca3e 8c25 f5be 8548 7a3e 603d 2fbf
00000120: 59ab 1f3e e92f 07bf d7f5 a8be a340 083f
00000130: fd41 923e 6dd8 893e 0876 ac3e f2e5 90be
00000140: 0742 afbe 3434 20bf 9086 763d 05be 843f
00000150: 2786 eebd cc57 053e a537 353f fb19 623e
00000160: cf59 b0bf 7f45 70be e0f1 0a3f cfc8 a3bd
00000170: ad63 d53d d16c f0be 6b34 733f 0004 e53f
00000180: c040 6f3f 11fb cebe c621 9fbe 2e1f be3e
00000190: badf 1a3e efa8 d63c c1b6 903e 3c4e c8bd
000001a0: c7db 763d 2559 25be b3a7 fabd c7a9 0a3f
000001b0: ac48 8cbe 1811 98bf 879b 40bd e648 ecbb
000001c0: 865a 623c c4ea 283f 9a73 43be 2c8c 9bbe
000001d0: 447c 8cbe c267 ba3e dc9b 873e 524f a63f
000001e0: 3beb d0bf 4151 a73e a8f9 a13f 366b 79be
000001f0: 26fc 1e3d 11e3 3ebf 2680 c43d 07f2 b5bf
00000200: b500 693f b4bb 3bbf cc6c 413c fafc c2be
00000210: 74ea a2bf 4e30 7e3e f522 a53f 970a 7bbf
00000220: 73e3 f93e 4484 8fbf e189 85be aaa9 0ebf
00000230: df2e 103e 3054 77bf b237 22be c982 89be
00000240: ddc9 4e3e c804 3bbe 2d24 eabc ec17 fa3e
00000250: caa2 733d 20ec f2bd d425 a43e 3950 9bbc
00000260: f757 0240 fec6 4a3d 38fe 4fbf aa7a efbe
00000270: 7854 a0be 99fb af3e 943a 33be 12a9 c03e
00000280: ec13 a6be ed66 5cbd bda9 93be 67f1 8bbf
00000290: 7069 993f 45da 823e 19b7 a3bf 3c5d fcbd
000002a0: cbb8 f1be e5f2 d9be 2d2e 163e 652a acbd
000002b0: f53a 7d3f b4b1 933f 9b25 0cbd 224e 0b3d
000002c0: 7f40 8b3e 96ef 993d 77db 663e f37c 1bbe
000002d0: bc52 193e 5324 a93e 24f5 72bf 0bdf f03e
000002e0: ad02 fc3f 4354 8bbf 3fc2 c3bd 3a96 14bf
000002f0: cdba 3f3d 157e 92be d4af df3e cab0 ea3e
00000300: 61b3 65bf 342a cdbe 1dcf a0be dbc6 903b
00000310: b509 cf3e c555 27be da75 6cbf 7203 60bf
00000320: ea96 81bf 4a34 1040 ea83 36bf f72f 00be
00000330: da34 3abf 5737 1d3e 3160 82be 6e0f e93e
00000340: 55e0 97bd a1e8 4d3f 4e33 f33d 1f97 a63e
00000350: 1892 0c3f a676 0c3e 49c1 abbe e4ba b5be
00000360: 6bd8 b0bf 7f7b 0fc0 a396 a0be 4919 133f
00000370: 080e 05bf e584 1abf c867 4ebf 9c90 23bf
00000380: 26d9 8abf 4c0d dc3e ca4e 5d3f e587 1ebf
00000390: f249 37bf a41a 323e 9e3a 2fbf eac3 a9be
000003a0: 6b4f 913e d839 6e3d cf91 f23c 857e 21bf
000003b0: 70bb 1c3c 30bf b6bf 4ab5 b13d f72a a7be
000003c0: 5412 553e 8c20 c63e 3627 e23e e47e 81be
000003d0: 73df 2ebd 27a1 c3be 989a ff3d 95d1 163f
000003e0: d696 cabf 7500 f4bf 4383 a3bc 997c 7e3e
000003f0: 972d 703e 12f6 c4be 045e 2e3f 470d 9ebb

model_13/activation_103/Relu;model_13/batch_normalization_103/FusedBatchNormV3;model_13/conv2d_58/BiasAdd/ReadVariableOp;model_13/conv2d_58/BiasAdd;model_13/depthwise_conv2d_47/depthwise;model_13/conv2d_58/Conv2D/ReadVariableOp;model_13/conv2d_58/Conv2D f4 [32]
0.11621487 0.5232785 -0.091111675 0.36554652 -0.38601834 0.009439141 0.5265387 0.0029317886
-0.5257312 -0.16757198 -0.4395448 -0.7819732 -0.27897823 0.39558694 -0.862301 -0.008738935
0.6483114 1.498819 0.41035432 0.26828417 2.1621852 -0.18083891 -0.020092692 -0.48416394
-0.1654157 -0.10977486 0.44592062 -0.21557605 0.18084037 0.77037585 0.28252226 -0.71827227
00000000: 1002 ee3d 94f5 053f c298 babd ea28 bb3e
00000010: 32a4 c5be a0a6 1a3c 3ecb 063f 4023 403b
00000020: 5296 06bf fd97 2bbe 040c e1be 652f 48bf
00000030: 3cd6 8ebe 5f8a ca3e c2bf 5cbf c02d 0fbc
00000040: bcf7 253f 4dd9 bf3f f619 d23e 8b5c 893e
00000050: 3e61 0a40 d62d 39be 6e99 a4bc 56e4 f7be
00000060: bc62 29be a4d1 e0bd b54f e43e f8bf 5cbe
00000070: 382e 393e 5a37 453f c2a6 903e b1e0 37bf

model_13/batch_normalization_104/FusedBatchNormV3;model_13/depthwise_conv2d_45/depthwise;model_13/depthwise_conv2d_45/BiasAdd;model_13/depthwise_conv2d_47/depthwise;model_13/depthwise_conv2d_45/BiasAdd/ReadVariableOp f4 [1, 3, 3, 32]
1.6095383 0.44182363 -2.8602805 0.4269086 -0.52111137 0.1859696 0.30426964 0.9881437
-2.6243548 -0.79777837 1.4396654 5.431632 3.6932042 1.2548162 2.4832807 0.15975407
-0.16837274 -0.12592706 1.4174414 -0.482153 0.009102012 -0.95230985 -1.154803 1.032962
1.2805283 -0.12597108 0.4109641 -0.32658255 0.36334705 0.26784143 -0.0066329283 -0.16165341
1.2524298 0.5924974 1.2662832 1.6385717 -3.444707 -0.064417265 0.09050816 1.8400652
-0.41057786 -3.6997125 -0.973034 -0.9272842 2.8276505 0.46948743 -1.0328612 -1.8681394
-0.9238828 0.0018912753 1.1034534 -0.08950122 0.1650331 -0.1458996 3.3923025 2.8163338
4.081121 0.0695055 0.20813146 -0.31502756 0.45086712 0.6941097 0.026662616 -0.8428599
0.71691144 0.85498613 4.017899 -1.462266 -0.03506542 -0.18098241 -0.8787151 0.29732627
-0.7924924 -0.55605835 0.34498578 1.531444 -2.8052568 1.1989894 2.439935 -2.5890493
-0.6674993 0.024827017 -0.20001443 -0.7198592 -0.0038482342 0.369453 1.7746656 1.3654538
1.8569636 -0.05946879 -0.11471429 1.279358 0.48664457 0.37050086 0.42417574 0.09077036
-0.1072473 -0.013744751 -2.631253 -0.15518141 -2.1188502 -0.22239384 0.32309476 0.94130003
2.3944135 -0.057361316 1.7980826 -1.1508497 -2.5535934 0.826573 4.0660386 2.203054
-0.8541395 -0.59191847 2.4483323 0.186061 0.08243157 0.17817958 0.1939781 1.4693557
0.9890066 -0.66291666 0.1542581 -0.09983451 0.05514869 -0.978951 -1.3204072 -0.6287966
-0.53574973 0.6503498 -2.2126644 0.029181177 -1.3372473 -0.1465197 -0.45780048 0.04718489
-0.26988518 1.9702405 2.776471 0.5050137 0.5087627 1.9376253 -3.884722 1.2947284
-0.011908822 -0.49106508 -0.07567031 0.27636397 0.43731865 0.52050406 0.6252415 3.0194669
-0.06417484 -0.06648695 0.24875034 0.1838092 0.24666257 -0.6202672 0.9169803 -0.57988125
0.37876445 1.1189227 -2.1145175 2.914715 -1.546387 -0.8674044 -0.11282009 1.5224719
-0.81765324 -0.4716053 -0.069455735 -3.116673 -4.993783 1.9093355 2.2337635 0.34642193
1.1739138 -0.20201246 -0.1372981 0.16840139 -0.05591962 0.33260188 -5.9193 0.23729151
1.8209416 -1.2628047 0.8887132 0.07397059 0.15410432 0.7415976 2.7924783 -6.5959706
0.40294388 0.31826782 3.7468512 -1.2838446 -2.985418 -0.24080023 -0.17665407 -0.16333522
0.14543033 0.24975324 -0.6649207 -1.476263 5.918123 0.3719447 4.061073 -0.03469109
-0.29672062 -0.40083906 0.27504995 0.6466048 0.7328009 -0.8748868 -1.5634028 0.11950089
1.1984447 -0.5177831 0.7858936 0.610131 -0.031215271 -1.3446095 -0.91955405 -2.2080064
0.28901678 0.014311527 -1.1829518 -0.17909299 -2.3299367 -1.1152376 0.5195356 1.8893863
-2.7380445 -5.7605443 2.4717178 -0.4881217 1.9834309 0.26809213 -0.38491344 0.24079317
0.15452446 -0.09478008 -0.17967199 1.8507943 0.36134052 -0.1729486 4.5480137 1.2738236
0.8830036 -0.041351646 1.5157039 -0.014053678 0.030067982 -0.5398688 0.93356425 4.016124
00000000: 5a05 ce3f b536 e23e d60e 37c0 c493 da3e
00000010: 8e67 05bf d16e 3e3e 3bc9 9b3e fcf6 7c3f
00000020: 6ef5 27c0 343b 4cbf f546 b83f eecf ad40
00000030: 755d 6c40 d19d a03f 12ee 1e40 9296 233e
00000040: e769 2cbe 06f3 00be b86e b53f c2dc f6be
00000050: 9b20 153c 94ca 73bf 96d0 93bf 1938 843f
00000060: 5ae8 a33f 90fe 00be e369 d23e d435 a7be
00000070: a008 ba3e 8322 893e 0959 d9bb 7988 25be
00000080: 9f4f a03f e9ad 173f 9115 a23f b8bc d13f
00000090: 1476 5cc0 33ed 83bd 585c b93d 4287 eb3f
000000a0: 4337 d2be 17c8 6cc0 c218 79bf 7f62 6dbf
000000b0: 3af8 3440 a860 f03e cc34 84bf 311f efbf
000000c0: 9583 6cbf abe4 f73a f63d 8d3f 6a4c b7bd
000000d0: 70fe 283e b466 15be 7c1b 5940 d03e 3440
000000e0: 8b98 8240 e658 8e3d 6a20 553e 4b4b a1be
000000f0: 0ed8 e63e 2cb1 313f 8f6b da3c abc5 57bf
00000100: 8287 373f 5fe0 5a3f a192 8040 882b bbbf
00000110: c2a0 0fbd 7453 39be 79f3 60bf 263b 983e
00000120: c8e0 4abf d759 0ebf faa1 b03e 5b06 c43f
00000130: 5489 33c0 7c78 993f e527 1c40 fcb2 25c0
00000140: 3ce1 2abf 0762 cb3c 95d0 4cbe b148 38bf
00000150: a832 7cbb f228 bd3e 3e28 e33f 31c7 ae3f
00000160: fcb0 ed3f 8c95 73bd 53ef eabd 01c2 a33f
00000170: 7a29 f93e 4ab2 bd3e 902d d93e cfe5 b93d
00000180: 79a4 dbbd aa31 61bc 7366 28c0 e0e7 1ebe
00000190: 3e9b 07c0 36bb 63be ad6c a53e 0af9 703f
000001a0: 123e 1940 b3f3 6abd 9227 e63f 0b4f 93bf
000001b0: 136e 23c0 4a9a 533f fd1c 8240 d6fe 0c40
000001c0: e3a8 5abf f887 17bf 7ab1 1c40 c686 3e3e
000001d0: e2d1 a83d b574 363e 32a2 463e d913 bc3f
000001e0: 892f 7d3f e8b4 29bf d6f5 1d3e 0976 ccbd
000001f0: 98e3 613d 889c 7abf 1a03 a9bf d0f8 20bf
00000200: e526 09bf 537d 263f 4b9c 0dc0 5d0d ef3c
00000210: eb2a abbf 4309 16be d364 eabe f144 413d
00000220: 642e 8abe d730 fc3f b3b1 3140 9448 013f
00000230: 463e 023f 1b04 f83f 499f 78c0 a9b9 a53f
00000240: 381d 43bc e26c fbbe 09f9 9abd 947f 8d3e
00000250: 3be8 df3e c13f 053f d40f 203f f23e 4140
00000260: 196e 83bd 4f2a 88bd 69b8 7e3e 7b38 3c3e
00000270: 1d95 7c3e d5c9 1ebf 39bf 6a3f 1973 14bf
00000280: 6aed c13e dc38 8f3f 4154 07c0 b18a 3a40
00000290: 02f0 c5bf 370e 5ebf 380e e7bd 5ce0 c23f
000002a0: b951 51bf 4076 f1be cf3e 8ebd 9277 47c0
000002b0: 12cd 9fc0 1b65 f43f fbf5 0e40 375e b13e
000002c0: cf42 963f 5bdc 4ebe e097 0cbe 6a71 2c3e
000002d0: f90b 65bd cb4a aa3e e86a bdc0 8cfc 723e
000002e0: 9d14 e93f 96a3 a1bf b582 633f e57d 973d
000002f0: 86cd 1d3e 57d9 3d3f f7b7 3240 3112 d3c0
00000300: a94e ce3e 00f4 a23e 69cc 6f40 0555 a4bf
00000310: 1711 3fc0 5694 76be cee4 34be 5941 27be
00000320: b0eb 143e 50bf 7f3e 3e38 2abf 30f6 bcbf
00000330: 4361 bd40 896f be3e 4ff4 8140 3f18 0ebd
00000340: c4eb 97be c73a cdbe 59d3 8c3e e487 253f
00000350: d798 3b3f 95f8 5fbf 951d c8bf e2bc f43d
00000360: a366 993f 6f8d 04bf 5330 493f 8c31 1c3f
00000370: 2bb7 ffbc 2a1c acbf e567 6bbf fa4f 0dc0
00000380: 02fa 933e e57a 6a3c f76a 97bf 2764 37be
00000390: af1d 15c0 1bc0 8ebf 4900 053f 69d7 f13f
000003a0: 1f3c 2fc0 6156 b8c0 a030 1e40 16eb f9be
000003b0: 10e1 fd3f 5f43 893e 6013 c5be 7c92 763e
000003c0: a93b 1e3e 0f1c c2bd effb 37be d4e6 ec3f
000003d0: a001 b93e 7019 31be 5489 9140 a70c a33f
000003e0: 860c 623f 5860 29bd 9602 c23f 6641 66bc
000003f0: 2151 f63c d734 0abf 11fe 6e3f 1684 8040

model_13/activation_105/Relu;model_13/batch_normalization_105/FusedBatchNormV3;model_13/conv2d_59/BiasAdd/ReadVariableOp;model_13/conv2d_59/BiasAdd;model_13/depthwise_conv2d_47/depthwise;model_13/conv2d_59/Conv2D/ReadVariableOp;model_13/conv2d_59/Conv2D f4 [32]
0.7755616 1.2845314 -0.8052969 0.01440376 2.0194156 0.44004202 1.1389344 0.3695622
-0.63769054 0.6521913 0.09415302 0.32235977 -0.19067445 0.736226 1.6107054 -0.50209916
0.57182497 0.68421113 0.26288676 -0.0428773 0.6046948 0.55208856 -1.2914058 -0.4674827
0.71896136 0.8044423 -0.9917621 0.54690695 1.4106722 0.27840474 1.3759453 1.3435284
00000000: 348b 463f 866b a43f f027 4ebf c0fd 6b3c
00000010: 1b3e 0140 304d e13e 9ac8 913f 4237 bd3e
00000020: b03f 23bf 02f6 263f 4cd3 c03d 570c a53e
00000030: 2a40 43be 4f79 3c3f 982b ce3f 9289 00bf
00000040: 1f63 123f 7628 2f3f 1899 863e 1ca0 2fbd
00000050: 47cd 1a3f ad55 0d3f c94c a5bf e459 efbe
00000060: da0d 383f eeef 4d3f 1fe4 7dbf 1802 0c3f
00000070: e890 b43f 118b 8e3e fa1e b03f bdf8 ab3f

model_13/batch_normalization_106/FusedBatchNormV3;model_13/depthwise_conv2d_46/depthwise;model_13/depthwise_conv2d_46/BiasAdd;model_13/depthwise_conv2d_47/depthwise;model_13/depthwise_conv2d_46/BiasAdd/ReadVariableOp f4 [1, 3, 3, 32]
-0.04286485 -0.009482773 -0.20157994 -0.055018168 0.2085809 -0.7472761 -0.012832002 -0.46407017
0.08581698 0.6188075 0.05748164 0.09539904 1.1783848 0.015259335 0.10856188 -0.36975133
0.5283216 -0.28248987 0.301515 -5.553581 0.34552598 -0.56675404 0.9804927 1.258569
1.2395602 -0.15563391 0.35222208 -0.025951132 0.8023032 0.043762654 -0.15440692 -0.11256373
1.3048182 0.48766577 -0.43921515 0.23917101 0.20073214 -0.6339297 -0.0490514 -0.4327877
-0.38163626 0.0460976 0.12169239 -0.6358363 1.83067 0.75579166 -0.1148136 1.4957881
0.5940436 -0.052730575 -0.14746886 0.23548453 -0.72746456 0.09522329 0.24963021 -0.70594907
0.3424792 -0.08262078 0.7033498 -0.079513706 0.16641138 0.81217366 -0.10328164 -0.116202354
-0.37080234 0.031384043 0.11582932 0.87171775 0.20657873 -0.5624144 0.11441852 -1.1736968
-0.7639176 -0.14376214 0.10348621 -0.07684267 1.0488415 0.034041665 0.10383084 -1.1685122
0.6187061 0.098235354 0.21805331 2.488009 -0.47064698 0.99808764 1.855506 -0.15896818
0.007639859 0.370089 1.7515174 0.47458726 0.69431794 -0.39078578 0.060202967 -0.6721404
-0.037429973 7.809777e-05 0.131371 -0.6468756 0.051347755 -0.791173 0.02913033 -1.2555907
-0.6349198 0.52817994 0.25855988 -0.47591728 0.49996927 -0.0030755044 0.5153456 0.6052263
0.08857117 0.3153397 0.8116074 1.5518696 2.1882644 0.3361592 -0.27912068 -0.36017722
1.1590953 0.32804972 -1.0104891 -0.20613474 0.027281633 0.820385 -0.2117825 0.33621642
-0.4863859 0.30098408 -0.4599265 0.15931141 0.19483261 -1.0393177 0.20726031 -0.63561904
-0.9815238 0.29510805 -0.25946897 -0.35669875 0.48492736 0.5033927 0.4640891 2.7625754
0.42096066 0.41192356 0.6640309 1.5400419 -0.2587536 0.43973318 1.3450155 -0.33334705
0.442923 0.7787379 0.50862175 0.15388511 0.36865598 0.4541469 -0.21765412 -0.591634
0.19212738 0.46998683 -0.27582574 0.6174222 0.28378195 -0.5603908 -0.033533953 -0.47246692
-0.34222922 0.8677715 0.81183714 -0.21120963 0.30291954 0.102666564 -0.044358782 -1.8797612
0.2911998 0.7641476 0.58485323 2.5951133 0.10874753 0.008701108 1.1118113 -0.16846555
-0.28807038 0.6068744 -1.2566851 0.3560459 0.5752745 0.24007098 0.052629463 -0.46705103
0.014444935 0.1596646 -0.24789876 0.67050236 0.34067205 0.20582794 0.1946043 -0.7198227
-0.8065191 -0.027844649 0.09671845 -0.2635209 -0.180963 0.04917822 0.2117971 1.0533
-0.46987358 -0.20695145 0.04434122 -0.09811632 0.4684895 0.21774565 -0.46761575 1.2335875
0.4157892 0.031287204 3.3607142 0.060686585 -0.33386183 0.2768195 -0.31447905 0.3162882
-0.34249976 -0.09329365 -0.5490371 -0.26636863 0.43296835 -0.33421245 0.71550626 -1.0351427
-1.06006 1.0205985 -0.02464476 -0.05144956 -0.270253 0.92265606 1.2934586 0.3907176
0.5210701 0.046877805 -0.0014605232 4.830355 0.07169625 0.59685326 -0.9489405 0.25102967
0.41087198 -0.4478474 1.1131892 -0.010470016 0.70483387 0.8006572 -0.011072676 -0.0971348
00000000: 0e93 2fbd a25d 1bbc f96a 4ebe bb5a 61bd
00000010: 3b96 553e 7d4d 3fbf 513d 52bc 9b9a edbe
00000020: d0c0 af3d 2b6a 1e3f de71 6b3d 9260 c33d
00000030: 50d5 963f 4a02 7a3c b155 de3d 0c50 bdbe
00000040: 1640 073f 83a2 90be 2d60 9a3e f0b6 b1c0
00000050: c8e8 b03e cb16 11bf 9201 7b3f ca18 a13f
00000060: e9a9 9e3f 7f5e 1fbe 7456 b43e 7897 d4bc
00000070: be63 4d3f 7840 333d d91c 1ebe d087 e6bd
00000080: 4804 a73f 54af f93e cfe0 e0be 3fe9 743e
00000090: ba8c 4d3e 3849 22bf 1fea 48bd 5996 ddbe
000000a0: d465 c3be d6d0 3c3d dc39 f93d 2bc6 22bf
000000b0: 6553 ea3f 907b 413f 6523 ebbd fc75 bf3f
000000c0: 3e13 183f 04fc 57bd 1402 17be db22 713e
000000d0: 1e3b 3abf 6e04 c33d 109f 7f3e 14b9 34bf
000000e0: 6f59 af3e 1535 a9bd bc0e 343f 15d8 a2bd
000000f0: bf67 2a3e 9dea 4f3f 5385 d3bd 80fb edbd
00000100: ced9 bdbe 8e8c 003d ec37 ed3d e528 5f3f
00000110: 6089 533e 64fa 0fbf 4254 ea3d b23b 96bf
00000120: 1b90 43bf 6236 13be 94f0 d33d b15f 9dbd
00000130: 7040 863f 466f 0b3d 43a5 d43d cf91 95bf
00000140: 8663 1e3f 9e2f c93d 5e49 5f3e 8a3b 1f40
00000150: a4f8 f0be ac82 7f3f 3881 ed3f 8ec8 22be
00000160: c857 fa3b 4e7c bd3e b931 e03f 1afd f23e
00000170: d2be 313f 1315 c8be 6397 763d 6511 2cbf
00000180: 2c50 19bd 6cc8 a338 1f86 063e a499 25bf
00000190: 0652 523d 508a 4abf bba2 ee3c 32b7 a0bf
000001a0: 1b8a 22bf cd36 073f f661 843e 6eab f3be
000001b0: f9fb ff3e 678e 49bb b0ed 033f 1cf0 1a3f
000001c0: cd64 b53d 3574 a13e 81c5 4f3f aaa3 c63f
000001d0: 860c 0c40 0f1d ac3e e8e8 8ebe 2669 b8be
000001e0: 3c5d 943f 22f6 a73e b557 81bf fc14 53be
000001f0: bb7d df3c c004 523f 83dd 58be 8f24 ac3e
00000200: 9307 f9be 961a 9a3e 7c7b ebbe 8822 233e
00000210: 3382 473e 5d08 85bf 0c3c 543e eeb7 22bf
00000220: 2545 7bbf 6718 973e 1ed9 84be 38a1 b6be
00000230: 6648 f83e 58de 003f 169d ed3e 09ce 3040
00000240: 2888 d73e a5e7 d23e eefd 293f 1820 c53f
00000250: 5a7b 84be b524 e13e 7829 ac3f 77ac aabe
00000260: cec6 e23e 5e5b 473f 0935 023f 0f94 1d3e
00000270: 7ac0 bc3e f185 e83e b9e0 5ebe 5375 17bf
00000280: 0abd 443e 1da2 f03e 0839 8dbe 620f 1e3f
00000290: de4b 913e c575 0fbf e65a 09bd 2fe7 f1be
000002a0: ab38 afbe 4626 5e3f 8fd4 4f3f 5647 58be
000002b0: 4518 9b3e d942 d23d 8eb1 35bd 049c f0bf
000002c0: 2418 953e 2d9f 433f f1b8 153f 5616 2640
000002d0: 06b7 de3d 188f 0e3c d54f 8e3f 3c82 2cbe
000002e0: f67d 93be 1f5c 1b3f 0fdb a0bf a64b b63e
000002f0: 3145 133f 2bd5 753e fe91 573d 5021 efbe
00000300: 73aa 6c3c 1e7f 233e 2cd9 7dbe 0ba6 2b3f
00000310: 916c ae3e 8fc4 523e 5a46 473e 4d46 38bf
00000320: 0978 4ebf 761a e4bc 5314 c63d 36ec 86be
00000330: 5d4e 39be 1a6f 493d 57e1 583e 89d2 863f
00000340: 4593 f0be 15eb 53be 249f 353d 36f1 c8bd
00000350: dbdd ef3e b7f8 5e3e 556b efbe 32e6 9d3f
00000360: 52e2 d43e 0327 003d f115 5740 7f92 783d
00000370: f0ef aabe 49bb 8d3e 6603 a1be 87f0 a13e
00000380: 215c afbe be10 bfbd b28d 0cbf 7861 88be
00000390: 07ae dd3e e51d abbe 6b2b 373f 8e7f 84bf
000003a0: 0cb0 87bf f9a2 823f cfe3 c9bc c6bc 52bd
000003b0: 9a5e 8abe 3033 6c3f 0d90 a53f 230c c83e
000003c0: da64 053f f102 403d 076f bfba 4592 9a40
000003d0: 7cd5 923d 60cb 183f c4ed 72bf f686 803e
000003e0: d05d d23e 414c e5be fc7c 8e3f 6e8a 2bbc
000003f0: fe6f 343f dff7 4c3f 2b6a 35bc 9cee c6bd

model_13/activation_107/Relu;model_13/batch_normalization_107/FusedBatchNormV3;model_13/conv2d_60/BiasAdd/ReadVariableOp;model_13/conv2d_60/BiasAdd;model_13/depthwise_conv2d_47/depthwise;model_13/conv2d_60/Conv2D/ReadVariableOp;model_13/conv2d_60/Conv2D f4 [32]
1.0819228 -1.165472 0.31359926 0.82829064 1.2501551 -0.5209887 1.368274 1.7574989
-1.2877338 0.8383961 0.6160001 0.90422577 -0.2660751 -1.6602793 0.7176076 0.5632676
0.98275405 0.8472483 1.1817032 -1.0308745 -1.095889 0.45121428 -0.46358055 0.78857493
1.1125882 1.3866628 1.5639143 -0.9069246 1.0071223 -0.97051907 0.94224733 1.3112962
00000000: 727c 8a3f 302e 95bf 1590 a03e db0a 543f
00000010: 1505 a03f 845f 05bf 9a23 af3f b9f5 e03f
00000020: 76d4 a4bf 20a1 563f 2fb2 1d3f 577b 673f
00000030: ff3a 88be 0884 d4bf 22b5 373f 4e32 103f
00000040: c595 7b3f 44e5 583f 0d42 973f b2f3 83bf
00000050: 1746 8cbf 8f05 e73e 6e5a edbe 0ce0 493f
00000060: 4a69 8e3f 2b7e b13f 582e c83f 362c 68bf
00000070: 62e9 803f f073 78bf 1f37 713f 8ed8 a73f

model_13/batch_normalization_108/FusedBatchNormV3;model_13/depthwise_conv2d_47/depthwise;model_13/depthwise_conv2d_47/BiasAdd;model_13/depthwise_conv2d_47/BiasAdd/ReadVariableOp f4 [1, 3, 3, 32]
-0.4600227 -1.2331792 -0.3102142 1.0553204 0.5416844 0.1256118 0.037491694 -1.624262
-0.19359696 -0.89142686 0.11812987 0.42997417 -0.2532876 -5.0958114 -0.31030008 0.7391942
-0.5123421 -0.66010785 -0.7691556 1.7350827 0.22843155 -0.59555876 -0.44396937 -0.20307286
0.008005395 0.6832178 -0.54247624 -6.7922626 -0.34900033 1.5599301 0.5258046 0.19009165
-0.42037567 1.1767926 0.38996777 1.2716625 0.6951778 1.0265291 0.00088249997 -0.928183
0.59272254 -1.1594573 0.1361306 -0.14479993 0.07015477 0.13016604 0.2023084 0.33529487
-0.4243242 -0.49590337 -0.97031343 0.9322147 2.558141 -1.1077217 -0.884536 -0.08460513
0.46362588 1.081403 -1.0909911 0.04432326 0.487675 -0.19373704 0.7580396 -0.44997904
0.4481743 0.85722256 0.16132209 0.3521944 -0.065463655 -0.21800606 -0.1876817 -0.52978843
-0.17655443 -0.0383636 -0.18098003 0.17861247 0.38948688 0.18990205 0.26087132 -0.022911128
0.16875903 0.27883455 0.55151075 -0.119357035 -5.024786 -0.45745078 -0.14030382 -0.46271557
-0.2384508 1.1112764 -1.304949 -0.32852808 0.5745901 -0.20245488 0.013005723 -0.21668637
0.318541 -0.5741543 0.41668153 0.28938216 0.69705987 -0.35123098 0.017514737 -0.1873031
-0.16666597 -1.3903042 0.55913 -0.7642691 0.74996644 0.13448687 0.62805766 0.03642225
0.24204251 -0.6143912 -0.0014508859 0.022568386 3.197864 -0.36854276 -0.40366918 0.52176934
-0.081913084 -0.14278232 -0.10920201 -0.04731999 -0.1707007 1.7188125 0.77756315 0.66991436
-0.023887116 0.75830126 0.7366722 0.08014502 0.68512714 0.8234074 0.09675941 0.03981319
0.18717854 -0.7754866 -0.3287805 -0.44933638 0.8759621 -0.070412815 0.6184203 0.23531397
0.77479786 -0.648605 0.13789564 0.3041921 -2.8404624 -0.30563596 2.243546 -0.06461184
0.08034701 -0.14144227 0.14232552 0.7470599 0.050623 -0.73730904 0.5451892 -0.105104014
0.5340059 1.824134 0.3330102 -0.20692983 0.3822254 -0.39491326 -0.20720723 0.43473232
0.18345511 0.10574849 0.56369025 0.1727612 0.115628235 3.0933697 0.5362654 0.35055006
0.6355205 -0.6864513 0.043330584 0.5892908 0.54815286 -0.22327629 1.9981066 -0.38166615
0.1213148 0.46084946 -0.69954807 -0.31075376 -0.16249678 -0.41107225 0.48235476 -0.20511493
-1.3811723 -2.8707566 0.062114254 0.048287693 0.26209587 1.3924074 0.504115 0.038791794
-0.091069095 -1.1778865 0.11710795 -0.7259635 -0.0492915 0.2139156 -0.06329257 0.19047667
0.4699404 -0.50101846 1.2019974 0.4071748 -2.405462 -0.5474719 -8.070137 -0.17695601
0.048980374 -0.4244319 0.24902657 -0.2944632 -0.5900149 0.49695933 1.2806174 0.6013156
-0.6059815 -2.3268905 -0.08244982 -0.391579 0.6009327 1.0322249 0.7339805 0.6413003
0.33401754 0.08539904 0.47361225 -0.67887276 -0.16959096 0.08992854 -0.23798798 0.21927164
0.8438208 -0.11886593 0.3785905 -0.116879724 3.0942893 -0.077090584 0.31925887 0.62667584
0.34185487 -0.12782642 0.7568049 5.4864635 0.60507166 -2.7116356 0.36616695 0.101601556
00000000: 1888 ebbe d1d8 9dbf 65d4 9ebe bd14 873f
00000010: d4ab 0a3f 61a0 003e e490 193d d1e7 cfbf
00000020: 483e 46be 8d34 64bf 13ee f13d 9325 dc3e
00000030: eaae 81be e310 a3c0 a7df 9ebe d53b 3d3f
00000040: da28 03bf d4fc 28bf 62e7 44bf 3117 de3f
00000050: f6e9 693e 8a76 18bf f44f e3be 55f2 4fbe
00000060: 0f29 033c 5de7 2e3f b9df 0abf 375a d9c0
00000070: 2cb0 b2be caab c73f 219b 063f 63a7 423e
00000080: 7b3b d7be 24a1 963f dba9 c73e d6c5 a23f
00000090: 2cf7 313f 4e65 833f 9257 673a 679d 6dbf
000000a0: aabc 173f 1969 94bf d265 0b3e 6f46 14be
000000b0: 4ead 8f3d 3f4a 053e ef29 4f3e c5ab ab3e
000000c0: 0641 d9be 0ce7 fdbe 7666 78bf 9fa5 6e3f
000000d0: 95b8 2340 d3c9 8dbf f470 62bf 7445 adbd
000000e0: 5f60 ed3e 6a6b 8a3f 99a5 8bbf 4f8c 353d
000000f0: 8ab0 f93e 0163 46be e20e 423f a763 e6be
00000100: 1a77 e53e f072 5b3f 9e31 253e d352 b43e
00000110: cf11 86bd fb3c 5fbe a22f 40be 37a0 07bf
00000120: afca 34be 2623 1dbd d452 39be 30e6 363e
00000130: d36a c73e af75 423e ed90 853e 1eb0 bbbc
00000140: 2bcf 2c3e 67c3 8e3e cf2f 0d3f 7671 f4bd
00000150: 0ccb a0c0 fd36 eabe ceab 0fbe 0ee9 ecbe
00000160: 722c 74be 4e3e 8e3f 9208 a7bf d534 a8be
00000170: 5618 133f 5550 4fbe f515 553c 08e3 5dbe
00000180: ce17 a33e c7fb 12bf 4857 d53e e629 943e
00000190: 8472 323f 8cd4 b3be 117b 8f3c 62cc 3fbe
000001a0: 7caa 2abe 7df5 b1bf 2523 0f3f 24a7 43bf
000001b0: cdfd 3f3f edb6 093e 63c8 203f 7f2f 153d
000001c0: fed9 773e be48 1dbf a72b beba 56e1 b83c
000001d0: cea9 4c40 a3b1 bcbe baad cebe ad92 053f
000001e0: 0cc2 a7bd 8735 12be 4ea5 dfbd 9bd2 41bd
000001f0: 2acc 2ebe 0c02 dc3f 610e 473f 827f 2b3f
00000200: eaae c3bc 0820 423f 8d96 3c3f 1223 a43d
00000210: 7e64 2f3f d4ca 523f cc29 c63d 2813 233d
00000220: bbab 3f3e 4a86 46bf eb55 a8be 6b0f e6be
00000230: 0d3f 603f 9834 90bd cb50 1e3f 25f6 703e
00000240: 2759 463f fa0a 26bf 8434 0d3e 11bf 9b3e
00000250: 23ca 35c0 517c 9cbe 4296 0f40 3653 84bd
00000260: f98c a43d 3ed6 10be c8bd 113e 513f 3f3f
00000270: 105a 4f3d 49c0 3cbf 8591 0b3f c640 d7bd
00000280: 9cb4 083f 397d e93f 5080 aa3e 6ae5 53be
00000290: 0cb3 c33e 1232 cabe 222e 54be 3c95 de3e
000002a0: a8db 3b3e aa92 d83d 014e 103f 50e8 303e
000002b0: 7fce ec3d c5f9 4540 b048 093f 4c7b b33e
000002c0: 79b1 223f 46bb 2fbf 697b 313d c3db 163f
000002d0: bf53 0c3f 8aa2 64be f5c1 ff3f bf69 c3be
000002e0: e573 f83d 76f4 eb3e 9515 33bf 1e1b 9fbe
000002f0: 8e65 26be 1078 d2be 34f7 f63e a609 52be
00000300: 41ca b0bf 7aba 37c0 846b 7e3d 51c9 453d
00000310: 6e31 863e 683a b23f ae0d 013f 25e4 1e3d
00000320: 6f82 babd fcc4 96bf 4bd6 ef3d bed8 39bf
00000330: e2e5 49bd b10c 5b3e 899f 81bd 510c 433e
00000340: 079c f03e bf42 00bf 0ddb 993f 3779 d03e
00000350: 17f3 19c0 1e27 0cbf 481f 01c1 f533 35be
00000360: a59f 483d 234f d9be d200 7f3e e1c3 96be
00000370: 370b 17bf 7471 fe3e 45eb a33f d2ef 193f
00000380: 9b21 1bbf c6eb 14c0 74db a8bd 0b7d c8be
00000390: bad6 193f f21f 843f 25e6 3b3f 422c 243f
000003a0: 5904 ab3e b1e5 ae3d 4e7d f23e 9bca 2dbf
000003b0: 41a9 2dbe 742c b83d 1fb3 73be bf88 603e
000003c0: a404 583f fb6f f3bd 9dd6 c13e a35e efbd
000003d0: d608 4640 abe1 9dbd e675 a33e d46d 203f
000003e0: 9a07 af3e eee4 02be f7bd 413f 1c91 af40
000003f0: fae5 1a3f 708b 2dc0 3c7a bb3e 7a14 d03d

model_13/activation_109/Relu;model_13/batch_normalization_109/FusedBatchNormV3;model_13/conv2d_61/BiasAdd/ReadVariableOp;model_13/conv2d_61/BiasAdd;model_13/conv2d_61/Conv2D/ReadVariableOp;model_13/conv2d_61/Conv2D f4 [64]
-0.21165772 -0.20149456 -0.17053574 0.023872018 -1.0293988 0.32687807 0.19064358 -0.5014026
0.059943587 -0.21295953 0.99129236 0.11592241 0.4012678 -0.2628268 0.049776062 -0.08510516
-0.6525339 0.01922311 -1.136212 -0.36336476 -0.47935247 -0.48820227 -2.2078595 0.550268
0.36269432 0.044993665 -0.043512255 -0.8289007 -1.3955784 0.17814511 -0.046956584 0.36084288
-0.23365119 0.26056576 0.50964993 -1.5093486 0.13861611 -0.41430983 0.6385745 0.19795185
0.030618265 -0.44714296 -0.6383977 -0.36565918 0.06619245 0.5276356 -0.1351943 -0.08259586
-0.22023566 -2.2017834 -0.24183999 0.0064398497 0.38324076 -2.259549 -0.58533657 -0.10921684
-0.21598095 0.15557075 0.30410084 -0.10901669 -0.14581026 -1.9572356 0.3801428 -0.2539762
00000000: cdbc 58be 9754 4ebe eca0 2ebe 408f c33c
00000010: 57c3 83bf 905c a73e 1238 433e ec5b 00bf
00000020: 6887 753d 1012 5abe 56c5 7d3f ba68 ed3d
00000030: f972 cd3e 3c91 86be fce1 4b3d 9d4b aebd
00000040: 760c 27bf c979 9d3c 656f 91bf f20a babe
00000050: b06d f5be a6f5 f9be 924d 0dc0 5dde 0c3f
00000060: 12b3 b93e 474b 383d e839 32bd d632 54bf
00000070: 50a2 b2bf ac6b 363e 8c55 40bd 66c0 b83e
00000080: 4242 6fbe e068 853e 6b78 023f 5632 c1bf
00000090: 62f1 0d3e 6b20 d4be 9e79 233f e4b3 4a3e
000000a0: 28d3 fa3c ecef e4be 086e 23bf ae37 bbbe
000000b0: e88f 873d 2013 073f 6070 0abe 0528 a9bd
000000c0: 7585 61be 05ea 0cc0 e7a4 77be 6005 d33b
000000d0: 2238 c43e 739c 10c0 9ed8 15bf 14ad dfbd
000000e0: 1c2a 5dbe f04d 1f3e 1bb3 9b3e 2444 dfbd
000000f0: 494f 15be b286 fabf 14a2 c23e 2b09 82be

model_13/dense_13/MatMul f4 [2, 64]
-0.65420514 -0.4408423 0.9316682 0.45273188 0.5611475 0.27222902 -0.47704807 0.772737
0.98008615 -0.44615203 0.5630764 0.26729563 0.38570097 -1.2407694 1.6485412 -0.6907817
-0.8471764 -1.5953944 0.34553716 0.8779076 -1.0334821 0.59009635 -0.73382556 -0.24197337
-0.5874068 1.2455052 0.4661796 1.137654 1.6587964 -0.57395554 0.78202784 0.4920733
-1.1598223 -0.58094925 0.51569486 -1.4513061 1.9108981 -0.8622982 -0.55308104 1.96697
0.32249758 -1.1137497 0.5706689 -1.1398596 0.6665907 0.51861364 0.42189124 -0.59888196
-1.4510471 -1.0768164 -0.5971154 0.514039 0.54440516 -0.59214866 -1.1386242 -0.9766069
-1.475175 -0.4851061 1.1466453 -0.493908 1.1998875 0.7933242 -0.3896172 -1.0927832
0.53514296 0.76810384 -0.7661894 -0.47384357 -0.5732116 -0.72770154 0.83568144 -0.8364574
-0.56619495 0.84697795 -0.43615964 -0.62909293 -0.57767713 0.870311 -1.8591421 0.74552774
1.2235646 2.0002267 -0.64205915 -0.9525186 1.2990588 -0.71569455 0.98443633 0.7552719
0.44333714 -0.7936915 -0.84760475 -1.3475803 -1.2807912 0.58770967 -1.0561213 -0.5952128
1.037673 0.6010727 -0.43941528 1.4832295 -1.5678362 0.6193807 0.48423782 -2.2805352
-0.6875383 1.6407015 -0.546553 0.823367 -1.0774873 -0.5006992 -0.44572747 0.45435244
1.239061 1.3511053 0.6081127 -0.74535716 -0.63828933 0.9607756 1.366408 0.8653996
1.1412799 0.541668 -1.1816063 0.58593756 -0.9196747 -0.91570604 0.5968615 1.0066472
00000000: fd79 27bf 15b6 e1be cf81 6e3f 79cc e73e
00000010: 5da7 0f3f 9a61 8b3e a53f f4be 18d2 453f
00000020: ede6 7a3f 0a6e e4be c625 103f f9da 883e
00000030: 997a c53e 88d1 9ebf 6603 d33f 12d7 30bf
00000040: 8de0 58bf e235 ccbf 3fea b03e 8dbe 603f
00000050: 2449 84bf 8e10 173f fedb 3bbf dec7 77be
00000060: 4b60 16bf b76c 9f3f 18af ee3e a59e 913f
00000070: 7153 d43f c0ee 12bf fa32 483f 08f1 fb3e
00000080: 0f75 94bf 17b9 14bf 9404 043f 66c4 b9bf
00000090: 4f98 f43f 93bf 5cbf b896 0dbf acc5 fb3f
000000a0: 671e a53e 5a8f 8ebf 5b17 123f ebe6 91bf
000000b0: b0a5 2a3f ddc3 043f 2102 d83e 5450 19bf
000000c0: e9bb b9bf 1fd5 89bf 8edc 18bf 0f98 033f
000000d0: 235e 0b3f 0e97 17bf 70be 91bf e902 7abf
000000e0: 89d2 bcbf d45f f8be 46c5 923f 82e1 fcbe
000000f0: ea95 993f 4b17 4b3f e87b c7be 52e0 8bbf
00000100: 21ff 083f 74a2 443f fd24 44bf a09b f2be
00000110: ffbd 12bf a64a 3abf 38ef 553f 1222 56bf
00000120: 27f2 10bf 8cd3 583f 5150 dfbe 3c0c 21bf
00000130: a6e2 13bf b4cc 5e3f 5ef8 edbf e8da 3e3f
00000140: c49d 9c3f b703 0040 fd5d 24bf 42d8 73bf
00000150: 8f47 a63f c237 37bf 0504 7c3f 8059 413f
00000160: 16fd e23e 5e2f 4bbf a0fc 58bf 837d acbf
00000170: f7f0 a3bf 2474 163f fc2e 87bf de5f 18bf
00000180: 78d2 843f e7df 193f 0afb e0be 77da bd3f
00000190: dbae c8bf bc8f 1e3f 05ee f73e 4af4 11c0
000001a0: 8302 30bf 8202 d23f e6ea 0bbf 2ec8 523f
000001b0: 1beb 89bf d32d 00bf 6436 e4be e2a0 e83e
000001c0: 8d99 9e3f 05f1 ac3f 46ad 1b3f bacf 3ebf
000001d0: ee66 23bf 64f5 753f 75e6 ae3f d48a 5d3f
000001e0: 7615 923f c1aa 0a3f e03e 97bf 0100 163f
000001f0: cd6f 6bbf b66b 6abf eacb 183f d1d9 803f

model_13/batch_normalization_101/FusedBatchNormV3;model_13/conv2d_57/BiasAdd/ReadVariableOp;model_13/conv2d_57/BiasAdd;model_13/conv2d_57/Conv2D/ReadVariableOp;model_13/conv2d_57/Conv2D f4 [32, 3, 3, 1]
-0.18055484 -0.73628056 -0.7918092 0.52986705 -1.9052972 -0.7670797 -0.48918098 -0.8092057
1.933468 -0.07290059 -3.0468495 -2.4897666 2.618292 0.4556725 -6.0988426 3.8922446
5.953477 -0.51693416 1.423778 -2.0091264 1.5604961 -0.90327424 0.7080676 -2.8111534
4.5432644 -0.625468 2.6354744 4.628906 -2.1084914 2.952138 8.825486 -7.508699
-4.898719 -1.2895204 5.043294 -2.5594494 2.378932 -0.07834642 2.0475104 2.475826
-1.9935904 1.4537592 -2.2205663 -5.8917303 2.0626533 -4.6946883 1.5428668 -3.0622263
0.56044096 -14.489605 6.802695 -12.127 2.6551163 5.102584 -1.1948667 2.0496767
-1.1024922 1.6716453 -0.03829449 6.135852 -0.16546923 -1.0103068 -0.3760457 -2.6565742
-5.216378 2.5959098 -0.13012074 1.4309596 2.3202891 3.4255648 -2.799128 -4.108644
3.1027634 1.4031705 2.7487528 -0.310707 -1.5355076 1.7219201 -7.7566195 1.8285038
2.1619947 -0.5119175 1.1430302 1.6831578 -4.5876546 -0.6879391 -2.9432285 2.7217193
0.31796488 -1.5809834 8.848007 17.837421 -19.290617 -5.9244113 0.7900596 -2.5291557
2.0249732 -5.4964924 9.147104 -1.8899853 -7.7072115 -2.5033827 -4.3882623 12.684101
-2.5106132 0.11826042 -2.196308 0.83055174 -0.08080209 -0.020320067 6.267545 2.7866182
-5.8296614 -2.3499417 -5.2375956 -0.9664914 0.037683748 4.6891685 0.47473127 -0.34011838
0.76264143 4.4172225 -8.003619 -2.6755636 -3.0434005 5.2427793 9.386833 0.6141235
-0.5411516 -8.498677 1.4641334 -6.180031 -6.9193516 3.4632492 1.3296225 1.6649009
-2.57315 1.6799643 2.2686255 0.9367053 -0.9680746 5.513788 3.2721379 -5.369141
8.484759 -7.2416825 -14.548474 -0.29233932 -13.663162 -4.9880376 10.397036 -4.2532287
8.949641 1.8364199 -0.46186736 -5.9307747 -1.2312776 0.56122226 -0.8563052 0.873328
0.83330923 -0.022023944 -4.3968105 -0.66464406 -1.3836101 1.9534428 2.8627722 -6.2066774
-4.5899434 5.179617 -7.3635983 -0.8145491 1.8857933 5.371336 0.9784311 4.5435605
0.6297673 -3.8042092 -0.9724293 -1.9651079 -0.7096584 -6.2228594 9.254106 0.49050987
5.932337 -4.080196 -5.8424 1.0950583 8.133584 -0.5804216 10.904628 1.636451
-2.1772065 10.20524 -14.281118 -8.939317 0.01584278 -1.1388323 0.5602838 -0.24961452
1.3732533 -0.88676304 -3.7094772 -4.3580194 1.0106255 0.45901608 0.37080136 -5.4351177
2.8897727 2.0002327 -1.2503097 -3.441187 3.2475102 1.4226726 8.418368 -7.805452
6.4543476 -3.53825 1.8324088 -5.299076 1.6883326 1.8288473 -0.07516671 -0.45235613
-1.8196429 0.30595046 0.112497434 -0.5611994 1.1692901 -10.77333 9.530871 -0.10027406
9.446787 -9.105981 -1.0681312 -2.1999545 2.3395033 -1.3205379 0.45403326 1.9036672
0.3485952 7.0421166 -2.7129729 6.5981703 -0.008335635 -3.4304824 4.0823536 -5.504932
-1.5972722 -8.268637 -1.2599977 6.1548567 2.2655027 -12.344676 -6.027565 -2.1022627
00000000: 5ee3 38be e27c 3cbf 02b4 4abf 5ea5 073f
00000010: c7e0 f3bf 565f 44bf ee75 fabe 1b28 4fbf
00000020: e17b f73f e84c 95bd 95ff 42c0 5658 1fc0
00000030: 1992 2740 e84d e93e b829 c3c0 891a 7940
00000040: e282 be40 cc55 04bf 5c3e b63f 8795 00c0
00000050: 56be c73f fb3c 67bf eb43 353f f0e9 33c0
00000060: 6c62 9140 ac1e 20bf 9dab 2840 ff1f 9440
00000070: 86f1 06c0 d4ef 3c40 3135 0d41 4347 f0c0
00000080: 4ec2 9cc0 010f a5bf aa62 a140 05ce 23c0
00000090: 6c40 1840 1674 a0bd 690a 0340 ef73 1e40
000000a0: f82d ffbf c814 ba3f c21d 0ec0 0e89 bcc0
000000b0: 8302 0440 e33a 96c0 a97c c53f 84fb 43c0
000000c0: 0f79 0f3f 6cd5 67c1 adaf d940 3108 42c1
000000d0: 6ded 2940 5e48 a340 64f1 98bf e72d 0340
000000e0: 771e 8dbf 79f8 d53f afda 1cbd e658 c440
000000f0: c470 29be bc51 81bf 1089 c0be 5005 2ac0
00000100: 92ec a6c0 6323 2640 5f3e 05be af29 b73f
00000110: 9e7f 1440 743c 5b40 ea24 33c0 037a 83c0
00000120: ad93 4640 179b b33f 91eb 2f40 fd14 9fbe
00000130: 838b c4bf e167 dc3f 3a36 f8c0 6a0c ea3f
00000140: 1f5e 0a40 060d 03bf d04e 923f b771 d73f
00000150: 11ce 92c0 c71c 30bf db5d 3cc0 a630 2e40
00000160: 4bcc a23e aa5d cabf 7091 0d41 0ab3 8e41
00000170: 2f53 9ac1 c794 bdc0 5941 4a3f b0dd 21c0
00000180: 2999 0140 44e3 afc0 8a5a 1241 0aeb f1bf
00000190: 7aa1 f6c0 6c37 20c0 a56c 8cc0 14f2 4a41
000001a0: e3ad 20c0 8532 f23d 4f90 0cc0 0a9f 543f
000001b0: 917b a5bd 4576 a6bc bb8f c840 f457 3240
000001c0: 968c bac0 7265 16c0 629a a7c0 fb6b 77bf
000001d0: 465a 1a3d ab0d 9640 fa0f f33e ff23 aebe
000001e0: 783c 433f e359 8d40 d30e 00c1 6f3c 2bc0
000001f0: 13c7 42c0 d9c4 a740 7830 1641 3337 1d3f
00000200: e988 0abf 95fa 07c1 b968 bb3f d0c2 c5c0
00000210: 546b ddc0 e0a5 5d40 1231 aa3f 791b d53f
00000220: 7dae 24c0 1209 d73f 2931 1140 ebcb 6f3f
00000230: bdd3 77bf f470 b040 b56a 5140 01d0 abc0
00000240: 93c1 0741 ddbb e7c0 8dc6 68c1 80ad 95be
00000250: 509c 5ac1 019e 9fc0 425a 2641 731a 88c0
00000260: bb31 0f41 cf0f eb3f e179 ecbe e8c8 bdc0
00000270: 819a 9dbf 43ac 0f3f d136 5bbf 6c92 5f3f
00000280: c153 553f 8f6b b4bc acb2 8cc0 1d26 2abf
00000290: 231a b1bf 6a0a fa3f a937 3740 1a9d c6c0
000002a0: d1e0 92c0 6cbf a540 99a2 ebc0 4a86 50bf
000002b0: ad61 f13f fce1 ab40 767a 7a3f d964 9140
000002c0: 6e38 213f 2a78 73c0 20f1 78bf a888 fbbf
000002d0: 2cac 35bf aa21 c7c0 d110 1441 1c24 fb3e
000002e0: b4d5 bd40 f790 82c0 f1f4 bac0 df2a 8c3f
000002f0: 2923 0241 8396 14bf 5b79 2e41 3a77 d13f
00000300: 5a57 0bc0 aa48 2341 767f 64c1 7107 0fc1
00000310: b8c8 813c 42c5 91bf c26e 0f3f f39a 7fbe
00000320: c4c6 af3f e702 63bf 1368 6dc0 e574 8bc0
00000330: 2d5c 813f 2804 eb3e add9 bd3e 7cec adc0
00000340: 09f2 3840 d003 0040 260a a0bf 683c 5cc0
00000350: 35d7 4f40 231a b63f a3b1 0641 43c6 f9c0
00000360: 048a ce40 b072 62c0 5f8c ea3f 0892 a9c0
00000370: 481b d83f ab17 ea3f 01f1 99bd 399b e7be
00000380: 0fea e8bf 8aa5 9c3e 0e65 e63d c4aa 0fbf
00000390: 4cab 953f 8f5f 2cc1 737e 1841 7d5c cdbd
000003a0: 0a26 1741 19b2 11c1 86b8 88bf 0ecc 0cc0
000003b0: 6cba 1540 6307 a9bf 0c77 e83e 5eab f33f
000003c0: 127b b23e 0559 e140 59a1 2dc0 3624 d340
000003d0: 3092 08bc 068d 5bc0 a4a2 8240 6728 b0c0
000003e0: 6a73 ccbf 564c 04c1 9b47 a1bf 96f4 c440
000003f0: fffd 1040 cb83 45c1 d0e1 c0c0 798b 06c0

model_13/batch_normalization_103/FusedBatchNormV3;model_13/conv2d_58/BiasAdd/ReadVariableOp;model_13/conv2d_58/BiasAdd;model_13/conv2d_58/Conv2D/ReadVariableOp;model_13/conv2d_58/Conv2D f4 [32, 1, 1, 32]
0.07644987 -0.6775545 0.24653265 -0.2964696 0.16131756 0.25061136 -0.50709987 -0.36699393
0.030593935 0.10929284 0.35449845 0.12191616 0.038047142 -0.005451315 -0.010149347 -0.26411712
-0.04652864 -0.19901961 -0.023188641 0.029803935 -0.270516 0.38654143 -0.5108795 0.17981629
-0.15206651 0.27961868 0.007117057 -0.40587732 -0.24854234 0.029489806 0.15147248 0.37973464
0.5306681 0.30800754 0.1405746 -0.0036911776 0.114173554 0.28661868 -0.2989723 0.17331421
0.42195317 0.18128027 -0.79915756 -0.16624792 -0.2598653 0.1709166 -0.38916776 -0.07079699
0.19376269 -0.21732295 0.45087624 0.59046376 -0.02363347 0.04885587 -0.0331259 -0.5989774
-0.16954777 -0.116688736 0.22186384 -0.6205014 -0.18869671 -0.39188555 -0.5324183 0.3209536
-0.11470995 -0.3491283 0.0015647701 -0.3002213 -0.11949238 -0.4099343 0.12674838 0.21262777
0.051612325 -0.5121278 0.08952205 -0.18926139 -0.15992188 0.14796197 0.07396508 0.12653238
-0.033538193 0.04470688 0.30297443 0.08333259 -0.027336681 -0.19447757 0.09298349 -0.05729026
0.16739275 -0.055722613 -0.20980597 -0.04900601 0.12864007 -0.12204618 -0.16067804 -0.12109924
0.11865627 -0.11247765 0.22857761 -0.010607303 0.3174718 -0.1177776 0.12640971 -0.2275553
0.46802443 -0.40382192 -0.19258735 -0.11423438 -0.3071212 -0.10800756 -0.062764145 -0.07663922
0.28059036 -0.54120696 -0.09661817 -0.3012079 0.018529719 0.17345634 0.07892015 -0.21659718
0.09188695 -0.07357943 0.37833527 -0.12120565 -0.053290546 -0.09571683 -0.50185764 -0.47146648
0.12086486 -0.79135555 -0.19046992 -0.25296405 -0.22802816 -0.11955982 0.03645712 0.07412404
-0.18429957 0.096007936 0.08191223 -0.28072038 0.26980937 -0.031071464 0.008177198 -0.028640868
-0.23619197 0.19959192 -0.021534573 0.17555678 0.22156075 0.021635747 -0.18781213 -0.015303666
0.3331064 0.21238472 0.22911644 -0.49261114 0.029213948 -0.07728824 -0.17597152 -0.06022627
0.23437314 0.2929891 0.29230893 -0.14798614 -0.5346389 -0.13870299 -0.15137915 -0.53127223
0.11396707 0.30769658 -0.60916173 -0.09281502 0.7424795 0.20683165 -0.047333885 -0.30301246
-0.25812137 0.2863303 -0.76963764 -1.0429564 -0.110252865 -0.19883843 0.06667241 -0.00037424036
1.055808 0.59094524 -0.20764273 -0.016083052 0.24273685 0.6317852 -0.56176245 -0.1145267
-0.0071097147 -0.39081335 -0.17451805 0.32959834 0.21739466 0.1501488 -0.009367159 -0.17215313
0.66941667 -0.15380612 0.0587288 -0.605519 -0.08283172 -0.77225184 0.15895447 -0.54484177
0.23395768 -0.24654527 0.07230505 0.17122261 -0.2957015 -0.45340034 0.46823338 -0.37095177
-0.23306015 -0.017682873 0.12082003 -0.1901668 -0.9189949 0.091841914 -0.19982396 -0.2320016
0.09561377 0.15551917 0.25535128 0.13736212 0.033801727 -0.07738113 -0.17486998 -0.4482386
-0.24204813 0.31438014 0.17809975 -0.036407117 0.06816252 0.26473317 0.2811281 0.06333268
0.114998184 0.16250454 -0.18366937 -0.2012529 -0.16971083 -0.3835628 -0.21998034 -0.3435074
0.0028840485 0.094520375 0.20299196 -0.043675482 -0.07290207 -0.32043082 -0.52903926 0.008830603
00000000: c091 9c3d 3674 2dbf 0e73 7c3e ddca 97be
00000010: 6e30 253e 2250 803e 4cd1 01bf a1e6 bbbe
00000020: 22a0 fa3c edd4 df3d d280 b53e 2eaf f93d
00000030: 52d7 1b3d f2a0 b2bb 7249 26bc 5c3a 87be
00000040: d194 3ebd cccb 4bbe 1bf6 bdbc 6227 f43c
00000050: 1381 8abe c2e8 c53e 00c9 02bf c321 383e
00000060: 53b7 1bbe 2e2a 8f3e 3436 e93b 27cf cfbe
00000070: e281 7ebe 9b94 f13c 9a1b 1b3e 946c c23e
00000080: ddd9 073f 2ab3 9d3e caf2 0f3e afe7 71bb
00000090: d3d3 e93d afbf 923e e612 99be 4879 313e
000000a0: 3f0a d83e 89a1 393e 9795 4cbf e53c 2abe
000000b0: 110d 85be c304 2f3e ff40 c7be 03fe 90bd
000000c0: ba69 463e e889 5ebe 40d9 e63e a228 173f
000000d0: fb9a c1bc 181d 483d 06af 07bd 9556 19bf
000000e0: ee9d 2dbe 81fa eebd 4630 633e 2ed9 1ebf
000000f0: b639 41be 39a5 c8be 914c 08bf 0854 a43e
00000100: 0ded eabd f2c0 b2be f918 cd3a 9bb6 99be
00000110: 6cb8 f4bd e9e2 d1be 54ca 013e 18bb 593e
00000120: 7267 533d cf1a 03bf 5657 b73d bdcd 41be
00000130: 90c2 23be 5883 173e 017b 973d b491 013e
00000140: 585f 09bd 901e 373d 771f 9b3e 47aa aa3d
00000150: 2df1 dfbc 2125 47be 216e be3d 31a9 6abd
00000160: 0169 2b3e 653d 64bd 60d7 56be 87ba 48bd
00000170: 39ba 033e 59f3 f9bd c988 24be e102 f8bd
00000180: 0f02 f33d af5a e6bd 4010 6a3e 41ca 2dbc
00000190: aa8b a23e 6235 f1bd 8c71 013e 4204 69be
000001a0: e6a0 ef3e bfc1 cebe 9e35 45be b7f3 e9bd
000001b0: fd3e 9dbe 1133 ddbd 7d8a 80bd 06f5 9cbd
000001c0: 8aa9 8f3e 8a8c 0abf bfdf c5bd ec37 9abe
000001d0: a3cb 973c 8a9e 313e e3a0 a13d a7cb 5dbe
000001e0: 3a2f bc3d d0b0 96bd 29b5 c13e ab3a f8bd
000001f0: 3047 5abd 2f07 c4bd be79 00bf 0e64 f1be
00000200: ff87 f73d 4796 4abf 8c0a 43be 8184 81be
00000210: 3780 69be c7db f4bd 1054 153d 58ce 973d
00000220: 07b9 3cbe cf9f c43d 99c1 a73d 95ba 8fbe
00000230: 7424 8a3e 9589 febc a7f9 053c 41a0 eabc
00000240: 4fdc 71be d361 4c3e 4669 b0bc 28c5 333e
00000250: d2e0 623e 733d b13c d351 40be 3abc 7abc
00000260: ec8c aa3e 617b 593e 809d 6a3e 8737 fcbe
00000270: 1752 ef3c 4c49 9ebd e131 34be d2af 76bd
00000280: 83ff 6f3e ab02 963e 84a9 953e ae89 17be
00000290: 18de 08bf 2808 0ebe 2303 1bbe 7501 08bf
000002a0: 9167 e93d 688a 9d3e 06f2 1bbf cd15 bebd
000002b0: 2313 3e3f adcb 533e 2de1 41bd 7324 9bbe
000002c0: 7c28 84be e399 923e f906 45bf 987f 85bf
000002d0: 41cc e1bd 4d9c 4bbe 8b8b 883d b135 c4b9
000002e0: b724 873f 3048 173f 4ca0 54be 9bc0 83bc
000002f0: 0290 783e adbc 213f aacf 0fbf f98c eabd
00000300: 9cf8 e8bb b018 c8be dcb4 32be 1dc1 a83e
00000310: b59c 5e3e 9bc0 193e b678 19bc e948 30be
00000320: e45e 2b3f 5a7f 1dbe 9c8d 703d 4b03 1bbf
00000330: ada3 a9bd 4cb2 45bf f6c4 223e c07a 0bbf
00000340: 9a92 6f3e 5d76 7cbe ac14 943d fb54 2f3e
00000350: 3066 97be 1724 e8be 49bc ef3e 64ed bdbe
00000360: 52a7 6ebe acdb 90bc 7e70 f73d 16bb 42be
00000370: 4043 6bbf 9d17 bc3d a79e 4cbe d491 6dbe
00000380: 27d1 c33d 6b40 1f3e 67bd 823e a8a8 0c3e
00000390: ae73 0a3d ff79 9ebd 1e11 33be 887f e5be
000003a0: 77db 77be 6ff6 a03e c85f 363e a11f 15bd
000003b0: cb98 8b3d 1b8b 873e 06f0 8f3e 90b4 813d
000003c0: 2b84 eb3d 9767 263e d313 3cbe 3d15 4ebe
000003d0: adc8 2dbe 5862 c4be 8742 61be 34e0 afbe
000003e0: 4e02 3d3b e693 c13d 20dd 4f3e 10e5 32bd
000003f0: ae4d 95bd 820f a4be 1e6f 07bf 3cae 103c
